notebooks/assets/policy/SimpleNN_scenario_0.pth (torch, 22144 bytes, 6 tensors)

model.model.0.weight f4 [64, 4]
00000000: a8eb a7bd 286c e73e 9869 d2be 2c18 d5be
00000010: a32a 8f3e a080 eabc b19b b6be 4d4d 9d3e
00000020: 3f3a f5be 99ad 1ebe 3e38 093f 05da 9cbe
00000030: 7f88 99be b2ab a43e 5c53 4e3c 4276 d4bd
00000040: 00e1 ba3e 8a17 e9be f8d4 94bd afa5 013f
00000050: 537a f63e 4f0d d1bd 4c07 be3e 6df6 0e3e
00000060: dc7b 11be 103e 71bd c6bf d7be 1852 b13e
00000070: 80a5 f5bd 343e 32be 729b c63e be8d fbbe
00000080: 4383 05bf d3dd 833e f61b 173f 5805 91be
00000090: 40d5 07bd c007 34bd 88fe a83d ac9d 76be
000000a0: 8808 053f 943d 053d 7855 033f e2cd b73e
000000b0: 9aa4 0dbf 5b05 983e 71b5 9cbb add1 07bd
000000c0: 28e8 2a3e 80db a93e 7a39 a6be bed0 ddbe
000000d0: 84f0 1f3e 045d ebbe 0474 82be c8c1 dfbe
000000e0: d87c 9bbe 6803 36be 1690 833e 96d6 e7be
000000f0: f487 193f c017 b4bd 88e9 633e dac6 953e
00000100: 9f96 a3be f511 1b3e c906 d5bc 0835 86be
00000110: 3ca9 aebc 4d67 4f3d 4b0c d23e e9d2 fd3e
00000120: e488 103e 5e6f c73e 809c 843e 6e99 babe
00000130: 9616 6cbe 56b7 ca3e 28b6 6ebe 0d60 863e
00000140: dab0 b83e d55a 923e ffdb a3be 230c 9cbe
00000150: 6e95 d43d de21 f33d 2fb8 823e 9bd6 c23e
00000160: 0c5a ebbe 7acb e43e 771a fe38 782e 2cbe
00000170: 85a0 e9be a2b5 e6be dbad abbe 2701 cc3e
00000180: 4a6b e8be 4772 0f3f 7778 a33e 299a d73e
00000190: 075f 5c3e ec11 a13e 8961 f13e cf2f d63e
000001a0: ff9f 943e 6fe4 853e 80b6 b63e 087a 9b3e
000001b0: 5814 df3e d16c 873e 98db ac3e c49a d53e
000001c0: 60b1 c0be 2084 f93e 6186 503e 131a ea3e
000001d0: c835 b93e 2171 c13e daf8 1bbe f6ea cf3e
000001e0: 58ba b2be 9c2f 8d3e 1480 dabe c68e efbe
000001f0: 83df f33e cace 00bf 19b8 5cbe 2900 f43d
00000200: 3386 07bf 5f31 e53e 5739 9d3e ca18 5e3e
00000210: be24 82be 30c1 5c3d 1ae5 d2be b060 413d
00000220: cc82 66be 22fb 9c3e df67 f73e 3c18 483c
00000230: 9ef1 d33e da6c 073f 0a94 423e d4af 073f
00000240: 9075 bcbe 2078 fdbc 1ceb 13be c05a b2bc
00000250: 3a80 95bd 4e69 e63e a3b4 abbe e609 733d
00000260: 5235 2c3e 2d34 fc3e 1a22 3f3e 6276 d6bb
00000270: 4cc5 8e3e 79d5 b0be a2d1 32be 907b 933e
00000280: 3783 da3e 09f5 933e d178 15be a68f a63e
00000290: 8e2c a4be b83a a2be f86d 7a3e 800a 943d
000002a0: c413 45be a8fb c4be d2ca d2be 4045 8dbc
000002b0: e615 a43e df0f 823d ec61 dfbe e127 2abd
000002c0: 0a67 a23e 6f11 da3e d7d8 7dbe d9b9 773e
000002d0: 9226 b93e f05a 7a3d 2ad0 91be fca2 ebbe
000002e0: ed6f 843e 85bb ab3c 39ad f73e b03a cc3d
000002f0: a99b c23e 5ea2 4c3e 89cf 003d 47d4 053f
00000300: 0b53 da3e 483d b8be f941 db3d 3003 ad3e
00000310: ab67 fb3e ef6d b13e 0426 e53e 961f fc3e
00000320: 9622 023f 550f bf3e 69a4 393e 2b50 793e
00000330: 69d6 c83e 82bd 0dbf 3c86 0d3f 0619 70be
00000340: 4ee4 ddbe 7088 62be 00fe 79bd e014 ecbd
00000350: c035 15bf 52a0 023f c805 8cbe e62f 1a3b
00000360: 3a83 bebe 9f0f 2c3e 6300 4fbe 3c74 ba3e
00000370: 10eb 073d 3049 5f3e b04a 90bd 160c bebe
00000380: 8968 023f d8eb 0dbf 03e8 ca3d e270 6dbe
00000390: 489f 093f 19a4 8cbd 6d73 b4be 65bc 7f3d
000003a0: 3100 4f3e 444e 1bbd a8b3 913e 4c9e 353e
000003b0: e02f c8bd 1448 13be 5adb f83e 2666 85be
000003c0: c05a 83bc 2cfd 8fbe f895 5c3e a02f 973c
000003d0: 8e02 e2be ebef ccbd 6f43 ae3e 7c8a 113f
000003e0: 6717 723e 2776 09bf 1a18 023f a3b9 113e
000003f0: 792c 09bf 8e40 c73d ffe8 d13e 1832 ddbd
-0.08199245 0.45199704 -0.41096187 -0.41620004 0.27962217 -0.028625786 -0.35665658 0.30723038
-0.47896 -0.1549591 0.53601444 -0.30635086 -0.2998695 0.32162243 0.012593117 -0.103741184
0.36499786 -0.4552577 -0.07267183 0.5064344 0.481402 -0.102076165 0.37114942 0.13961191
-0.14207405 -0.058897078 -0.421385 0.34632945 -0.11994457 -0.17406541 0.3879047 -0.49131578
-0.52153414 0.25755176 0.5902704 -0.2832439 -0.033162355 -0.043952703 0.08251673 -0.24083585
0.5196614 0.03252943 0.5130229 0.35899264 -0.5532929 0.29691586 -0.0047823717 -0.033158947
0.16690123 0.33175278 -0.32465726 -0.4332332 0.15619093 -0.45969403 -0.25479138 -0.4370253
-0.30368686 -0.17774737 0.25695866 -0.45280904 0.59973073 -0.087935925 0.22257054 0.29253274
-0.31950852 0.15143569 -0.026004212 -0.26212335 -0.021320932 0.050635625 0.41025004 0.49574974
0.1411472 0.38952154 0.2590065 -0.36445183 -0.23055491 0.39593 -0.23311675 0.26245156
0.36072427 0.28584924 -0.3200378 -0.3047801 0.10380064 0.11871694 0.25531146 0.38054356
-0.45967138 0.4468649 0.00012116593 -0.16814601 -0.4563028 -0.4506045 -0.3353108 0.3984463
-0.45394355 0.5603375 0.31927845 0.42109802 0.21520625 0.31458986 0.47144726 0.4183335
0.29028317 0.26150844 0.3568611 0.3036654 0.4357021 0.26450208 0.33761287 0.4171964
-0.37635326 0.48733616 0.20363761 0.45723018 0.36173844 0.37781623 -0.15231648 0.40608948
-0.34907794 0.27575386 -0.4267584 -0.46788615 0.47631463 -0.50315535 -0.21554603 0.11914093
-0.52939147 0.4476423 0.3070781 0.21689144 -0.25418657 0.053895175 -0.41190416 0.04721135
-0.22510833 0.3066035 0.48321435 0.012212809 0.41395277 0.5290047 0.19001785 0.5300267
-0.36808443 -0.03094107 -0.14445156 -0.021771789 -0.07299848 0.45002216 -0.33536252 0.05933561
0.16817215 0.49258557 0.18665352 -0.006544874 0.278849 -0.34537867 -0.17462781 0.28805208
0.42678234 0.28897884 -0.14596869 0.3253147 -0.32065243 -0.31685424 0.24456012 0.07228565
-0.19245821 -0.38473248 -0.41170365 -0.017244935 0.32047957 0.063506834 -0.43629396 -0.041541938
0.31719238 0.42591426 -0.24789749 0.24191989 0.3616224 0.06112188 -0.2847913 -0.46022785
0.25866643 0.02096344 0.48374346 0.09972131 0.38009384 0.19983813 0.03144792 0.52277035
0.42641482 -0.35984254 0.10705943 0.33791494 0.4910253 0.34654185 0.44755566 0.49242848
0.50834024 0.37316385 0.18129124 0.24346988 0.39226082 -0.5536729 0.5528295 -0.23447046
-0.43338245 -0.2212236 -0.06103325 -0.11527419 -0.5828514 0.5102588 -0.2734816 0.0023527085
-0.37209493 0.16802834 -0.20214991 0.36416805 0.033183157 0.21805263 -0.070454955 -0.37118596
0.5094076 -0.55437994 0.09907534 -0.23187593 0.5375867 -0.06867237 -0.35244313 0.062435526
0.20214917 -0.037916437 0.2845738 0.17736167 -0.097747564 -0.14382964 0.48604852 -0.26054496
-0.016034484 -0.28122842 0.21541584 0.018455327 -0.44142574 -0.10006698 0.34035823 0.56851935
0.2364174 -0.5369591 0.50818026 0.14230971 -0.53583485 0.0972911 0.40998074 -0.1080057

model.model.0.bias f4 [64]
00000000: 1ca1 16be 1a29 dc3e d940 d23e 0565 bb3e
00000010: c88d d63c 842e c5be 3079 b9be 8037 e9bd
00000020: d63e 13bd a06b b0bd 8787 12be 69d5 ae3e
00000030: 4a69 95be 1c70 ee3e 8024 ed3d cd47 e0bd
00000040: 635a 0f3f b59a ae3e f646 e5be ca14 323e
00000050: 60c0 c83e 40eb 193e dac7 ee3e 81d9 be3e
00000060: 0021 9bbe 0a5f ed3e 2d00 cdbe 60e0 ee3e
00000070: 37c7 9fbe 8729 903e 2800 363e 602f 023f
00000080: 9ae1 923e cc33 bdbe 5400 fb3e a460 adbe
00000090: 22d8 aebe d770 9e3e 92f8 9fbe f396 8b3e
000000a0: 6c0c 5ebe f637 cebe d0ef fabe abf8 ab3d
000000b0: 319a aebd 5086 58be c56b 923d 2e6e 43be
000000c0: f527 d6bc 9c2d 40bd 7b55 c4bd 1cac 863e
000000d0: a46e 983e e30e 0c3f 8080 933e 4c73 2ebe
000000e0: 44a1 053f b98f 883e e1ae cebe acd3 a3be
000000f0: 4298 d1be c7ce bfbe efa5 32bc a51d d73e
-0.14709896 0.43000108 0.410651 0.3660051 0.026190653 -0.3851205 -0.3622527 -0.11387539
-0.035948597 -0.08614278 -0.14309512 0.34147194 -0.29181892 0.46569908 0.115792274 -0.10951195
0.55997294 0.34102407 -0.447807 0.17390743 0.3920927 0.15031147 0.4663685 0.37275317
-0.30298615 0.46361572 -0.40039197 0.4665556 -0.31206676 0.28156683 0.17773497 0.5085354
0.28687745 -0.3695358 0.49023688 -0.33862793 -0.3414927 0.30945465 -0.31244332 0.27263603
-0.21684426 -0.4027707 -0.49011087 0.08397039 -0.085255034 -0.21144986 0.07149462 -0.19084999
-0.0261421 -0.046918496 -0.095866166 0.26303184 0.29771912 0.54710215 0.28808975 -0.1703617
0.52199197 0.26672152 -0.40367797 -0.3199743 -0.40936476 -0.37462446 -0.010903819 0.42014804

model.model.2.weight f4 [64, 64]
00000000: 5e8f 9a3d dc53 92bd 0180 883d 395e bb3c
00000010: 9069 87bd 9045 30bd 3246 e73d 94ea a4bd
00000020: 0c4e 56bc 3ad2 fcbd 9cd9 953d 5b2a 0fbd
00000030: 2cd3 1e3d 103b b8bd b6cc ab3d eb91 84bc
00000040: 059f b33d c9c3 9abd 02d2 e13d 666e 0bbd
00000050: d6b3 9fbd a326 a8bd ec2c 7a3c 20ad 5b3c
00000060: 45d2 333b f31b 13bd 9d89 06bd 02fa ae3d
00000070: 0937 6dbc 7e34 f9bd f2f5 de3d 2070 753d
00000080: 4298 2abd f4d4 1cbd 5fe7 b2bd ad9d eabc
00000090: a0d2 623d 04e7 793d 714c 55bd 0007 c13d
000000a0: 443d dbbd 62b1 ec3d 1827 c8bc 24ae d9bd
000000b0: 5515 86bd 56d1 843d 21c5 ba3c 6449 f0bc
000000c0: b029 9d3d 9c8a 753d 806e ac3d 7095 2bbd
000000d0: f644 cb3d 9adb 693d f39b 3738 1811 7fbd
000000e0: 4c0e c0bd 02ca 823d 68e3 c4bd ae51 fe3d
000000f0: dec2 e93d e673 d73d 217f f9bd 025b 033d
00000100: 5abb e03d 800b e9bd 40f7 5bbb 409b f6bd
00000110: 4204 e23d 8a0a b3bd 9c83 e23d c0e2 8b3c
00000120: 40d5 7bbd 6c49 d83d 506a 58bd 92ac e73d
00000130: 8435 1e3d 7adb a6bd 10e0 f53c a01d 6f3d
00000140: 60e2 04bd d89a 6bbd f8ea f0bd 6002 ccbb
00000150: b2b7 803d a2c8 ed3d 848f 3cbd 7892 ae3c
00000160: 40fb 043d 8230 f6bd f8f4 f5bd 102c 61bd
00000170: 8898 c3bd 022d bbbd 52e5 99bd 98ed 3ebd
00000180: 1461 3dbd 0cde 3abd 9abe 923d f889 113d
00000190: eecd 913d ecfb c23d e462 e73d 40fb 5fbb
000001a0: d8ae bebd e887 19bd 1035 1ebd ced3 c13d
000001b0: 8073 b83d 96b3 a3bd f0b4 6cbd 0c2f 94bd
000001c0: cce2 f73d 2010 ff3d 3004 1e3c a2f7 eebd
000001d0: c01e 0ebd 8005 30bc c8e1 67bd c041 3ebc
000001e0: 2035 bbbd 0002 f93b 7448 9ebd 7001 713c
000001f0: c049 043b 08e0 f8bc 7a96 b33d 121d c93d
00000200: 90b7 663d 1f69 9e3c e592 c5bd f140 ab3d
00000210: b02d 5abc bced 953d b431 f8bd b21f 96bd
00000220: a50b 863d c8cd 573d 9bb6 85bd 809c e8bd
00000230: 5c0b a3bd 5085 f2bc fccb 89bd 2f94 99bc
00000240: 0a68 acbd 4ab0 5bbd 1055 d13c f035 a63d
00000250: 439a 4a3d 0703 b5bd dc48 5ebb c884 7c3d
00000260: dde0 e83d 4471 95bd 515c 24bd 05cb b53d
00000270: a583 393d a143 e0bd 629d c83d 540b 47bd
00000280: 9101 be3d 2057 f73d 92b8 82bd ea60 cebd
00000290: d04c 76bc b0c7 213d 1c09 10bd cc59 bdbd
000002a0: c73e d6bd f865 b4bd f6d6 ccbd 940d f9bd
000002b0: cf86 a4bc 8488 533d 16f4 e0bd 209f 003d
000002c0: f0f4 5c3c 9858 5e3c 8062 ff3b a0d0 d4bb
000002d0: 8285 86bd 8ac7 d83d 7f25 753c 5242 89bd
000002e0: 0c0b 7d3d 7a51 da3d 2716 6e3d b438 833d
000002f0: 08f8 f6bd d665 cb3d 58b5 c7bd 7423 acbd
00000300: 2c63 e9bd 7e04 78bd c851 f73c 4b68 4d3b
00000310: dc01 b4bc ca76 5a3d 48f8 6bbd a831 483d
00000320: 803e b7bd 4ad3 a3bd 69be 43bd fac0 c9bd
00000330: a887 ef3d 706a a9bc 00b0 70bc 7bd6 dcbc
00000340: 9817 d5bc 7b43 aa3d 805a 253c ebb2 b33d
00000350: fc66 9c3d 911c c93d db22 563d ac38 fabc
00000360: 3a91 023c aa9e cfbd 4eb4 ae3d 8cba abbd
00000370: e338 50bd 9e2e 423c 3ea3 80bd d9a0 a8bd
00000380: 3871 16bb e844 f63d f56e c6bc c229 fcbd
00000390: a01d 76bc 7dab b73d b42e 9c3d 0cd1 0a3d
000003a0: b68f 3c3d c0e5 83bc c0b8 003b 46d6 ad3d
000003b0: e3bf 8abd 2a67 eebd 3f1e 17be cddf 383d
000003c0: eefe 6fbd d657 aa3d b727 213d 8e6c f3bc
000003d0: feaf d0bd 98da d73c 39df aabc b02b 6c3c
000003e0: 51c9 56bc b3bc 81bd 7116 04be 9850 bb3d
000003f0: 0471 45bd 6b31 cebd 94ce 583c 9a2e 5abd
0.07546876 -0.07144901 0.0666504 0.022872077 -0.06611931 -0.04303509 0.112926856 -0.08052555
-0.013080131 -0.12344785 0.07316896 -0.034952503 0.038775608 -0.0899564 0.08388655 -0.01618286
0.08770565 -0.07556874 0.11026384 -0.03404083 -0.07797973 -0.08210494 0.015269499 0.013407975
0.0027438563 -0.035915326 -0.032846082 0.08543779 -0.014478453 -0.12168215 0.10886754 0.059921384
-0.04164911 -0.038289025 -0.08735537 -0.028639639 0.05537665 0.06101133 -0.052074853 0.09425163
-0.10705045 0.115572706 -0.024432704 -0.10628918 -0.065470375 0.0648524 0.022799077 -0.02933187
0.07673967 0.05994664 0.08419514 -0.04189056 0.09925263 0.057094194 4.377584e-05 -0.06227216
-0.09377727 0.06386186 -0.09613687 0.12417923 0.11414121 0.10520153 -0.12182451 0.032069214
0.109732345 -0.113791466 -0.003356412 -0.1204133 0.11035968 -0.087422445 0.11060259 0.017075896
-0.061482668 0.10560879 -0.052835763 0.11312212 0.038625255 -0.081473306 0.030014068 0.058377862
-0.03244245 -0.057520717 -0.11763567 -0.006225869 0.06285037 0.11610533 -0.046035305 0.021310076
0.032466173 -0.12020971 -0.12009615 -0.054973662 -0.095505774 -0.09139444 -0.075144425 -0.046613306
-0.04623516 -0.045621917 0.071652606 0.035531968 0.07119356 0.095207065 0.11298159 -0.0034176856
-0.093106925 -0.037483126 -0.038624823 0.09464227 0.09006405 -0.07993238 -0.057789743 -0.07235536
0.12103805 0.124542475 0.009644553 -0.11668326 -0.034697294 -0.010743499 -0.056611806 -0.011612356
-0.09140992 0.0075991154 -0.07728663 0.014709815 0.002018556 -0.030380264 0.087689355 0.09819998
0.056327403 0.019337235 -0.096471585 0.08361996 -0.013316557 0.07320735 -0.12118855 -0.07330264
0.0654519 0.052686483 -0.0652897 -0.11357975 -0.07961151 -0.029604584 -0.0672836 -0.018747417
-0.084182814 -0.05363492 0.025553256 0.081157565 0.04946352 -0.08838468 -0.003391794 0.061650068
0.11371014 -0.07296994 -0.040127102 0.088766135 0.04529156 -0.10950399 0.097956434 -0.048594788
0.092776425 0.12077165 -0.0638286 -0.10077079 -0.015032962 0.039497077 -0.035164937 -0.09245643
-0.104611926 -0.088085115 -0.10001938 -0.12160793 -0.020083813 0.051643863 -0.10984056 0.031401753
0.013486132 0.013570927 0.0077937245 -0.0064945966 -0.06568433 0.10584934 0.014962553 -0.06702103
0.061778113 0.10660072 0.058126595 0.064073 -0.12059027 0.09931533 -0.097513855 -0.084052
-0.11395869 -0.06055116 0.030190364 0.003134268 -0.021973543 0.053335942 -0.057609826 0.04887548
-0.08947468 -0.079992846 -0.04778901 -0.098512605 0.11695796 -0.020680636 -0.014690399 -0.026957741
-0.026012227 0.08313652 0.010092378 0.0877436 0.0763683 0.09819902 0.052279335 -0.030544601
0.007969195 -0.10137685 0.08530484 -0.0838519 -0.0508355 0.011851935 -0.06281136 -0.08233804
-0.0022955667 0.120248616 -0.02422283 -0.12312652 -0.015021712 0.08968256 0.076260954 0.03389077
0.04603549 -0.016100764 0.001964137 0.08488135 -0.06774881 -0.11640771 -0.14757632 0.045135308
-0.05859273 0.083175346 0.039344516 -0.029714849 -0.10189818 0.02634935 -0.020858394 0.014414713
-0.013109521 -0.0633482 -0.12899186 0.091462314 -0.048203483 -0.100680195 0.013232846 -0.0532671

model.model.2.bias f4 [64]
00000000: 70ac 193d 5ca0 dd3d ba24 413d ec70 92bb
00000010: 853b 03be 7e13 1a3e 8a50 823d 4070 003d
00000020: 6c54 90bd 8e2f 57bd 79b0 4abd de32 923d
00000030: bf6a ac3b 2cd8 ab3d 2471 e73d f902 253e
00000040: 7d4a 47bd b50e 2b3e a618 9e3d ad9c e0bc
00000050: 95ce d3bd d72c d13c 3238 843d 0e86 e1bc
00000060: b0c2 c63c ac86 32bd 0d51 873d 10ef 81bc
00000070: e977 083d d8a6 653d 5a1f 13bd bec4 5b3d
00000080: 03f5 f83c feff 7dbb 4a19 d63d 44be 473d
00000090: dc3c 04be b847 cf3d 366e e6bd 9ebe 9abd
000000a0: 9f56 b3bd 53ec ee3d bae4 f1bc 00e9 e7bc
000000b0: 9e30 a8bd 6347 513e 0e0e bbbd 36ec a3bd
000000c0: 73e7 ed3b 21b5 f0bd dffb c9bc 6a77 06bb
000000d0: 9ad3 adbd 20a7 24bd dcdc 1f3e 540c 15bd
000000e0: e2f4 a53d aa7e ee3d dc3f 66bd 2dd4 58bd
000000f0: e7a5 7e3d 3e4e f8bd c67c 353d c2ee 1f3e
0.037517965 0.10821602 0.047154166 -0.0044690277 -0.12815674 0.15046498 0.06363018 0.03135705
-0.07047352 -0.052535586 -0.049484704 0.071386084 0.0052617486 0.08390841 0.11300877 0.16114415
-0.048655022 0.16704829 0.07719545 -0.027418459 -0.10342137 0.025534077 0.06456031 -0.027529743
0.024262756 -0.043585464 0.06607256 -0.015861064 0.03331748 0.056067318 -0.03591857 0.053654425
0.030390268 -0.003875732 0.10454042 0.048765436 -0.12913841 0.10121101 -0.1125149 -0.075558886
-0.08756756 0.11666169 -0.02952801 -0.028309345 -0.08212398 0.20437388 -0.0913354 -0.08004038
0.007260257 -0.117532976 -0.024656234 -0.0020517954 -0.084876254 -0.040198445 0.15611595 -0.03638871
0.08103348 0.11645253 -0.056213245 -0.05293672 0.062169936 -0.121242985 0.044308446 0.15618423

model.model.4.weight f4 [5, 64]
00000000: 57c5 dcbd f454 043d 334d c0bd 17e9 06bd
00000010: 07b7 013d bd17 99bb 7d6b ddbd e4ac 253d
00000020: a18d 35bb 6fb5 19bd 4930 fc3d 48a3 ddbd
00000030: afcc 00be a512 4fbe e377 41bb 77cc 063d
00000040: b571 a2bc 007d dfbd bc34 b8bd 0d2c 513d
00000050: d8c9 dd3d 7da1 0b3e a00d 83bb 1927 9ebd
00000060: 38f4 2ebd ea6e b2bb b9b3 f93c 61b5 d2bd
00000070: 68d6 efbc 9e8f 043e 9b84 d3bd e52c 513c
00000080: 13d9 b3bc b9a6 94bd 7d16 103e 00f6 f8bc
00000090: b34a bc3d b6b5 d83d 605e 3fbd 3cd2 e3bd
000000a0: a027 54be eb04 873d b23c f9bd 2e4c f7bd
000000b0: 7617 4bbd d272 d2bd 6df1 a53c f077 61bc
000000c0: 8928 853d 4b8f 513d 295d ac3d 3eb5 42bb
000000d0: 149c 493d d6cc 393d b3a7 833d 6804 9c3d
000000e0: a65b e13d fc1b 583d bcf2 2f3d 269a ad3c
000000f0: 680e 0abe 3c8b 3fbd b245 a3bd cd86 80bd
00000100: 0ef1 8d3c 3a92 dfbd 58d7 593d 366a b8bd
00000110: 3398 f13d 1e70 093e 71cb bd3d a456 393d
00000120: a06f 43bd 2b73 b5bd 7ed0 613d e0a6 d83c
00000130: 5c4e 00bd f8a8 863e fea5 a23c 325f 2c3e
00000140: 04b6 3c3d 0f6f 633e 28e7 7bbd 8f81 d1bc
00000150: bb5a 1d3e ff2b f8bc b894 fe3d 2228 a9bd
00000160: 705e 95bd c95f eb3d 6eef 0dbc 3d27 1dbd
00000170: a87f 11bc ed7c 673d 6a80 a8bd 66e1 b7bc
00000180: cc68 97bd 7ea1 c2bc ddb8 f3bd 906d 053c
00000190: 37c7 49bd 52fe d43e c22c c7bd 74a4 1e3d
000001a0: 9e92 1cbc 30fb 0dbe c61c 453e 942f d3bd
000001b0: 100f b6bd 4ce2 4b3e 86fe 983b 2c97 773d
000001c0: 319e 943b c48c 99bd 6a9c e13b b15f 853c
000001d0: 38d2 1a3d 0e1e e23d 496d 203e fc26 cb3d
000001e0: ead7 e03d e747 fe3d 8087 f8bd 0fe2 c83c
000001f0: dd8d 353e 0429 563d 8572 5cbd f354 8c3d
00000200: a442 69bb c89b fdbd 9644 8a3c 0280 bf3d
00000210: 80b6 ad3d ae53 2fbe 191f d43c 4c3b ec3d
00000220: 89fa d5bd 1ba7 0fbd 0c94 5d3d 4083 1ebc
00000230: 0755 913e 4e3c 0f3d 5afb 863c 2517 00be
00000240: eba0 c63d fd89 febd 3495 4fbc f678 b33d
00000250: 3082 8abd 74f1 a93c 3c1f bbbd 470a 9b3d
00000260: fc07 a6bd eeb8 003d 8b77 b2bd 3109 ca3d
00000270: 215f 9c3d e5c5 ecbd f4ec 80bd a06e 1f3b
00000280: 6d7c e33d d511 e93d 5c17 9f3e ccd5 383d
00000290: f46d 093c b4b8 71bd e4d5 dfbd 503a 67bd
000002a0: c39e 213e 8820 b43e 444d 3cbe d421 b1bd
000002b0: 0824 bf3d 4e14 153f fc57 893d 589d e4bc
000002c0: a17d 963c 291c 9b3d 202b d23d d2ca 5d3d
000002d0: 14f4 9a3d bcab d03d 0533 6cbe 2c0a bbbd
000002e0: b96d acbd 4f99 51be 40aa 4a3c beca 24be
000002f0: 6215 9d3c e036 68bd ebde 5dbc 969f 13be
00000300: 8672 633d ee01 e23d 4f0e c1bd 074b a5bd
00000310: f26f a33d 195c 573e 197a 1cbd 0086 4b3c
00000320: 606b 1a3e 7ae2 4bbb 6679 c3bd 8479 babd
00000330: 0637 d63d 1c5b ba3d 289c f23c ad43 123e
00000340: be36 e83c 29f4 423e 00be b03d 4459 99bd
00000350: 9692 e3bd 65c3 193c 3061 aabd a2d2 36bd
00000360: 40da f1bd 4682 b1bd 9aee 6d3d f788 1e3d
00000370: 0e9e 36bd 0459 1c3d dbb1 ddbd ce5c fa3b
00000380: 3d9e a8bc e5ca ba3c db76 f43c 0420 a4bd
00000390: 0856 1a3e 79ce 81be e8b2 debc 8806 b3bc
000003a0: b1cf d93a d621 29bd e7a1 99bb d857 95bd
000003b0: 7cd6 ecbd a58c 83be 3dc1 dc3d a4a4 28bd
000003c0: 94d8 023d 73a7 073d 42c8 523d b8e6 163d
000003d0: 00f7 b03d 3314 683e 6b84 ea3d c0f0 81bb
000003e0: 5e09 903c 780c 783d 70f8 67bc 7df9 c83d
000003f0: 59c0 603e e012 d9bb bb0d da3c b0fb 5d3e
-0.10779827 0.03230758 -0.093897246 -0.032937136 0.03166869 -0.0046720193 -0.108115174 0.040448084
-0.0027702826 -0.037526544 0.12313897 -0.10822159 -0.1257808 -0.20221956 -0.002952092 0.032909837
-0.01982961 -0.10912514 -0.08994433 0.0510674 0.10829514 0.13635822 -0.003999427 -0.07722301
-0.042713374 -0.005445351 0.030481206 -0.102885015 -0.029277042 0.1294541 -0.10328027 0.012767051
-0.021954095 -0.07258362 0.14071079 -0.03039074 0.09193935 0.105815336 -0.046720862 -0.111240834
-0.2071824 0.06592735 -0.1216978 -0.12075077 -0.04958292 -0.102758065 0.020256722 -0.0137615055
0.06501872 0.051162045 0.084162064 -0.002971008 0.049221113 0.045361362 0.064284705 0.07618028
0.11003809 0.052761063 0.0429561 0.021191668 -0.13482058 -0.046763644 -0.07972278 -0.06275711
0.017326858 -0.109165624 0.053183883 -0.09004633 0.11796608 0.13421676 0.09267319 0.045248643
-0.047713876 -0.08859857 0.055130474 0.02644676 -0.03132473 0.26300788 0.019854542 0.16833189
0.04607202 0.22210334 -0.061499745 -0.025574474 0.15366642 -0.030294416 0.124307096 -0.08259608
-0.07293403 0.11492879 -0.0086630415 -0.0383675 -0.008880533 0.056515623 -0.08227618 -0.022446346
-0.07393035 -0.023758646 -0.11900494 0.0081437975 -0.04926225 0.4160028 -0.09725334 0.038731053
-0.009556441 -0.13865352 0.19249257 -0.10311809 -0.08889592 0.19910544 0.0046690134 0.060446903
0.0045354594 -0.07497552 0.006885101 0.01628098 0.037798136 0.11040889 0.15666689 0.09919545
0.10978682 0.12416058 -0.121352196 0.024521856 0.17729898 0.05228521 -0.05382015 0.0685214
-0.00355927 -0.123832285 0.016878407 0.093505874 0.08482075 -0.17121765 0.025893735 0.115347475
-0.104481764 -0.035071474 0.054096267 -0.009674847 0.28385183 0.03496962 0.016477276 -0.12508829
0.096986614 -0.12428663 -0.01266985 0.08763306 -0.067631125 0.020745017 -0.09136817 0.075703196
-0.08106992 0.031426363 -0.08714207 0.09865034 0.07635332 -0.11561183 -0.06295195 0.0024327412
0.11107717 0.11380354 0.3107251 0.045125768 0.008388031 -0.059014037 -0.10929468 -0.056452096
0.15783219 0.3518107 -0.1838885 -0.0864903 0.09333044 0.5823411 0.06706235 -0.027907059
0.018370451 0.075737305 0.10262132 0.054148503 0.075660855 0.10189006 -0.23066337 -0.091327995
-0.084193654 -0.20468639 0.012369692 -0.16092965 0.019175235 -0.056692958 -0.013541917 -0.14416346
0.05552914 0.11035524 -0.09426557 -0.08070951 0.07980336 0.21031226 -0.03820238 0.012422085
0.15080023 -0.0031110332 -0.09544639 -0.091052085 0.10459714 0.09099409 0.029615477 0.14283629
0.028346416 0.19038452 0.086299896 -0.07487729 -0.111119434 0.009384965 -0.08319318 -0.04463447
-0.11809206 -0.08667426 0.058088876 0.03870484 -0.044584326 0.03817083 -0.10824939 0.0076404577
-0.020583266 0.022801826 0.029841831 -0.08013919 0.15071881 -0.2535284 -0.027184919 -0.0218537
0.0016617683 -0.041292034 -0.0046884897 -0.072921455 -0.11564347 -0.2569324 0.10779045 -0.04117264
0.031944826 0.033118676 0.051460512 0.036841124 0.086408615 0.22663955 0.11451038 -0.003965467
0.017582592 0.060558766 -0.014158353 0.09813211 0.21948375 -0.0066245645 0.026617875 0.21678042

model.model.4.bias f4 [5]
00000000: 2de0 16be 104f 353e 3116 e7bd bc1d 95bc
00000010: cef3 bdbc
-0.14733954 0.17705941 -0.112835295 -0.018202655 -0.023187544
