notebooks/assets/policy/SimpleConv_scenario_0.pth (torch, 26322 bytes, 12 tensors)

model.embeder.0.weight f4 [64, 2, 1, 1]
0.44124672 -0.3108271 0.7344817 0.21998176 0.6729586 -0.73857343 -0.0849844 -0.6504801
-0.53730446 0.6295089 -0.020103794 0.040465526 -0.53689 -0.69775337 0.7561914 0.29621595
-0.6545805 0.3091601 -0.35106644 -0.121006675 0.1400968 -0.65406996 0.30589887 -0.04092248
0.41247156 0.2703189 -0.22092484 0.21055849 0.7208213 -0.25184634 0.6424535 -0.27422163
-0.26821512 0.02488274 0.31949818 0.43259788 0.7379901 0.33613735 0.11973757 0.8581863
-0.6707777 0.09427494 0.64788425 -0.8165265 0.32741383 -0.30160546 0.20315644 -0.15055089
-0.44752955 0.39092037 -0.13153028 -0.5813013 0.41104347 -0.6258579 0.34958243 0.44925892
-0.07365102 -0.48550287 0.6342122 -0.54376924 -0.15718852 -0.20768273 -0.07485761 -0.51772875
0.50429624 -0.10937278 0.56431985 0.28427258 0.45898655 0.3175305 -0.70589334 -0.09677844
0.1279773 -0.18466456 0.5670317 0.33038872 0.39629072 -0.7052124 -0.10213167 0.9116454
0.66501486 0.3883133 -0.14499846 0.6098058 -0.26331446 0.23828319 -0.015281955 -0.10487045
0.6072387 0.34626862 0.68109196 0.44802657 -0.5781702 0.19505613 -0.100544676 -0.44502494
-0.19988059 -0.2934664 -0.5062489 0.0424176 0.4669106 -0.69524467 -0.31044227 -0.040377792
0.43474934 -0.483978 0.70014054 0.3916611 -0.1251545 0.64731026 0.27152532 -0.6588464
-0.6518763 -0.31667995 0.11349753 -0.06186942 -0.48325187 -0.3040134 -0.50492865 -0.02558752
-0.39187607 0.31963602 0.22397535 -0.6717548 0.7040927 0.3509563 -0.51602805 0.46627963
00000000: 17eb e13e bb24 9fbe fe06 3c3f e642 613e
00000010: 0447 2c3f 2613 3dbf 4d0c aebd dd85 26bf
00000020: c98c 09bf 7f27 213f b6b0 a4bc 2ebf 253d
00000030: 9f71 09bf f79f 32bf c295 413f 9ea9 973e
00000040: 9692 27bf 3c4a 9e3e fbbe b3be 59d2 f7bd
00000050: 8975 0f3e 2171 27bf c79e 9c3e 559e 27bd
00000060: 792f d33e 3d67 8a3e 1f3a 62be a59c 573e
00000070: bf87 383f 01f2 80be d577 243f c766 8cbe
00000080: 7e53 89be e3d6 cb3c 4495 a33e 787d dd3e
00000090: ebec 3c3f 321a ac3e f938 f53d 19b2 5b3f
000000a0: 16b8 2bbf 3813 c13d bedb 253f e107 51bf
000000b0: c9a2 a73e 086c 9abe 3e08 503e 032a 1abe
000000c0: 9822 e5be b726 c83e e0af 06be 29d0 14bf
000000d0: 4a74 d23e 3938 20bf 78fc b23e 4405 e63e
000000e0: 59d6 96bd d593 f8be bb5b 223f 7634 0bbf
000000f0: 07f6 20be c8aa 54be f24e 99bd df89 04bf
00000100: 8f19 013f d6fe dfbd 4477 103f 2d8c 913e
00000110: 4900 eb3e 5c93 a23e 6db5 34bf c633 c6bd
00000120: 7b0c 033e b518 3dbe fd28 113f b628 a93e
00000130: 9ee6 ca3e cd88 34bf 692a d1bd 9861 693f
00000140: 6a3e 2a3f 00d1 c63e 7a7a 14be 3c1c 1c3f
00000150: 27d1 86be 8200 743e 2a61 7abc 52c6 d6bd
00000160: ff73 1b3f 1f4a b13e 0b5c 2e3f bd63 e53e
00000170: f602 14bf cbbc 473e 5eea cdbd 4fda e3be
00000180: 7fad 4cbe 3a41 96be 8799 01bf 14be 2d3d
00000190: e80e ef3e 8efb 31bf 4af2 9ebe 2f63 25bd
000001a0: 7797 de3e f7cb f7be 693c 333f ce87 c83e
000001b0: 8028 00be 20b6 253f 5e05 8b3e 28aa 28bf
000001c0: 5de1 26bf e023 a2be 6571 e83d ca6a 7dbd
000001d0: ca6c f7be a5a7 9bbe 0143 01bf eb9c d1bc
000001e0: fba3 c8be 55a7 a33e cb59 653e 1ff8 2bbf
000001f0: 6b3f 343f 8bb0 b33e 6a1a 04bf 34bc ee3e

model.embeder.0.bias f4 [64]
-0.6457276 -0.27510482 0.16527349 -0.4730294 0.3832714 -0.59603965 0.40242544 -0.58181715
0.769962 0.8282776 -0.21644935 0.6159303 -0.11512817 -0.33884177 0.016273782 0.39007625
-0.040199738 0.6828469 0.6747126 -0.23380257 0.905838 0.119839504 -0.6742463 0.690842
0.55443835 -0.6428145 0.18723072 0.010036136 -0.578997 0.15190573 0.06396677 -0.5670796
-0.35952395 -0.14751759 -0.012723144 -0.27831453 -0.2207388 -0.29927924 -0.6953716 0.4319422
-0.50317234 0.071646646 0.43334147 0.030781388 -0.15366541 -0.07876657 0.69376576 -0.02020798
-0.2907911 -0.46020582 0.44083267 0.7817965 0.00034864544 -0.331722 0.12862748 -0.64329976
-0.34252396 0.62496424 0.07315235 -0.10028261 0.58168375 0.38970244 -0.34580612 0.5259081
00000000: 674e 25bf 8ada 8cbe 743d 293e e930 f2be
00000010: 263c c43e 0e96 18bf b50a ce3e f8f1 14bf
00000020: 3b1c 453f 000a 543f e6a4 5dbe 9cad 1d3f
00000030: 51c8 ebbd ab7c adbe 9850 853c 13b8 c73e
00000040: 7ba8 24bd 0ecf 2e3f f7b9 2c3f f169 6fbe
00000050: 00e5 673f 6a6e f53d 689b 2cbf 05db 303f
00000060: acef 0d3f 7e8f 24bf 69b9 3f3e 9b6e 243c
00000070: 2639 14bf 2d8d 1b3e 0301 833d 212c 11bf
00000080: 8613 b8be da0e 17be bc74 50bc 3e7f 8ebe
00000090: 5a09 62be 213b 99be e003 32bf 8727 dd3e
000000a0: e7cf 00bf 7abb 923d efde dd3e 4029 fc3c
000000b0: 775a 1dbe 5e50 a1bd a29a 313f 358b a5bc
000000c0: 92e2 94be 19a0 ebbe d2b4 e13e d123 483f
000000d0: 66ca b639 77d7 a9be ecb6 033e 4baf 24bf
000000e0: 4d5f afbe a8fd 1f3f e6d0 953d f860 cdbd
000000f0: 3ae9 143f 1487 c73e 800d b1be eaa1 063f

model.embeder.2.weight f4 [32, 64, 1, 1]
-0.06713262 -0.035008162 -0.03954579 -0.11665957 -0.12221794 -0.05456531 0.0761292 0.08214912
0.10295904 0.06945442 0.004600644 -0.046115994 -0.0064624846 0.05010262 -0.06675404 -0.07871069
0.073084354 0.053129047 -0.12065111 0.115657374 -0.11391765 0.110833496 -0.11167164 -0.094115734
-0.030224979 -0.11818737 0.11918083 0.022265092 -0.11291741 -0.063397646 -0.11295779 0.024063915
-0.050763175 -0.022303388 -0.059840783 -0.04026501 -0.121181384 0.049496308 0.07129228 -0.060567796
-0.05771266 -0.10444984 -0.02413632 0.077074945 0.10834977 0.11244297 -0.09905733 0.116693884
0.10305153 -0.019524902 -0.0071814805 0.062467173 0.0037304312 0.09917912 -0.047264785 0.056089595
0.11166911 -0.023459673 0.077423945 0.024091765 -0.05713913 0.06716086 0.10257362 0.016425043
-0.0034015626 0.04643008 0.07387632 0.08769998 0.05537794 0.020442218 -0.04239075 0.10153109
-0.058057938 0.023425601 -0.03985104 -0.085323475 0.006228746 -0.022978485 0.0065201875 -0.071406156
0.06415166 -0.07282925 -0.0669072 -0.013364358 -0.07502383 -0.078869075 -0.087170154 -0.008682237
0.05137241 0.015737787 0.11649026 0.10858987 0.0080183 -0.021399643 -0.062324777 -0.12224035
-0.030688087 0.059917085 0.004080798 0.09564988 0.030406773 -0.11129795 -0.025597468 0.050646756
0.0693484 -0.11434651 -0.031299528 -0.015621768 0.050629035 -0.012770226 0.002456807 -0.12221089
-0.016393721 0.07786289 0.024275348 -0.12978375 0.08894411 0.0271732 -0.089482754 -0.03178239
0.019162253 0.032531694 0.046871603 0.016223252 0.05090286 -0.092520714 -0.042995345 0.09626491
-0.045689523 -0.03866185 -0.064171 -0.021030739 0.004423608 -0.07422 -0.12157065 0.10609256
0.027603375 0.038483463 -0.063207224 0.06302097 -0.12311917 0.059297517 0.04444559 -0.04113034
-0.065092206 0.06493372 -0.11451515 0.07509491 0.014932594 -0.07716729 -0.05725497 0.005789152
0.07171934 -0.10228886 -0.05419223 0.044527236 0.0072277337 -0.005493909 0.12439139 0.105976075
-0.081789225 -0.051229626 0.018027214 -0.07881209 0.08817108 0.0028055215 -0.02511543 0.013209043
0.08230911 0.069281526 -0.12802635 0.065181665 0.04854465 -0.045391873 -0.10274861 0.047316536
0.037316486 -0.11647545 0.06405549 -0.038346406 0.02711822 -0.080921754 0.11437795 0.0113006085
0.09131098 -0.12113475 -0.08277275 0.07019083 -0.019331105 0.05086735 0.03659111 0.0013130122
-0.07781708 0.025763925 0.47986808 -0.041604042 -0.12238213 -0.10082433 0.1057293 -0.11197256
-0.2361639 0.21645358 -0.016799375 0.14173187 -0.197532 -0.0336124 0.17143424 0.12328849
-0.04748699 -0.037871543 0.042452093 -0.27600712 -0.106444016 0.47567433 0.04105711 0.13204513
-0.26782373 0.051797703 0.53851813 -0.16534492 -0.11128543 0.19890085 -0.04816796 -0.10915418
0.008866197 -0.06789596 -0.14444074 -0.084413856 -0.11015783 -0.05915601 -0.007423699 -0.19649
-0.030369636 -0.12857983 -0.19576429 -0.0074336105 -0.044734582 -0.08303432 -0.19745919 -0.083381236
-0.082586035 -0.11728896 0.23744483 -0.06881167 0.53609514 -0.16750522 -0.14340982 0.029343322
-0.009096831 0.13296266 0.0024265796 -0.0052354336 -0.20085478 0.5403649 -0.1025245 -0.12014889
00000000: d47c 89bd b864 0fbd c4fa 21bd 36eb eebd
00000010: 664d fabd e07f 5fbd a0e9 9b3d cc3d a83d
00000020: 30dc d23d 1e3e 8e3d 00c1 963b 20e4 3cbd
00000030: 40c3 d3bb 6838 4d3d 58b6 88bd 1233 a1bd
00000040: 40ad 953d d89d 593d ee17 f7bd c6dd ec3d
00000050: a84d e9bd acfc e23d 1ab4 e4bd c0bf c0bd
00000060: 609a f7bc 380c f2bd 1415 f43d 4865 b63c
00000070: 3e41 e7bd a0d6 81bd 6a56 e7bd b021 c53c
00000080: 0ced 4fbd 98b5 b6bc 9c1b 75bd ecec 24bd
00000090: f22d f8bd a4bc 4a3d b001 923d f015 78bd
000000a0: 1c64 6cbd cce9 d5bd 88b9 c5bc 78d9 9d3d
000000b0: 7ce6 dd3d 8048 e63d 92de cabd 34fd ee3d
000000c0: ae0c d33d b0f2 9fbc a052 ebbb 94dd 7f3d
000000d0: 407a 743b 6c1e cb3d b898 41bd 34be 653d
000000e0: c6b2 e43d 802e c0bc 7290 9e3d 185c c53c
000000f0: b80a 6abd a28b 893d 1e12 d23d d08d 863c
00000100: c0ec 5ebb 782d 3e3d 784c 973d 0c9c b33d
00000110: fbd3 623d 7076 a73c eca1 2dbd 88ef cf3d
00000120: 29ce 6dbd 0ce7 bf3c d83a 23bd 13be aebd
00000130: 821a cc3b 603d bcbc 4ca7 d53b 643d 92bd
00000140: f261 833d 8027 95bd a406 89bd 2ef6 5abc
00000150: 18a6 99bd 1c86 a1bd 4486 b2bd f13f 0ebc
00000160: e06b 523d 88ec 803c 7292 ee3d 5e64 de3d
00000170: 305f 033c 4e4e afbc 4448 7fbd 2659 fabd
00000180: 9565 fbbc 9e6b 753d 37b8 853b 16e4 c33d
00000190: a017 f93c 2ef0 e3bd c8b1 d1bc f972 4f3d
000001a0: 8906 8e3d 812e eabd ef33 00bd 72f2 7fbc
000001b0: 6460 4f3d 363a 51bc 6202 213b b449 fabd
000001c0: 204c 86bc 9476 9f3d 18dd c63c 08e6 04be
000001d0: 5428 b63d 559a de3c bc42 b7bd 402e 02bd
000001e0: 28fa 9c3c f43f 053d 70fc 3f3d a0e6 843c
000001f0: 847f 503d 807b bdbd e31b 30bd 8a26 c53d
00000200: f024 3bbd e35b 1ebd 166c 83bd a848 acbc
00000210: eaf3 903b a800 98bd 08fa f8bd 0e47 d93d
00000220: 7920 e23c d6a0 1d3d ca72 81bd 2311 813d
00000230: e725 fcbd f4e1 723d 940c 363d 4a78 28bd
00000240: 104f 85bd f8fb 843d eb86 eabd 5ccb 993d
00000250: d7a7 743c e209 9ebd 3084 6abd edb2 bd3b
00000260: 97e1 923d d27c d1bd acf8 5dbd 3162 363d
00000270: a0d6 ec3b 4006 b4bb eac0 fe3d fc09 d93d
00000280: 1c81 a7bd 28d6 51bd cfad 933c 3c68 a1bd
00000290: 0a93 b43d d7dc 373b e0be cdbc be6a 583c
000002a0: ae91 a83d 79e3 8d3d 5719 03be f77d 853d
000002b0: c1d6 463d d4ec 39bd dd6d d2bd fcce 413d
000002c0: 2cd9 183d ae8a eebd 862f 833d 1f11 1dbd
000002d0: 0827 de3c 4eba a5bd fd3e ea3d 3026 393c
000002e0: 4001 bb3d 7f15 f8bd c284 a9bd 36c0 8f3d
000002f0: 445c 9ebc 485a 503d 8fe0 153d 6119 ac3a
00000300: 905e 9fbd de0e d33c 45b1 f53e 0069 2abd
00000310: 7ba3 fabd fc7c cebd 9a88 d83d df51 e5bd
00000320: f3d4 71be 02a6 5d3e d89e 89bc 2922 113e
00000330: d445 4abe 28ad 09bd 758c 2f3e ad7e fc3d
00000340: b881 42bd 311f 1bbd 3fe2 2d3d ce50 8dbe
00000350: 52ff d9bd 968b f33e 802b 283d d736 073e
00000360: 3120 89be d429 543d 53dc 093f 2e50 29be
00000370: 9ee9 e3bd aaac 4b3e c44b 45bd 3a8c dfbd
00000380: 8743 113c 090d 8bbd 46e8 13be 2ce1 acbd
00000390: 6e9a e1bd 934d 72bd 8042 f3bb ad34 49be
000003a0: bec9 f8bc 6eaa 03be 6f76 48be a595 f3bb
000003b0: 9c3b 37bd e60d aabd be32 4abe c8c3 aabd
000003c0: de22 a9bd 3235 f0bd bd24 733e 22ed 8cbd
000003d0: 883d 093f 7d86 2bbe 06da 12be 6861 f03c
000003e0: e00a 15bc 5d27 083e 4007 1f3b 008e abbb
000003f0: e0ac 4dbe 5b55 0a3f 5df8 d1bd 9f10 f6bd

model.embeder.2.bias f4 [32]
-0.088452995 0.040643193 -0.055043325 0.06999398 0.089574695 0.10986756 0.04931208 0.092668764
-0.0645383 -0.118300125 -0.07216697 -0.006408275 -0.018634561 0.11648104 0.089066386 0.10844204
0.30199543 0.011777595 0.036817208 -0.12260799 0.065377325 0.061891615 0.028667457 -0.10827029
0.12557195 -0.125013 0.10164144 -0.10444026 -0.059248753 0.030657774 0.07444733 0.06046364
00000000: d826 b5bd 7a79 263d 1c75 61bd 0159 8f3d
00000010: f072 b73d 3e02 e13d 77fb 493d 1fc9 bd3d
00000020: a82c 84bd 5647 f2bd 47cc 93bd 82fc d1bb
00000030: 82a7 98bc 9d8d ee3d 7068 b63d dc16 de3d
00000040: 259f 9a3e d0f6 403c a4cd 163d e619 fbbd
00000050: 8ce4 853d 1082 7d3d 04d8 ea3c d0bc ddbd
00000060: ef95 003e 6803 00be 6329 d03d c6e4 d5bd
00000070: d2ae 72bd 0326 fb3c d777 983d b9a8 773d

model.embeder.4.weight f4 [16, 32, 1, 1]
0.11410642 0.11172482 -0.08576331 -0.10095316 0.06967614 0.032015674 -0.007051442 -0.06643323
-0.06577669 0.06562951 -0.026483519 0.1427492 -0.018749215 0.030609507 -0.06479823 -0.07105432
-0.12045599 0.0640972 0.16940325 -0.11126089 0.107720114 0.057776984 -0.023821903 0.14437681
0.028639372 -0.1259861 0.0681818 -0.16165923 0.02394472 -0.08557266 0.05101189 0.092366986
-0.019152876 -0.15628308 0.117318705 0.38220155 0.16901204 0.010631232 0.08943177 0.0024613668
-0.06067082 -0.035651196 0.07881414 0.1529946 -0.11886785 0.12303854 -0.17372815 0.18161975
-0.08985576 0.0013739661 0.10840916 -0.16317332 -0.07782218 0.09442643 0.009465732 0.025239198
-0.39136523 -0.07770368 -0.09645421 0.15343 -0.16761032 0.03523999 -0.022983741 0.280802
0.16539921 0.04916771 0.10159213 0.2275396 -0.00090187934 0.19418356 -0.12690645 -0.056978833
-0.06059608 0.1747322 -0.09270431 -0.17694527 0.012757274 0.16830574 -0.12510502 0.42348158
0.24749056 0.049185667 0.033749774 -0.08717517 0.06947872 0.07959417 0.11716805 -0.01609093
-0.14114892 -0.00026395128 -0.08133111 -0.014537965 -0.15956645 0.09563019 0.0055993563 0.24533254
-0.05244286 0.16398484 -0.13321918 0.0043680975 -0.1483548 -0.13340682 0.043169573 0.16706091
0.24757482 0.06716454 0.12673049 -0.030667353 0.08073208 -0.13975614 -0.08371781 0.2831257
0.483546 -0.035945233 -0.06615316 0.03206431 0.16065447 -0.028541023 -0.12588446 0.13690308
0.33233362 0.0026787387 -0.103349425 0.017438201 0.10383092 0.027048485 0.1583543 0.20417985
-0.11772862 0.003108646 -0.050457574 0.035839297 -0.11530813 -0.06161753 0.012869119 0.025333332
0.08656351 0.13990301 0.0031879453 0.12634102 0.12484347 -0.16928066 0.09723474 -0.07878715
0.10187879 -0.15288116 0.04815408 -0.12338391 -0.15726791 -0.17597261 0.097742714 0.056103818
-0.13784866 -0.17237367 -0.1696313 -0.13193904 -0.15545814 -0.07474322 -0.15118389 -0.05289522
-0.018875107 -0.04776612 -0.07682285 0.037599385 0.052785218 -0.047318358 -0.12681173 0.16861667
0.030580398 -0.013882666 -0.035555925 -0.15369925 -0.003512729 -0.09080481 -0.12789129 0.06245837
0.4730534 0.047613103 0.011615359 0.031085955 0.18748456 -0.14056528 -0.018537644 0.08721938
0.4458444 -0.019645637 0.13182881 0.16149972 0.1295034 0.06870044 0.1625198 0.07267141
0.13435113 0.041764084 -0.1641688 0.18767683 0.05318517 0.09459501 -0.10576773 0.1450285
-0.0480929 -0.13457134 0.12470544 -0.07048539 0.0625399 0.06600928 -0.08866316 0.015643552
0.15459931 0.024995524 -0.03955475 -0.14478709 0.19596006 -0.14433555 -0.08039583 -0.12890872
-0.4110482 0.17858441 -0.05808524 0.11615844 -0.033650342 0.20368505 -0.12344765 0.37999797
-0.12494252 -0.06814708 0.006602167 0.3574202 -0.017183922 0.05050439 -0.026810845 -0.082970195
0.14799704 -0.1405869 -0.077377625 -0.029586604 -0.018967956 0.1204114 0.043345153 0.21223494
0.2769602 -0.038757358 -0.07920405 -0.09131131 0.104012 -0.020969637 -0.15837462 0.13723323
0.3002358 -0.13456164 -0.08131116 0.16992137 -0.09982713 0.13844073 0.08979838 0.026158344
00000000: a0b0 e93d fccf e43d ada4 afbd 88c0 cebd
00000010: 5db2 8e3d de22 033d c80f e7bb 250e 88bd
00000020: eeb5 86bd c468 863d f7f3 d8bc d92c 123e
00000030: f497 99bc cac0 fa3c efb4 84bd ed84 91bd
00000040: a1b1 f6bd 6545 833d 0c78 2d3e c0dc e3bd
00000050: 5d9c dc3d 8fa7 6c3d 2726 c3bc 84d7 133e
00000060: 1e9d ea3c 8002 01be e6a2 8b3d ff89 25be
00000070: b827 c43c b840 afbd d8f1 503d e72a bd3d
00000080: 7ee6 9cbc ac08 20be ca44 f03d ecaf c33e
00000090: 7e11 2d3e 9e2e 2e3c 0128 b73d e24e 213b
000000a0: f781 78bd fd06 12bd 4f69 a13d 9eaa 1c3e
000000b0: fd70 f3bd a1fb fb3d cbe5 31be 87fa 393e
000000c0: 4c06 b8bd a716 b43a 9f05 de3d e816 27be
000000d0: 3c61 9fbd a562 c13d 2816 1b3c 6fc2 ce3c
000000e0: 0661 c8be 1b23 9fbd c989 c5bd c11c 1d3e
000000f0: 0aa2 2bbe cf57 103d 6648 bcbc 48c5 8f3e
00000100: 695e 293e 1564 493d 890f d03d 2400 693e
00000110: 196c 6cba 0ed8 463e c4f3 01be a362 69bd
00000120: 9833 78bd ffec 323e c2db bdbd 2431 35be
00000130: e303 513c 5758 2c3e 881b 00be 94d2 d83e
00000140: 2a6e 7d3e e976 493d 343d 0a3d e588 b2bd
00000150: dc4a 8e3d 4502 a33d cdf5 ef3d 20d1 83bc
00000160: 5889 10be f162 8ab9 ed90 a6bd a530 6ebc
00000170: 6365 23be c3d9 c33d ce7a b73b 7438 7b3e
00000180: 53ce 56bd a4eb 273e 9c6a 08be 4222 8f3b
00000190: 52ea 17be cc9b 08be 94d2 303d 0412 2b3e
000001a0: 4184 7d3e 908d 893d a3c5 013e 1a3a fbbc
000001b0: dc56 a53d 3c1c 0fbe 3e74 abbd daf5 903e
000001c0: 5793 f73e 4f3b 13bd 4f7b 87bd de55 033d
000001d0: 9b82 243e ddce e9bc dbe7 00be 5230 0c3e
000001e0: a227 aa3e c78d 2f3b dda8 d3bd 8fda 8e3c
000001f0: 4ea5 d43d c994 dd3c a127 223e 8614 513e
00000200: b41b f1bd 6dba 4b3b 9aac 4ebd 3acc 123d
00000210: ab26 ecbd aa62 7cbd ffd8 523c d987 cf3c
00000220: 3648 b13d bc42 0f3e d9ec 503b 8a5f 013e
00000230: efad ff3d e957 2dbe 0223 c73d 285b a1bd
00000240: d4a5 d03d e18c 1cbe 363d 453d b4b0 fcbd
00000250: d70a 21be 2a32 34be 552d c83d 1ecd 653d
00000260: 3328 0dbe b982 30be d4b3 2dbe 071b 07be
00000270: 6b30 1fbe f912 99bd f3cf 1abe a9a8 58bd
00000280: f89f 9abc 68a6 43bd 4c55 9dbd d001 1a3d
00000290: 5035 583d e5d0 41bd efda 01be d9a9 2c3e
000002a0: be83 fa3c 1f74 63bc 17a3 11bd 5663 1dbe
000002b0: d035 66bb dff7 b9bd eff5 02be 59d4 7f3d
000002c0: 0e34 f23e f505 433d 594e 3e3c f9a7 fe3c
000002d0: f4fb 3f3e 58f0 0fbe 42dc 97bc 13a0 b23d
000002e0: b845 e43e e3ef a0bc 22fe 063e 2f60 253e
000002f0: 8a9c 043e d1b2 8c3d 976b 263e c0d4 943d
00000300: 5893 093e d110 2b3d de1b 28be 5b2e 403e
00000310: b1d8 593d 07bb c13d c09c d8bd 5a82 143e
00000320: 10fd 44bd 12cd 09be 9165 ff3d a55a 90bd
00000330: eb14 803d e02f 873d 0895 b5bd e826 803c
00000340: 484f 1e3e 6ac3 cc3c 2904 22bd 1143 14be
00000350: c1a9 483e b3cc 13be 92a6 a4bd a600 04be
00000360: e974 d2be d5de 363e caea 6dbd 7ae4 ed3d
00000370: f1d4 09bd d092 503e 1fd2 fcbd 188f c23e
00000380: dde1 ffbd b290 8bbd fe56 d83b c8ff b63e
00000390: 4cc5 8cbc b1dd 4e3d 6ba2 dbbc 47ec a9bd
000003a0: 898c 173e 03f6 0fbe 2978 9ebd 9b5f f2bc
000003b0: b062 9bbc 419a f63d b08a 313d 1e54 593e
000003c0: bacd 8d3e 09c0 1ebd bc35 a2bd 6d01 bbbd
000003d0: 3e04 d53d 84c8 abbc f52c 22be de86 0c3e
000003e0: 82b8 993e 87ca 09be 7786 a6bd deff 2d3e
000003f0: 2b72 ccbd 68c3 0d3e 37e8 b73d 064a d63c

model.embeder.4.bias f4 [16]
-0.16350655 -0.09038486 0.0046730805 -0.024576664 -0.06363586 -0.028027764 0.07871535 -0.010856355
-0.16880412 -0.04670453 -0.15260795 0.21452759 -0.009066482 0.18334903 -0.06022931 0.013328995
00000000: 436e 27be b31b b9bd a420 993b 0055 c9bc
00000010: 8553 82bd 7b9a e5bc 8335 a13d dade 31bc
00000020: fdda 2cbe 404d 3fbd 4245 1cbe 1fad 5b3e
00000030: 958b 14bc d9bf 3b3e 02b3 76bd db61 5a3c

model.embeder.7.weight f4 [16, 16]
-0.022807509 0.2221231 -0.21490265 0.2793151 0.18685868 0.41484866 0.083794236 -0.13837609
0.20748514 -0.16167864 0.035369128 0.026149334 -0.22344783 -0.1724292 -0.031024426 0.21872246
0.088278025 0.083741665 -0.03858966 -0.2271261 0.0599038 -0.14723033 -0.049754925 0.035840355
0.05660394 -0.14211656 -0.21018142 0.022622388 0.13680805 0.038133387 -0.03524922 0.13127124
-0.18234569 0.24938747 0.03061296 0.10627404 -0.21583343 -0.16762733 0.15355039 0.10529735
-0.017430365 -0.18155591 -0.039034516 0.33365598 0.35107592 0.36842388 0.41209495 0.13038296
0.15847963 -0.017728232 0.2189685 0.056708 -0.12956193 -0.32110488 0.2564592 0.08721879
0.17448288 -0.075873785 0.045867592 0.10667419 0.28271195 0.2636334 -0.089970104 -0.21620269
-0.19874036 0.13008447 0.2137632 0.11455868 -0.03063792 -0.326975 0.11582332 0.0061765523
-0.030050278 0.032254178 0.17055935 0.07831509 -0.22269747 -0.16954444 -0.0043513756 0.044916265
0.2333268 0.038909018 -0.09665194 -0.0054512667 0.112184584 0.10706509 0.006764412 -0.23741065
0.009092152 -0.21564433 -0.17331576 0.17718989 -0.10172409 0.03765869 0.026261896 0.048054397
0.117405 0.0539452 -0.053094402 -0.5436842 0.13404429 -0.14102411 0.23350117 0.15347834
-0.20717606 -0.2389532 -0.031516492 0.1476739 0.1860698 0.28262296 0.24664369 -0.17350115
0.1310384 -0.15812743 0.21310028 -0.13096797 0.057421595 -0.18256041 -0.17502606 -0.11159286
-0.05287227 0.14159101 0.16623545 0.15169337 -0.18663639 0.009405524 -0.0706968 0.003524214
-0.07329175 -0.0023249048 -0.23210673 0.2041435 -0.16394049 0.40953326 -0.12677 0.4153797
0.0913755 -0.06251668 -0.19562721 -0.2372713 -0.28288057 -0.23634186 -0.17820573 -0.24350633
0.14879054 0.19102854 0.38941967 0.4389551 0.037520647 0.71177644 0.037723567 0.34397134
0.16858047 0.18242878 0.21414492 0.568772 0.23455271 0.21476196 0.1132835 0.11276375
-0.20823675 0.122670144 0.014265501 -0.22992058 0.049699515 0.12182022 -0.020436417 -0.245588
0.060503483 0.19461186 0.06175235 -0.07321029 0.17445157 -0.14846668 0.057859987 0.11574572
-0.096787065 -0.06599043 0.11826491 0.3509167 0.033038557 0.24025351 -0.33844072 0.28987724
-0.046139717 0.007517721 0.053571135 -0.3800472 -0.16657595 -0.29272893 -0.08214291 -0.08984241
-0.21576604 0.08560383 0.19766745 -0.32458803 0.03398937 -0.12082471 -0.12835643 0.18272962
-0.02088666 0.045844242 -0.15811384 0.12461722 -0.21776387 0.01993006 0.20784016 -0.22207597
0.059267223 0.33487514 0.3957124 0.22433206 0.12209052 0.29010466 0.22129473 0.08117935
0.1596865 -0.0035882734 -0.23128241 -0.0112223765 0.063687764 0.34429783 0.06748526 -0.20041421
0.1207526 0.26799393 0.3806465 0.023718387 0.1026085 -0.1445613 0.16107129 0.15563656
0.05786711 -0.039348405 0.106434494 0.005805754 0.44976795 0.118693046 0.29618344 -0.024142772
0.0073444545 0.06717698 -0.015523939 -0.03426808 -0.061011255 -0.09392521 0.03838379 0.12793595
-0.13851112 -0.17637187 0.14811942 -0.04000391 -0.10326818 -0.11194433 -0.0364826 0.24802762
00000000: d0d6 babc 3d74 633e 710f 5cbe 6402 8f3e
00000010: e257 3f3e 0b67 d43e 509c ab3d 76b2 0dbe
00000020: fc76 543e 168f 25be 38df 103d 2137 d63c
00000030: 82cf 64be 4891 30be f026 febc c8f8 5f3e
00000040: 1ccb b43d c080 ab3d 3110 1ebd bf93 68be
00000050: b05d 753d 8cc3 16be d2cb 4bbd 56cd 123d
00000060: 88d9 673d 0187 11be cc39 57be 9652 b93c
00000070: 6917 0c3e c131 1c3d 7c61 10bd f86b 063e
00000080: d4b8 3abe 6e5f 7f3e 08c8 fa3c 34a6 d93d
00000090: 7003 5dbe 80a6 2bbe 503c 1d3e 23a6 d73d
000000a0: 20ca 8ebc cbe9 39be a8e2 1fbd f5d4 aa3e
000000b0: 39c0 b33e 0ea2 bc3e 1cfe d23e 1c83 053e
000000c0: 7c48 223e cc3a 91bc 4739 603e a646 683d
000000d0: e2ab 04be dc67 a4be 9f4e 833e c49f b23d
000000e0: a4ab 323e b763 9bbd a8df 3b3d ff77 da3d
000000f0: 9fbf 903e f5fa 863e 3f42 b8bd 3d64 5dbe
00000100: 9882 4bbe dd34 053e bee4 5a3e be9d ea3d
00000110: 60fc fabc 4469 a7be c734 ed3d ad64 ca3b
00000120: 002c f6bc f51c 043d 1ca7 2e3e a963 a03d
00000130: ce0a 64be 0f9d 2dbe fc95 8ebb 1efa 373d
00000140: 38ed 6e3e 105f 1f3d 74f1 c5bd 8aa0 b2bb
00000150: 08c1 e53d f144 db3d 00a8 dd3b c71b 73be
00000160: 40f7 143c ded1 5cbe b079 31be 4471 353e
00000170: b854 d0bd 0040 1a3d 3023 d73c b0d4 443d
00000180: 0872 f03d a4f5 5c3d 8479 59bd e32e 0bbf
00000190: e842 093e a068 10be ee1a 6f3e 6d29 1d3e
000001a0: f625 54be 26b0 74be 7017 01bd d437 173e
000001b0: 1589 3e3e f5b3 903e 2a90 7c3e 49aa 31be
000001c0: ee2e 063e 28ec 21be f636 5a3e 781c 06be
000001d0: e832 6b3d 1ef1 3abe 083a 33be cc8a e4bd
000001e0: 9890 58bd 3cfd 103e a039 2a3e 8255 1b3e
000001f0: 9c1d 3fbe a019 1a3c 7cc9 90bd 80f6 663b
00000200: fc19 96bd 6e5d 18bb 63ad 6dbe fe0a 513e
00000210: 04e0 27be 58ae d13e ffcf 01be a6ac d43e
00000220: 1423 bb3d bf08 80bd 8052 48be 3ff7 72be
00000230: b9d5 90be 9a03 72be 907b 36be b959 79be
00000240: 8c5c 183e fc9c 433e 0462 c73e b9be e03e
00000250: 40af 193d fb36 363f 0784 1a3d 031d b03e
00000260: 5ca0 2c3e 9cce 3a3e ce48 5b3e 0b9b 113f
00000270: 962e 703e 8fea 5b3e 2e01 e83d aef0 e63d
00000280: 043c 55be 7c3a fb3d d9b9 693c 4d70 6bbe
00000290: b891 4b3d e17c f93d 466a a7bc 6c7b 7bbe
000002a0: 80d2 773d 5548 473e 08f0 7c3d 47ef 95bd
000002b0: 6fa3 323e a607 18be 98fe 6c3d 180c ed3d
000002c0: 4c38 c6bd fe25 87bd e034 f23d 5bab b33e
000002d0: 7053 073d 0405 763e 1a48 adbe ca6a 943e
000002e0: 00fd 3cbd 3757 f63b 686d 5b3d 8c95 c2be
000002f0: e392 2abe 91e0 95be 8b3a a8bd 4cff b7bd
00000300: c6f1 5cbe 1051 af3d 5669 4a3e 6730 a6be
00000310: 7038 0b3d f272 f7bd de6f 03be 791d 3b3e
00000320: 801a abbc 2cc7 3b3d 98e8 21be 5037 ff3d
00000330: 7efd 5ebe 5d44 a33c 0dd4 543e e267 63be
00000340: 30c2 723d c174 ab3e d19a ca3e 4eb7 653e
00000350: 980a fa3d 9988 943e 169b 623e 5c41 a63d
00000360: dc84 233e 3d29 6bbb 4cd5 6cbe 0fde 37bc
00000370: bb6e 823d ce47 b03e b635 8a3d 6239 4dbe
00000380: 244d f73d 8036 893e 19e4 c23e 104d c23c
00000390: 6824 d23d e107 14be dfef 243e 315f 1f3e
000003a0: 1006 6d3d cb2b 21bd 54fa d93d 323e be3b
000003b0: fc47 e63e 5715 f33d 5ba5 973e 10c7 c5bc
000003c0: c0a9 f03b 1694 893d 1f58 7ebc b05c 0cbd
000003d0: f0e6 79bd dc5b c0bd 5238 1d3d a401 033e
000003e0: dcd5 0dbe d49a 34be 9eac 173e 24db 23bd
000003f0: 447e d3bd 1243 e5bd c76e 15bd f4fa 7d3e

model.embeder.7.bias f4 [16]
0.25710136 -0.148013 -0.13223206 0.3973978 -0.099753104 -0.26968387 -0.08473179 -0.23707604
0.18965477 0.4850955 -0.15218864 0.03786335 -0.0655724 -0.29590163 -0.1789111 -0.1357563
00000000: caa2 833e b890 17be d767 07be b977 cb3e
00000010: 5b4b ccbd 0114 8abe dc87 adbd 10c4 72be
00000020: dc34 423e 705e f83e 57d7 1bbe 9a16 1b3d
00000030: d34a 86bd 6b80 97be 7934 37be b303 0bbe

model.clf.0.weight f4 [64, 32]
-0.08170654 0.19188339 0.011607084 -0.019356104 0.08514085 0.02099033 -0.03506023 0.0054990044
0.114208475 -0.00025024562 0.11195036 -0.037537996 0.14489667 -0.4194826 -0.24160703 -0.07536638
0.023989486 0.032541566 -0.10541244 -0.11822657 0.0935277 0.032086186 0.09892409 -0.068462074
0.064735636 -0.080568396 -0.047739692 0.19215487 0.112428226 -0.06733697 0.005587712 -0.03874403
0.13994214 0.18651654 0.057431478 -0.18629755 -0.06482447 -0.1554228 0.05764765 -0.04827525
0.25208908 -0.05782961 0.047936033 0.3308004 0.12817815 -0.25311425 -0.1947729 -0.20310695
-0.0781201 0.17232719 -0.24848567 0.04212733 0.078378685 0.1351436 0.102895044 -0.07916
0.25059536 -0.058627814 -0.07967004 0.07659794 0.10607954 0.063629895 0.019420106 -0.16852508
0.019698713 -0.15172243 -0.06181481 -0.089508146 -0.22765213 -0.1114024 0.075183384 0.0874239
0.27859524 -0.2603194 -0.20076035 0.19505486 0.16011624 0.19777761 -0.067659155 0.07992798
0.17069557 0.10421171 0.21603242 0.03333829 0.2124109 -0.05749892 0.20356086 -0.13136001
0.34794956 0.000758806 0.045022372 0.04014514 0.13830107 0.22759235 -0.013540706 0.017812112
0.21662699 -0.036351137 -0.19479784 0.070834614 -0.031698015 0.101691134 0.0121119395 0.13504867
0.36628297 0.05768067 0.1318333 0.23987192 0.15021177 0.14409643 -0.11648545 0.07141675
0.1500047 -0.07142118 0.22778903 0.25461107 0.21516852 -0.06556831 0.16801192 0.14045084
0.113667846 -0.13097076 0.1317563 0.11167538 0.044028483 0.00836545 0.013146773 0.05431743
0.025903873 0.12198092 0.22727999 0.28578573 -0.037922144 -0.03315438 0.3444925 0.030283986
-0.123765714 0.053942412 0.1968477 -0.025273638 0.32230088 -0.1789281 0.012953797 0.10611847
0.19329573 0.021138912 0.07405507 0.18452431 0.0924857 -0.09732034 0.19094363 -0.13620856
0.00012764965 0.34439364 -0.107037514 -0.20990075 0.281548 -0.23561473 -0.06597339 -0.11917045
0.06209251 -0.06335868 -0.2064697 -0.13614309 -0.17479439 -0.15680756 0.075105414 0.1480781
-0.18047367 0.021806786 -0.12809037 0.14287718 0.043912884 -0.18806472 0.12020605 -0.10619409
0.113800146 -0.11705324 0.12928675 -0.098253734 0.097569555 -0.012363588 -0.120269276 0.17612928
0.09045315 -0.076773286 0.06274692 0.09098118 -0.0014130573 -0.1266577 -0.05835944 0.116807
-0.169063 -0.10527786 0.29568222 0.07810945 -0.19260797 0.14028159 0.012278659 -0.10517487
-0.09949152 -0.27709064 0.05790983 0.06517435 0.25561693 0.006729283 0.269221 -0.14511676
-0.08939707 -0.013702086 -0.12858167 0.09147335 -0.1240022 0.07306109 0.13740769 0.1392403
-0.087990865 -0.02749975 0.026946777 -0.052049067 -0.15480307 -0.012376563 -0.17416699 -0.15361866
0.3040805 0.12796402 -0.14339069 0.04371771 -0.050505765 -0.0834406 -0.12269644 0.053716432
0.4505826 0.080350816 -0.065813266 0.124925256 0.09750047 -0.1259924 -0.098690644 0.06091593
0.24463846 -0.1218642 -0.006527903 0.12840965 -0.08712518 -0.11409103 0.033064675 -0.0036588311
0.20170023 0.17061724 0.15530403 -0.11360404 -0.12334155 -0.19311137 -0.23436363 -0.14745669
00000000: c255 a7bd 147d 443e a42b 3e3c b190 9ebc
00000010: 535e ae3d eaf3 ab3c 519b 0fbd fe30 b43b
00000020: 22e6 e93d 6633 83b9 3b46 e53d 71c1 19bd
00000030: cb5f 143e 6cc6 d6be d567 77be b059 9abd
00000040: 9985 c43c 4e4a 053d 7ae2 d7bd c620 f2bd
00000050: 738b bf3d ce6c 033d b798 ca3d d835 8cbd
00000060: 1e94 843d 0b01 a5bd b28a 43bd 3fc4 443e
00000070: c540 e63d f7e7 89bd 2019 b73b 0fb2 1ebd
00000080: fe4c 0f3e 31fe 3e3e 453d 6b3d c9c4 3ebe
00000090: b1c2 84bd 2827 1fbe f11f 6c3d 45bc 45bd
000000a0: d211 813e bede 6cbd 9358 443d ac5e a93e
000000b0: 2241 033e 3198 81be 8c72 47be 45fb 4fbe
000000c0: 6efd 9fbd 8a76 303e 0773 7ebe b58d 2c3d
000000d0: 0185 a03d 1563 0a3e a3ba d23d a31e a2bd
000000e0: 094e 803e b823 70bd 0c2a a3bd 61df 9c3d
000000f0: 3b40 d93d 6450 823d ea16 9f3c d791 2cbe
00000100: 325f a13c 205d 1bbe 8731 7dbd 0c50 b7bd
00000110: a41d 69be f126 e4bd bff9 993d 4d0b b33d
00000120: 09a4 8e3e 9648 85be 1f94 4dbe 76bc 473e
00000130: 83f5 233e 3786 4a3e e290 8abd 48b1 a33d
00000140: d2ca 2e3e f36c d53d 9a37 5d3e bb8d 083d
00000150: 3e82 593e fd83 6bbd 4272 503e 3d83 06be
00000160: 7226 b23e 9cea 463a 6169 383d 3b6f 243d
00000170: cc9e 0d3e f80d 693e d6d9 5dbc b5ea 913c
00000180: 77d3 5d3e eee4 14bd 1679 47be bd11 913d
00000190: c7d5 01bd 7143 d03d 2871 463c 334a 0a3e
000001a0: 7189 bb3e 9142 6c3d 4fff 063e fca0 753e
000001b0: 1dd1 193e 048e 133e ec8f eebd f242 923d
000001c0: d59a 193e 4545 92bd 8741 693e 625c 823e
000001d0: 2355 5c3e ae48 86bd 510b 2c3e 58d2 0f3e
000001e0: b0ca e83d 331d 06be 20eb 063e 10b6 e43d
000001f0: 3657 343d 3e0f 093c 9065 573c f47b 5e3d
00000200: 5c34 d43c 22d1 f93d 16bc 683e 8252 923e
00000210: 4054 1bbd e3cc 07bd 5261 b03e 1f16 f83c
00000220: e178 fdbd b8f2 5c3d 7292 493e a90a cfbc
00000230: 9f04 a53e ee38 37be 2a3c 543c a454 d93d
00000240: 51ef 453e 832b ad3c 2faa 973d f1f3 3c3e
00000250: 2569 bd3d e34f c7bd ba86 433e 427a 0bbe
00000260: b1d9 0539 5d54 b03e 7c36 dbbd 39f0 56be
00000270: 0f27 903e fd44 71be 0f1d 87bd a30f f4bd
00000280: b754 7e3d 32c2 81bd cb6c 53be 1869 0bbe
00000290: 4dfd 32be 2992 20be ded0 993d c9a1 173e
000002a0: 17ce 38be 25a4 b23c 1f2a 03be 654e 123e
000002b0: ffdd 333d 0a94 40be 972e f63d 497c d9bd
000002c0: 0d10 e93d 9cb9 efbd bf63 043e 4139 c9bd
000002d0: 8cd2 c73d a690 4abc bd4f f6bd 3c5b 343e
000002e0: 803f b93d 503b 9dbd 7581 803d 5754 ba3d
000002f0: 5636 b9ba 8eb2 01be 4f0a 6fbd 8238 ef3d
00000300: da1e 2dbe eb9b d7bd a963 973e d9f7 9f3d
00000310: 063b 45be faa5 0f3e 6e2c 493c ec65 d7bd
00000320: 36c2 cbbd d3de 8dbe dc32 6d3d 217a 853d
00000330: 39e0 823e 5181 dc3b 56d7 893e 7d99 14be
00000340: d015 b7bd b77e 60bc eaaa 03be 6156 bb3d
00000350: def4 fdbd 0ea1 953d 9ab4 0c3e 0295 0e3e
00000360: 8e34 b4bd 2847 e1bc 7dbf dc3c 6731 55bd
00000370: b284 1ebe 11c7 4abc d558 32be 364e 1dbe
00000380: 70b0 9b3e 0009 033e 02d5 12be 5711 333d
00000390: 22df 4ebd e8e2 aabd 4548 fbbd c305 5c3d
000003a0: c3b2 e63e f88e a43d 1bc9 86bd d0d8 ff3d
000003b0: 54ae c73d 2704 01be 521e cabd fb82 793d
000003c0: 8182 7a3e f093 f9bd 05e8 d5bb d27d 033e
000003d0: b06e b2bd 8fa8 e9bd d36e 073d 00c9 6fbb
000003e0: 818a 4e3e 49b6 2e3e 0508 1f3e 3ca9 e8bd
000003f0: 7f9a fcbd fdbe 45be 05fd 6fbe e3fe 16be

model.clf.0.bias f4 [64]
-0.014573979 -0.08287751 0.09874611 -0.022901105 0.39545852 -0.0400666 -0.14590538 0.32350257
-0.061963484 -0.03937953 -0.13447765 0.027731467 0.04816081 0.039745037 -0.28988278 0.056663103
0.04891316 0.21265195 -0.11715044 -0.02152638 -0.03485974 0.17317936 -0.009787573 -0.033928085
-0.063310206 -0.029591864 0.17895932 0.108545825 -0.04380703 0.0025041883 -0.14494443 0.42194933
0.2740592 -0.051614147 0.05321073 0.11902356 -0.05506059 0.048057478 -0.2202132 0.031384207
-0.07710136 0.2890644 0.042189345 -0.10447429 -0.045026217 0.5318121 0.014641331 0.006969805
-0.1515705 -0.012078314 0.2576467 0.084237285 0.1009868 0.19673914 -0.1454855 -0.15306006
0.0044321488 0.20392607 0.10955689 -0.014965482 -0.16907792 -0.14613366 -0.023277743 -0.039881025
00000000: b3c7 6ebc afbb a9bd 673b ca3d 199b bbbc
00000010: 8a79 ca3e e01c 24bd 3868 15be 21a2 a53e
00000020: 6ccd 7dbd 6e4c 21bd 82b4 09be 1a2d e33c
00000030: 4544 453d b1cb 223d 846b 94be 9217 683d
00000040: 2a59 483d 6fc1 593e 92ec efbd 1758 b0bc
00000050: 16c9 0ebd ee55 313e 0e5c 20bc 2df8 0abd
00000060: c8a8 81bd a36a f2bc 1d41 373e 464d de3d
00000070: 006f 33bd 4f1d 243b 506c 14be be09 d83e
00000080: 7d51 8c3e 5b69 53bd 7ff3 593d a0c2 f33d
00000090: 3787 61bd ebd7 443d 927f 61be ba8c 003d
000000a0: 51e7 9dbd 4000 943e bcce 2c3d 9ef6 d5bd
000000b0: 696d 38bd d624 083f 31e2 6f3c f662 e43b
000000c0: 4c35 1bbe 1fe4 45bc 45ea 833e 9984 ac3d
000000d0: 2bd2 ce3d fc75 493e 27fa 14be c7bb 1cbe
000000e0: 8f3b 913b ffd1 503e 5d5f e03d c831 75bc
000000f0: c322 2dbe 10a4 15be f7b0 bebc 495a 23bd

model.clf.3.weight f4 [5, 32]
0.15979034 -0.110368505 -0.4257106 -0.15759121 -0.19798271 -0.5119551 0.2981945 0.09276413
-0.09480835 0.097057484 -0.1191366 0.46544978 -0.4564038 0.16826472 0.2064592 -0.5046141
-0.30034804 0.06099708 -0.34973818 0.14226191 -0.15549028 -0.22414817 -0.46268538 -0.66839993
0.58222955 -0.05131912 -0.15265734 0.25529176 -0.08613076 -0.34850273 -0.21635903 0.058300447
0.070741974 -0.093257286 0.3443819 0.10695762 0.121870965 0.0013385729 -0.1745043 0.28602508
0.0126348445 0.29403377 0.1667268 -0.3665698 0.23850827 -0.34058422 -0.098324805 -0.04636875
-0.038749807 0.20915061 0.09902765 0.17194088 0.3818134 0.18201175 0.1152871 0.052686393
-0.20401327 -0.034401923 -0.0024550527 0.35583803 0.21234906 0.0948871 -0.09189416 0.20383382
0.30397213 0.2413194 0.033263985 0.38172007 0.11909859 -0.20983656 0.18823923 0.071780786
0.093053184 0.046875495 0.18016112 0.22911963 0.088432066 0.414212 0.1487536 0.139461
0.19752371 0.26174834 -0.021507215 0.06936222 0.106698476 0.15876758 0.28828916 0.02698413
0.20718244 0.24202375 0.012154258 -0.048395425 0.37362662 -0.009799116 0.12292959 -0.098877996
-0.005449833 0.041190624 0.045225214 0.06804228 0.0113645205 0.23287944 0.1374727 -0.12890083
-0.020846253 0.022638343 0.09518716 -0.015260111 0.121591404 -0.1552317 0.012653536 0.29919988
0.38825008 -0.18844761 0.19679245 0.036081232 0.031671405 0.19563676 0.5407143 0.19402012
-0.26680386 0.07186458 -0.022501726 0.12114466 0.29698554 -0.067298576 -0.12826292 0.2867685
0.014321511 0.0924412 0.10530522 0.266515 0.20138326 -0.12507966 0.0028495255 0.11913133
0.15020886 -0.11887702 0.13335194 0.04535748 0.18164346 0.2652746 0.28926548 0.099912815
0.33121198 0.0089542745 0.14342414 0.2609772 0.15815875 0.1517713 0.041755535 -0.025325242
0.012271558 0.19157253 0.13741383 -0.16993234 0.12313834 0.05519897 0.030034056 -0.14689776
00000000: 14a0 233e e208 e2bd bdf6 d9be 975f 21be
00000010: fbbb 4abe 7d0f 03bf f3ac 983e 1ffb bd3d
00000020: e12a c2bd 13c6 c63d e4fd f3bd 6f4f ee3e
00000030: c2ad e9be 964d 2c3e 0a6a 533e 642e 01bf
00000040: 38c7 99be 13d8 793d e210 b3be 1bad 113e
00000050: d838 1fbe 1987 65be 19e5 ecbe 421c 2bbf
00000060: ff0c 153f ff33 52bd 3552 1cbe 9ab5 823e
00000070: 5365 b0bd f36e b2be 398d 5dbe 73cc 6e3d
00000080: 2be1 903d adfd bebd d352 b03e 990c db3d
00000090: 7c97 f93d 0e73 af3a 41b1 32be e171 923e
000000a0: 6102 4f3c 988b 963e 6eba 2a3e 09af bbbe
000000b0: 833b 743e 0e61 aebe 845e c9bd 29ed 3dbd
000000c0: 1eb8 1ebd 942b 563e 02cf ca3d 4511 303e
000000d0: 0c7d c33e 4a61 3a3e a51b ec3d b0cd 573d
000000e0: dbe8 50be 08e9 0cbd f3e4 20bb 6730 b63e
000000f0: 0872 593e 2b54 c23d 0133 bcbd d0b9 503e
00000100: 3ca2 9b3e 6f1c 773e d13f 083d d070 c33e
00000110: f6e9 f33d 65df 56be c9c1 403e ce01 933d
00000120: ab92 be3d 8500 403d 287c 383e 569e 6a3e
00000130: df1b b53d 9813 d43e dd52 183e ddce 0e3e
00000140: a843 4a3e e103 863e e62f b0bc c80d 8e3d
00000150: bb84 da3d f893 223e a39a 933e d20d dd3c
00000160: a227 543e 13d5 773e a722 473c 483a 46bd
00000170: fd4b bf3e 798c 20bc 82c2 fb3d 8c80 cabd
00000180: 8394 b2bb 80b7 283d 133e 393d c059 8b3d
00000190: 4132 3a3c f377 6e3e a5c5 0c3e 94fe 03be
000001a0: c3c5 aabc 0c74 b93c 7cf1 c23d 8b05 7abc
000001b0: ea04 f93d 0ff5 1ebe c750 4f3c ba30 993e
000001c0: b7c8 c63e 69f8 40be f683 493e eac9 133d
000001d0: e0b9 013d 0155 483e 416c 0a3f 36ad 463e
000001e0: 849a 88be bd2d 933d 8a55 b8bc b11a f83d
000001f0: 7d0e 983e d6d3 89bd 5b57 03be 52d3 923e
00000200: c5a4 6a3c d051 bd3d 43aa d73d a774 883e
00000210: 6a37 4e3e e214 00be 1bbf 3a3b 20fb f33d
00000220: 5ad0 193e cc75 f3bd 698d 083e c4c8 393d
00000230: be00 3a3e 13d2 873e 9b1a 943e 179f cc3d
00000240: 9e94 a93e f3b4 123c c7dd 123e ce9e 853e
00000250: 5ef4 213e f069 1b3e da07 2b3d e276 cfbc
00000260: a50e 493c 972b 443e 36b6 0c3e be02 2ebe
00000270: f42f fc3d 5118 623d fb09 f63c 5e6c 16be

model.clf.3.bias f4 [5]
-0.22358625 0.036761157 0.21895623 0.22065563 -0.019527303
00000000: cbf3 64be de92 163d 1036 603e 8df3 613e
00000010: b9f7 9fbc
