notebooks/assets/policy/SimpleNN_scenario_3.pth (torch, 51840 bytes, 6 tensors)

model.model.0.weight f4 [64, 120]
00000000: f697 98bd ac67 d13c aece 46bd ef5c 2fbd
00000010: c212 6c3c edb6 bbbd 500f 42bc 9c30 c6bc
00000020: ecb3 30bc c225 35bd f300 18ba 2e6c 863c
00000030: 91ef 153d 569a 5abd 92a6 513d 8084 58bd
00000040: 664e 3abb 9f3a 0d3d cb60 91bd 1d33 f3bd
00000050: f2b6 e8bc 519b 2a3d 462a 593d 4aa5 debd
00000060: 5aa0 f1bd 9d96 753c 4dfa adbc a5d4 e1bd
00000070: 2e1b a1bd 1884 233c df54 c2bc ce78 413d
00000080: 0c65 433d 4459 20bc 00c3 f5bd 5f71 853a
00000090: d457 d6bd 35f6 273d 4f61 51bd dd03 8dbd
000000a0: 2de7 0cbd b4bd febd 0c62 a7bd d516 1e3d
000000b0: b9ac eebd 484e c0bd ee82 ae3c 33cd 48bd
000000c0: c85d e53b 89c1 a3bd e3e2 2a3d a8ec 8ebd
000000d0: f157 77bd b812 003d bcdc 463d efe2 263d
000000e0: 5540 66bd 8d17 9ebc c2c3 103c c85e 243c
000000f0: 158d 113d 98dc 7e3c 8904 3c3d 78c3 f6bd
00000100: 390d 87bd 33be 58bb d300 03bd 778f c439
00000110: 7df6 0ebd da17 c4bc 6e67 7bbc 798d adbd
00000120: e727 353d bbbb 283d fe83 e5bd f5f1 a4bc
00000130: 6e18 ebbd 5323 96bd e301 cdbd 3fa9 273d
00000140: 51ec 233d 5d0f afbd 9c0b debd 3f5c 17bd
00000150: 290a d93c 7730 a0bd db55 0f3d 422b 723c
00000160: d2cf a5bd 2e78 17bd 2f79 dabd 990c 323d
00000170: 7ce1 c03b 2dfc a33c c1f8 4ebd ec45 a0bd
00000180: d902 243d e153 183d 70a6 d6bc 6c78 d2bd
00000190: cad9 c0bc 98be 5ebc 947a e03c 427e 9bbd
000001a0: 7f1f 90bd 75c4 dabc 09c8 cabd abfd c3bd
000001b0: 1a50 373c 597f 933c 7362 b3bd 0200 b8bb
000001c0: 0c1e 7cbd 1792 87bd 784c fbbd b581 35bd
000001d0: 16df 91bd 4107 febd 6a4e 573d 5d2d c8bd
000001e0: b1ec ab3c 49f0 ccbd 04b9 cc3c 28ac 013d
000001f0: fc61 ea3c c957 a2bd 8d78 ecbd d460 b0bd
00000200: 4286 b5bc 5bb0 af3a 3edd 5f3d 30ae 91bd
00000210: b991 d3bb c4a2 90bd c2cc 61bc 4fb0 303d
00000220: 707e 7dbd f258 c3bc dc65 afbd 58f5 4a3d
00000230: e1ae 083c 1616 9b3b b4ec 8fbd 1368 99bd
00000240: 7c6d 1c3d 17f3 25bd 2f84 853c cb76 2dbd
00000250: 1271 533b 0ef2 563d 163d d5bc 74ea a9bd
00000260: 0a50 473d c1d2 023c d937 1fbc ab98 bcbd
00000270: 39a8 763d 7123 d93c fb18 9cbd 37f9 883d
00000280: 420a ecbc bfc7 013d 5cb9 b6bd da1c 3fbd
00000290: 7a36 d0bd 02d2 f7bd d9c1 9abd f47f b53b
000002a0: a2fd abbc 8d9e bbbd c987 0c3d 8fa0 b1bd
000002b0: 1588 ecbc 3fab 48bd 7ee7 95bd d1eb 2bbd
000002c0: 1537 b73a 04c8 d6bd a8ea 86bd b279 863c
000002d0: 1624 edbd 457f a8bd 40a0 8cbd c163 f5bd
000002e0: 70bc edbd 6977 acbd e356 343d 85fa 43bd
000002f0: 80ad 87bd b107 0dbd 9e48 9ebd a906 acbd
00000300: cc2d 1d3d 4146 5f3d 5a19 f7bd 5c5f d23c
00000310: 9c3e 5cbc bb7f 643d 8090 463c 8630 54bd
00000320: ca39 f8bd b16e 6e3c e8d1 413d 6ee5 19bd
00000330: 4caf 86b9 c80f e6bd 4950 183d 8ea3 053c
00000340: 5f32 91bc 374c c8bd 7438 423d 27b2 91bd
00000350: e9fa 86bc 9391 43bd 39d6 85bd 085b 3a3d
00000360: 8295 6e3d ce60 a73c 1f22 ec3c ec8b dcbd
00000370: 92c7 063d d9d0 d33a 4b8e a4bd 5879 d5bc
00000380: 8b5a 87bc b6c2 ab3c 8420 d43c 7461 433d
00000390: 8a09 92bd dc0d 81bc 2d4d ddbd d3eb b0bb
000003a0: 0de5 8d3b 9459 a4bd b862 bdbd c8e0 48bb
000003b0: d4d1 d13c ddbc f4bd 192b 6cbd 62e5 0abd
000003c0: 59bc 8bbd 53df 2f3d 652d a6bc 2cec 9fbd
000003d0: acbd 133d 5396 ed3b 4b4d 2bbd 88ba b0ba
000003e0: cec9 d5bd e3ec d0bc 096c 9ebb 1e45 573d
000003f0: 9f9c fabc a78f d2bc 6575 f4bc 835c 04ba
-0.07450859 0.02556213 -0.04853695 -0.042813238 0.014408769 -0.0916575 -0.011844471 -0.0241931
-0.010785084 -0.04422546 -0.0005798481 0.016409006 0.03660542 -0.053369842 0.051184244 -0.052860737
-0.0028428077 0.034479734 -0.0709854 -0.118749835 -0.028407548 0.041652028 0.05301883 -0.1087137
-0.11798163 0.014989522 -0.021237517 -0.11026887 -0.07866512 0.009980224 -0.02372211 0.04723435
0.047703788 -0.009786908 -0.12000084 0.0010180882 -0.10465971 0.041006286 -0.05111819 -0.068855025
-0.034400154 -0.12438527 -0.08172998 0.038595993 -0.11654038 -0.09389931 0.021302667 -0.04902382
0.006999705 -0.07995898 0.041720282 -0.06978732 -0.0603866 0.03126785 0.048550352 0.040743764
-0.056213696 -0.01929834 0.008835735 0.010032363 0.035534937 0.015555523 0.045902763 -0.120490015
-0.06594319 -0.0033072352 -0.031983208 0.00037490923 -0.03490304 -0.023937155 -0.015344484 -0.084742494
0.044227507 0.04119466 -0.11206816 -0.020134905 -0.11479269 -0.07330956 -0.100101255 0.04093289
0.04002029 -0.08547852 -0.10842058 -0.036953207 0.026494103 -0.07821744 0.034993988 0.014780821
-0.08096279 -0.036979847 -0.10667645 0.043469045 0.005886255 0.020017708 -0.0505302 -0.078258365
0.04004178 0.03718937 -0.02620241 -0.10276875 -0.02354135 -0.013595246 0.0274022 -0.07592441
-0.070372574 -0.026705006 -0.09901435 -0.09569868 0.011188531 0.01800506 -0.08759012 -0.0056152353
-0.061552092 -0.06619661 -0.12270445 -0.04431315 -0.071226284 -0.12403727 0.052565016 -0.09774277
0.020986887 -0.10006768 0.024990566 0.03165832 0.028611176 -0.079269 -0.11546431 -0.086122185
-0.022158746 0.0013403998 0.054654352 -0.07113302 -0.0064565805 -0.07062295 -0.013781728 0.04313689
-0.06188816 -0.023846123 -0.0856435 0.049550384 0.008342476 0.0047328575 -0.070275694 -0.07490554
0.03819035 -0.04051503 0.016298382 -0.042349618 0.003226344 0.052476935 -0.026030105 -0.082966715
0.048660316 0.007984818 -0.009717905 -0.092088066 0.060219023 0.026506158 -0.07621952 0.06688159
-0.028813485 0.031684633 -0.08922073 -0.046658374 -0.101666406 -0.12100603 -0.07556505 0.005538935
-0.020994965 -0.091611005 0.034309182 -0.08673202 -0.028873483 -0.048991438 -0.07319544 -0.04197294
0.0013978208 -0.10487369 -0.06587726 0.01641545 -0.115791485 -0.082274 -0.06866503 -0.11981917
-0.11608207 -0.08421213 0.044028174 -0.047846336 -0.066248894 -0.034431163 -0.077286944 -0.08399708
0.038373753 0.05451036 -0.12065382 0.025680237 -0.013442662 0.055785876 0.012119412 -0.051804088
-0.121203974 0.014552758 0.047319323 -0.037572317 -0.00025689078 -0.11233479 0.03718594 0.00815667
-0.017724214 -0.09780162 0.04741712 -0.07114058 -0.016477065 -0.047746252 -0.06535 0.04549697
0.05824805 0.020431902 0.028824864 -0.107688755 0.03290517 0.0016160264 -0.08034953 -0.026058838
-0.016522666 0.020966869 0.02589441 0.04770036 -0.07130726 -0.015753679 -0.10805736 -0.005399206
0.0043302835 -0.08024898 -0.09247345 -0.0030651558 0.02561275 -0.11950085 -0.05765829 -0.033910163
-0.06823034 0.042937588 -0.020285318 -0.07808718 0.036069557 0.007250586 -0.04182176 -0.0013483325
-0.10438882 -0.025503581 -0.004834656 0.05255615 -0.03059226 -0.025703264 -0.029841134 -0.0005049186

model.model.0.bias f4 [64]
00000000: 9a31 d9bc bc20 dabd d2fb 00bb 9941 b9bd
00000010: 5bbc 753d 28b7 73bd 099a 183c 615b 463a
00000020: 918d 11bc 5b64 c8bd fdb6 ee3c d9a6 88bd
00000030: c057 5e3c 0558 cabd 7eea 89bd 6a75 78bd
00000040: f887 0f3d b836 aabd 44a7 22bc 2c44 bfbd
00000050: 286f 41bd e970 42bb d92c 64bd 4af8 77bd
00000060: d77a 7bbd 9a81 81bd c6c6 b6bd 5363 663d
00000070: 7877 c1bc 81c2 a2bd bae0 6c3d 5d32 1d3c
00000080: 75cd ff3c 2e37 01bd 63e7 78bd 2f76 233b
00000090: a36e 823d e132 003c a0f9 bcbb 1c36 5dbd
000000a0: bdff 72bd 2c44 863d b2e9 0dbb 97df d8bd
000000b0: 41d4 62bd a1c8 993c 5b85 4abd b59f eabd
000000c0: 1ed7 1b3c c39a d63c c686 9dbd afdd 8dbd
000000d0: 47f1 e5bb 5394 16bd ec3a 83bd d033 b8bd
000000e0: f3a7 953c 8542 713d 37bf cb3c e8f9 e7bd
000000f0: b790 96bc d766 193c 1582 c5bd e646 20bd
-0.02651291 -0.10650775 -0.0019681347 -0.09045715 0.059994083 -0.059500843 0.009314069 0.0007566717
-0.00888385 -0.09784766 0.02913999 -0.06672449 0.013570726 -0.0988007 -0.06734179 -0.06065885
0.03504178 -0.08311218 -0.009927575 -0.09339175 -0.047225147 -0.002966935 -0.055706833 -0.06053952
-0.061396446 -0.06323548 -0.08924632 0.056247067 -0.023616537 -0.07947255 0.057831503 0.009594527
0.0312259 -0.031546764 -0.060767543 0.002494227 0.063687585 0.0078246305 -0.0057670623 -0.05400668
-0.059325922 0.065559715 -0.0021654186 -0.105895214 -0.055378202 0.018772425 -0.049443584 -0.11456243
0.009511737 0.026196843 -0.076917216 -0.069270484 -0.007017288 -0.036762547 -0.06407723 -0.089942575
0.018268561 0.05890133 0.024871452 -0.11326963 -0.018379552 0.009362898 -0.09643952 -0.039130114

model.model.2.weight f4 [64, 64]
00000000: 292a 5c3c 2dba f43d 6140 c43c 3b8c 9c3d
00000010: 8400 153d 79da c2bc d00b 14bc 39f0 ffbd
00000020: 70d2 ae3d 341a 47bd 3875 11bd 30a9 9a3d
00000030: dc4a 883d 5ba4 abbd 505a f3bc ef01 1cbe
00000040: ae1b eabd e05e 87bc 5410 57bc 414b 9b3c
00000050: c151 01bd e272 723d f8b5 8abc 3e37 ec3d
00000060: 0a3c e23d dc9e 49bd 64c2 f5bd cc51 a03d
00000070: e21d c1bd e08b a83b e00c ba3d a953 bdbd
00000080: 88eb 57bd ee78 a7bd ce43 833d 86cf 9a3d
00000090: 98bd aabd 30f6 fd3c 7580 513d 8e92 48bc
000000a0: 8808 f93c b432 ad3d 5bfa c7bd bfab 10bd
000000b0: 268b cb3d 00a3 a4bd 2c45 363d 601e 31bd
000000c0: 75f7 bd3d 0ef7 edbd f354 0fbe 8627 f73c
000000d0: 00b8 213a 1e84 b6bd 48a0 f33c 7cfd 99bd
000000e0: 751d cc3c b8f3 503d 600c a5bd b47a 10bd
000000f0: 4247 913c a61f 86bd 291a be3d cf2e 203d
00000100: c42e e3bc 620d 79bd 0d53 4fbc 3b3c 363d
00000110: c948 753d f45a a33d b01c d0bd 7924 c3bd
00000120: 10a2 51bc f61d 51bd b143 8ebc c247 d4bd
00000130: f490 21be 47fc eebd 58d3 9abd 5e43 e33d
00000140: 4ae4 bbbd 6df0 b53d ee30 92bd 5ad8 963d
00000150: d8cb 40bd 398d eebc 4821 2dbc d062 39bc
00000160: acd6 8cbd 0000 603d 310c 9d3d 3006 fdbd
00000170: ba13 a9bd 806d 7f3b 3cd0 323d 1014 86bd
00000180: 243f acbd 7879 333d 74e8 21be a072 c93c
00000190: 0cf9 35bd a8c9 313d 715f e2bc 8af0 113e
000001a0: 724e ee3d 2ab2 ea3d f814 a73c f77b 473d
000001b0: c00a 023c 009d 633c 94fe abbd 8d50 8a3d
000001c0: fece f5bb 741b 2cbd 808b 073c afdd 03bd
000001d0: 801a 7dbc dc86 f4bd 44d6 d13d acae e83d
000001e0: 6e55 9cbd 0c3d 0f3d 5b81 0bbd 404f c9bc
000001f0: fec3 353c d460 7abd 8add 403d 6ca0 90bc
00000200: 9f8f c3bd 1abd 113e 400d 973d 7380 5a3d
00000210: 409c ccbd 8797 95bd 1827 ce3c 33bb 6ebd
00000220: 6216 903d 38bd 84bc 085c c03c 3059 b8bd
00000230: 64cd babd a50a 563d 742d ebbd b2f2 88bd
00000240: e4a4 55bd 403a 873b 3bc8 77bd a90a 093d
00000250: 3b0c 303d ea47 b9bd 317c d6bd d0d4 54bd
00000260: c6ed debd 011b 9b3d ce6e d33d fad8 4a3c
00000270: f032 a8bd 8897 933d 0053 ff3d 4839 b83d
00000280: b407 f7bd c02c 4a3b f6d2 733b 9cbf 363d
00000290: 9234 bc3d b924 38bd d492 d4bd 6528 24be
000002a0: 2433 063d 080f c1bc 73a8 43be aa06 9abc
000002b0: 20e2 13bc 9c54 83bd 1195 713d b1eb 743c
000002c0: 8642 69bd 4003 c3bc 29bd bb3d e2bc 533c
000002d0: 86c2 bf3d 00c9 28bb 10c7 a3bd 00fe 773d
000002e0: d323 05be 3aaf 2a3d e18d b6bd 9193 c83c
000002f0: eeaf 453d ecf3 9abd 832f b53d 214f 8bbb
00000300: 7ab7 ca3d e3cc 98bd a3b6 99bd d320 913d
00000310: 8beb d83d 64a6 403d b6cd 893d 1f30 b6bd
00000320: 18f5 67bd 2a2a 69bd 58cf 803d 5c1a ab3d
00000330: 99bd 143e 09a1 bc3d e82d b8bd 3a16 833c
00000340: 380c e23c 448b aa3d b4a7 e63c 85e6 233d
00000350: 574d 4bbd 8bd6 abbd 5bf4 b7bd ccb9 5dbd
00000360: 809e b9bb 5283 f7bd 2c45 8fbd cacd b2bd
00000370: 805f fb3a 208a c83c a0f3 1f3c 40db 683d
00000380: 80d7 9e3a 4cee 0f3d ef46 943d 0cbf 35bd
00000390: 84eb 17bd 5f81 683c c480 b13c 7845 ad3c
000003a0: c05f 0a3d e424 da3d dd47 8cbd 80ea 0abc
000003b0: cefb 9dbd 0240 f7bd 2b36 23bb c7d6 2bbd
000003c0: d2a8 853d 62d5 f5bc a9a7 20bd 3524 3b3e
000003d0: d884 2bbd 7040 a8bd 0464 2cbc 948f 19be
000003e0: 82fa 0cbd a0b6 7b3c 30e0 27bc b2d6 1d3d
000003f0: 0dbf d1bd e0b8 e33c 4163 a23c 81d4 b83d
0.013437786 0.11949573 0.02395648 0.07643934 0.036377445 -0.023785817 -0.009036019 -0.12496991
0.085362315 -0.048608974 -0.03551218 0.07551801 0.06654903 -0.08380958 -0.02970615 -0.15235113
-0.11431061 -0.016524732 -0.0131264515 0.018956782 -0.031572107 0.059191592 -0.016932473 0.11533974
0.11046608 -0.049223766 -0.11999968 0.078281015 -0.09429528 0.0051436275 0.09084487 -0.092444725
-0.052714854 -0.081773624 0.06409417 0.07559113 -0.083369434 0.03100118 0.051147897 -0.012241973
0.030399576 0.084569365 -0.097645484 -0.03532004 0.0993865 -0.08038902 0.04449956 -0.04324186
0.09275714 -0.116193876 -0.1399725 0.030170213 0.0006169081 -0.08911918 0.029739514 -0.075190514
0.02491639 0.05101368 -0.08059001 -0.03527327 0.017734174 -0.06549005 0.092823334 0.03910714
-0.02773226 -0.06080378 -0.012654078 0.044491034 0.059883866 0.07976332 -0.10161722 -0.09528441
-0.012794986 -0.051053964 -0.017366262 -0.10365249 -0.15777951 -0.11669212 -0.07559842 0.11096834
-0.09174402 0.08883748 -0.07138239 0.073654845 -0.0470694 -0.029120075 -0.010567017 -0.011315063
-0.06876883 0.0546875 0.07668341 -0.12354696 -0.08255716 0.003897518 0.04365562 -0.06546795
-0.084104806 0.043817014 -0.1581133 0.02459079 -0.044426963 0.043405205 -0.0276334 0.14251915
0.11636056 0.11459763 0.02039574 0.048702206 0.007937133 0.013892412 -0.08398166 0.06753645
-0.007501482 -0.04201837 0.0082730055 -0.032193836 -0.015448213 -0.11939785 0.10245946 0.11361441
-0.07633482 0.03497033 -0.03405891 -0.024573922 0.011094091 -0.0611275 0.047086276 -0.01765462
-0.09548878 0.14232293 0.07375574 0.053345155 -0.0999074 -0.07304292 0.025165126 -0.058283996
0.07035519 -0.016203508 0.023481384 -0.09001386 -0.091212064 0.052256245 -0.11483279 -0.066869155
-0.052159205 0.004126817 -0.06049369 0.033457432 0.042980414 -0.0904692 -0.104729064 -0.051960766
-0.108851954 0.0757351 0.10323869 0.012380833 -0.082128406 0.07206637 0.12467003 0.089953005
-0.12062016 0.0030849427 0.00372046 0.044616327 0.091897145 -0.044956896 -0.10379568 -0.16031034
0.032763615 -0.023566738 -0.19107227 -0.018802006 -0.00902608 -0.06412622 0.05898005 0.014948771
-0.056948207 -0.02380526 0.09166939 0.012923451 0.09363274 -0.002575457 -0.079969525 0.060544968
-0.13001947 0.041671015 -0.0891378 0.024484428 0.048263483 -0.07566056 0.08846953 -0.0042513763
0.098982766 -0.07460954 -0.07505538 0.07086339 0.10591801 0.047033682 0.067286894 -0.08895897
-0.056630224 -0.056924976 0.06289548 0.08354637 0.14525451 0.092104025 -0.08993131 0.01600181
0.027593717 0.08327344 0.028156139 0.040014762 -0.049634304 -0.0839053 -0.08982154 -0.054132268
-0.0056646466 -0.12085594 -0.06995615 -0.087306574 0.0019178241 0.024479926 0.009762675 0.056849718
0.0012118667 0.035139367 0.07240092 -0.04437165 -0.03708984 0.014191001 0.021667846 0.02115129
0.03378272 0.106515676 -0.06849644 -0.008478761 -0.077140436 -0.120727554 -0.0024904113 -0.041952875
0.065263405 -0.030008975 -0.039222393 0.1827553 -0.041874737 -0.082154155 -0.010521892 -0.14996177
-0.03441859 0.015363365 -0.010246322 0.038534828 -0.10241518 0.027798116 0.019822719 0.09024907

model.model.2.bias f4 [64]
00000000: d52d e8bd 0fc7 94bd 89a6 a3bb b2f1 29be
00000010: 0a37 e1bc 910e 05be 6a36 dcbd 9f22 01be
00000020: 10da 0cbe 5558 f7bd 47c5 c1bc 8443 0dbe
00000030: a5a9 1bbe 5fe6 99bd e4bc b5bd 9bd9 55bd
00000040: cd1a 11be 2c27 35bd e126 02bd 371e 34bd
00000050: 7d8f c4bd bcdf 63bd 3d7e 81bd 970a 35bd
00000060: b70b 92bd 29c4 63bd 74ea edbc de17 e8bb
00000070: f8ae 2eb5 ad55 a7bd 820b 83be 49e2 c5bc
00000080: 41c8 38be 640c 78bc a884 d9bd 25c4 c3bc
00000090: b598 60bd 6a6a 6fbc 25df cebd b814 b0bd
000000a0: 7c0f a0bd 2071 35b4 934c 0cbe 9124 a9bd
000000b0: d6a5 1bbc ef8b 6ebe 167a 97bc 2b05 6ebd
000000c0: 47bb 01bd e134 75bc 1233 b8bd b8c2 43bd
000000d0: a469 ddbb 8a76 a5bd 1f52 70bd 334c 86bb
000000e0: 14ba a5bd 841f c4bd 5b49 74bd ddaa 2fbe
000000f0: b7e7 83bd 6411 11bd 484f 43be da46 14be
-0.11336867 -0.0726453 -0.004994218 -0.16596106 -0.027492065 -0.12993838 -0.10752566 -0.12610863
-0.13755059 -0.12077395 -0.02365364 -0.13795286 -0.15201433 -0.07514643 -0.08873919 -0.052209478
-0.1417038 -0.04422681 -0.03177536 -0.043974128 -0.09597681 -0.05563329 -0.06322906 -0.044199552
-0.07131141 -0.055606995 -0.02904246 -0.0070829233 -6.5074664e-07 -0.08170638 -0.25594717 -0.024155753
-0.18045141 -0.015139673 -0.10621005 -0.02389724 -0.054833133 -0.014612773 -0.10101155 -0.08597702
-0.078154534 -1.6898093e-07 -0.13701086 -0.082589276 -0.009499988 -0.23295568 -0.018490832 -0.058110397
-0.031672742 -0.014966221 -0.08994116 -0.04779312 -0.006756978 -0.0807925 -0.058672067 -0.004098439
-0.08092132 -0.09576324 -0.05964027 -0.17155023 -0.064406805 -0.035416976 -0.19073212 -0.14480153

model.model.4.weight f4 [5, 64]
00000000: dd4b 79bd d5b4 46bd ce7d 8c3d 0a07 3a3e
00000010: a9c0 843b 4807 d33d a3e4 553e a9b0 a33e
00000020: ec1a 2f3e b171 8c3c f0cf 033e 0f38 663e
00000030: d22d 1a3e e64a 3e3d 4b37 533e f6a2 743d
00000040: 6e1f a13e 8bf5 963e 8ce9 883d e33f 593e
00000050: a438 c63d 6646 2dbd c2a9 ffbc 99ee 033e
00000060: 1ee0 09bc c57c 243e 2a1f 593e 4775 833d
00000070: 1844 c93d 35f9 7a3e a9f4 213e 6659 de3d
00000080: e682 b53d 9ad9 c63d 6634 773e 6cb4 ad3d
00000090: 3a5a 24bd 73ef 7a3e 0e21 adbc ae17 ad3d
000000a0: c83c 073e cc48 cf3d 04bb 09bd 0bb0 513e
000000b0: 0c92 643e f09a 363e 4dc3 6b3e 852a 163e
000000c0: e2f1 a9bd 993e bc3d 1bb7 013c 380c 9abc
000000d0: 3c60 1a3e 0721 bd3d e0e8 3c3d 4d68 263e
000000e0: 756c 293d 5a9a b13d b263 3b3e aa00 523e
000000f0: c111 093e 6b4e 453e e9d9 703d 8b30 d53d
00000100: 86f7 f6bc cdb3 c13d 713a 4a3d 79a9 433e
00000110: ceb6 7b3d 556d 913d bd2d 1f3e cc16 8bbc
00000120: 4d70 2ebe bd41 10bd cf3d 0e3e 7115 7b3b
00000130: a0e4 0c3c 1b6a 013d eab7 b63d dc33 113d
00000140: 2460 443e 5ddd d13d f289 6ebc 5756 073e
00000150: 3e75 2dbd 2450 0cbd 9a13 16be f85e fd3d
00000160: 7bda 863c 42a3 b23d dfe7 1f3e 90b7 e93c
00000170: 0f9d cc3d 59e5 453e 3568 903b e8b5 263e
00000180: f57a 04bd 9575 023d 4d02 8f3d 75a5 903d
00000190: 82ba dfbc 728c f83d c2b9 53bd 3b40 eb3d
000001a0: 98f2 ef3d f8b5 2f3e e28f 29bd 01b7 a1bc
000001b0: 0cc9 d23d 8d3b d63d e690 e73d 4cb5 763d
000001c0: 69fb 95bd 007a 6e3c f947 81bd 8835 88bd
000001d0: d149 cb3d b2c3 273e b1fc 863d eb78 4c3d
000001e0: 1732 2f3d e39e 9c3d b8af 243c 3364 6f3e
000001f0: 5fe9 1abd 6b57 323d 3d25 f63d 0f39 173e
00000200: 806e 063c 6814 e6bd 133a 0bbe 24cb a43e
00000210: 1d15 253c 280e c83d a2a1 863e 06bc 0c3e
00000220: e419 8f3d 39ad 1e3d 06b1 c7bd 7d56 983e
00000230: fbdd af3e 3db5 933c 6e1e d73b 63f4 433b
00000240: 0f72 863d 4038 343e e518 dc3d cc5d a33d
00000250: 135f 813c 5c8e 92bd 4144 a73d f74d 46bd
00000260: c49f c0bc 1f5a d8bd 908c d1bd 0b12 00be
00000270: 1240 83bc 6570 8c3e 003f 8c3e c842 c7bd
00000280: 0e47 443e 4376 06be 9ba5 163e 890c 8abd
00000290: ef36 93bd 6740 02be d054 3f3d 9d2b 443e
000002a0: c1b6 2dbe 2336 10be b4e8 56bd e918 913e
000002b0: a614 8dbd cb28 843e 68dd 04be d119 54bd
000002c0: 0160 ebbd 29c5 10be 3484 863d 84c3 ebbd
000002d0: 626e 79bd 28bb a83d 65b6 b63d 05a1 1cbe
000002e0: 7966 fa3d d8cb f63d 884b 92bd 98eb 6b3e
000002f0: de35 a63e 7671 1ebe 1979 0a3d 8644 7a3e
00000300: 7a38 9abd 96c9 683d 1564 423d 2e89 93bc
00000310: 01fc d6bc 19a6 2c3e 51ec 013e 5316 e13d
00000320: b677 04bd b20e a73d c613 e13b 6fb2 94bc
00000330: 85d0 3f3d 1cc6 1f3d cea5 cb3e 6d4c 383c
00000340: 4ba3 403e cc0e b53e d282 083d ba0f b63e
00000350: 984f 17bd 9b92 01be 9004 ffbd 7621 d73d
00000360: 2888 8ebd 0faf 6e3d 954a 2b3d de77 043d
00000370: 70d8 ee3d cae2 053e 355d a83d 5c37 f53c
00000380: ab1c 61bd 5276 0d3e 03a3 803e 56ce 4a3e
00000390: c7a0 02bc 1570 ff3d 9321 b73d ff53 823b
000003a0: e13c 193d 9f49 143e b169 d3bc 39a2 07be
000003b0: 4572 f13d 26da ff3d 0c45 1b3e df80 ff3d
000003c0: ac97 04bd 7631 ac3d 4e7c ad3c bafa e33d
000003d0: 243e 093e db35 9e3d b72a 22bd bafc b73d
000003e0: 9f21 153e 0849 8f3d 10df 953e b686 f53d
000003f0: 7013 dc3d 4dbb ca3d 9957 4d3d a022 073d
-0.060863364 -0.0485123 0.06859933 0.18166748 0.004051287 0.10304123 0.20887999 0.31970719
0.17100114 0.017144056 0.1287229 0.22482322 0.15056542 0.046458147 0.20626561 0.059725724
0.3146929 0.2948421 0.066851705 0.21215777 0.09678772 -0.042303465 -0.031208877 0.12883987
-0.00841525 0.16063221 0.21203294 0.06418853 0.09827441 0.24509127 0.15815987 0.10856895
0.088628575 0.09709473 0.24141082 0.08481678 -0.04012511 0.24505405 -0.021133926 0.08451782
0.1320678 0.10121307 -0.033625618 0.20477311 0.22321337 0.17832541 0.2302372 0.14664657
-0.082980886 0.09191627 0.007917191 -0.018804654 0.15075773 0.09234815 0.046120524 0.16250725
0.0413632 0.08672018 0.1829975 0.20508066 0.13385679 0.19268195 0.058801565 0.104096495
-0.030147325 0.094581224 0.04937214 0.19107617 0.061453633 0.071009316 0.15544792 -0.016978644
-0.17035027 -0.035218943 0.13890766 0.003831234 0.00859943 0.03159533 0.089217976 0.035449848
0.191773 0.102473 -0.014559256 0.1321653 -0.04234814 -0.034256116 -0.14655915 0.123716295
0.016461601 0.08722545 0.15615796 0.028529912 0.09990894 0.1932577 0.0044069537 0.16280329
-0.032343823 0.031850416 0.06982861 0.070628084 -0.027310614 0.12136163 -0.051690824 0.1148686
0.11716193 0.1715926 -0.041396983 -0.019740583 0.10292253 0.10460577 0.11306934 0.060231492
-0.07323343 0.014555454 -0.06312556 -0.06650835 0.09926189 0.16383246 0.06591166 0.049920004
0.04277238 0.07647493 0.01005166 0.23378067 -0.037820216 0.0435404 0.120188214 0.1476786
0.008205056 -0.11234361 -0.13596372 0.32186234 0.010075835 0.09768325 0.2629519 0.137436
0.0698736 0.038739417 -0.097505614 0.29753485 0.34349045 0.018030757 0.006564907 0.0029900305
0.06564724 0.17599583 0.10746936 0.07976875 0.015792405 -0.07156059 0.08167315 -0.048414197
-0.023513682 -0.10564064 -0.10231888 -0.12506883 -0.016021762 0.274295 0.27391815 -0.097295344
0.1916773 -0.13131051 0.14711611 -0.06740672 -0.07188212 -0.1271988 0.046711743 0.19157262
-0.16964246 -0.14083152 -0.052468017 0.28339317 -0.06888704 0.25812373 -0.12975085 -0.051782433
-0.11492921 -0.1413771 0.065681845 -0.11511901 -0.060896285 0.08238822 0.08921508 -0.15295799
0.12226576 0.12050599 -0.07143313 0.2303909 0.32462972 -0.1547297 0.033806894 0.24440202
-0.07530303 0.056832872 0.047458727 -0.018009748 -0.026243212 0.16860236 0.12687804 0.10990586
-0.032340728 0.081571 0.0068688123 -0.01815149 0.04682972 0.03900729 0.39774936 0.01124869
0.18812291 0.35362852 0.033327885 0.35558873 -0.03694114 -0.12653582 -0.12452042 0.10504429
-0.069595635 0.058272418 0.041819174 0.032340877 0.11662376 0.13074794 0.08220903 0.029933624
-0.05495898 0.13814667 0.25124368 0.19805273 -0.007972903 0.1247255 0.08941951 0.0039772983
0.037411574 0.14481209 -0.025807234 -0.13245477 0.11789373 0.124927804 0.15163058 0.12475752
-0.032371208 0.084078714 0.021177437 0.11131807 0.13402611 0.07725116 -0.039591517 0.08983751
0.14563607 0.069963515 0.29271746 0.11988585 0.10745895 0.09899006 0.050132368 0.032992005

model.model.4.bias f4 [5]
00000000: 1fbe 3642 7d30 2e42 54e0 3642 5040 2a42
00000010: 04b8 3442
45.685665 43.54735 45.71907 42.562805 45.179703
