notebooks/assets/policy/SimpleNN_scenario_2.pth (torch, 36480 bytes, 6 tensors)

model.model.0.weight f4 [64, 60]
-0.030639283 -0.12449242 -0.03389749 -0.1430406 -0.1631357 -0.08433459 -0.02017861 0.05358295
0.006786649 0.07693563 0.01815505 -0.06632644 -0.09444588 -0.085491285 -0.06369911 -0.080351666
-0.054825738 0.034180343 0.027887968 0.06863497 0.08793878 -0.083925664 -0.1705653 -0.14679338
-0.017610546 -0.1286738 -0.11107742 -0.09647369 -0.10244924 -0.08882642 0.08287277 -0.09236845
-0.06391903 -0.081757955 -0.11166466 0.0038494163 -0.10189436 -0.0007120052 0.033163626 0.040816966
0.021506485 0.008425068 -0.09592099 -0.10610583 0.030216504 -0.09523747 -0.06771793 -0.089635305
0.04682418 -0.1495292 -0.007887612 -0.011513241 0.08390448 -0.0045301784 -0.033069577 -0.1270424
-0.080875255 0.017671837 0.0011059364 -0.08157612 0.09435273 0.008049077 0.033665534 0.057501152
-0.06380459 0.04184735 -0.07671897 -0.028344369 -0.06043846 0.12094127 -0.07407233 0.098481715
-0.06909446 -0.03350214 0.11043857 -0.017827606 -0.011601748 -0.038322043 0.0013783614 -0.04623446
-0.047613297 0.042863835 0.010240885 0.04634 0.083316185 0.107335605 -0.07153983 -0.08918441
0.06148885 -0.06788504 -0.08120704 0.059699886 -0.032851905 -0.02173355 0.027579356 -0.0691473
-0.11778388 -0.010040217 -0.009779205 -0.058733787 -0.051359385 -0.014229581 -0.106085815 0.07359925
-0.09765902 0.07092715 -0.038675006 -0.12867318 -0.10378986 -0.084406495 0.03334438 0.02750553
0.08436868 -0.11244113 0.12084059 0.053286627 0.0683863 0.026296487 0.013577759 0.08197428
0.114181966 -0.06673212 -0.059919268 -0.11192498 0.07955518 -0.10513686 -0.055892345 -0.0750396
0.11789029 -0.09499587 -0.06590527 -0.10371503 0.052205168 -0.10468212 -0.03413306 -0.05957952
-0.049881883 0.09300285 0.122011065 -0.106768616 -0.10098612 0.060669754 -0.12164177 0.08887499
0.07433153 -0.109620556 0.09768763 0.121482156 -0.09498195 -0.07403409 -0.06582165 -0.113465786
0.023172209 0.07996778 0.11386501 -0.0013694814 -0.007185984 0.039429817 -0.114631824 -0.025044324
0.12676029 0.079266466 0.024815276 -0.10526265 0.06563788 -0.11847018 -0.022305775 -0.10507965
0.050758444 0.017730264 -0.08345359 0.11211137 -0.015097846 0.12696078 -0.00020904037 -0.047400087
-0.04716165 -0.068051085 -0.114809506 -0.077612676 -0.0448906 0.025994124 -0.08956939 -0.117375635
-0.10245041 -0.089311875 -0.056557816 -0.10589544 -0.0071892315 -0.010419807 -0.030989684 0.09202146
-0.04158669 0.028253322 0.09274763 0.036691688 -0.11809462 0.022552414 0.10558564 0.04184584
-0.04722464 0.030232197 -0.04747831 0.093379304 0.015145908 0.023340682 -0.011920703 0.08939856
0.0830242 -0.023715917 -0.105270766 -0.0119338 -0.08279087 -0.08449458 0.014918 -0.01179309
0.09094302 0.08960216 -0.03773141 -0.08081655 0.038146935 0.049335837 0.04100357 -0.10957169
0.008378113 0.120653816 -0.11541182 0.029639533 -0.03260528 -0.043849323 0.12303809 -0.07064501
0.03473379 -0.09973579 -0.054996934 -0.0799946 0.082266025 0.08713647 -0.08766871 -0.020666232
-0.14422294 0.07250281 0.00752238 0.046015784 -0.033284094 -0.09441949 0.024295703 -0.11553042
0.07311247 0.050363354 0.042402122 0.025375009 -0.031146638 -0.1223861 0.039167136 -0.122493364
00000000: 3cff fabc e2f5 febd 18d8 0abd 3c79 12be
00000010: 0c0d 27be 9db7 acbd 9d4d a5bc cc79 5b3d
00000020: 8a62 de3b 6d90 9d3d e6b9 943c 28d6 87bd
00000030: d76c c1bd 0e16 afbd ae74 82bd 6a8f a4bd
00000040: f490 60bd b000 0c3d 4f75 e43c 7e90 8c3d
00000050: 3f19 b43d 38e1 abbd aca8 2ebe 0151 16be
00000060: fe43 90bc 11c3 03be 8f7c e3bd ff93 c5bd
00000070: e8d0 d1bd a0ea b5bd 33b9 a93d ab2b bdbd
00000080: fbe7 82bd b770 a7bd 71b0 e4bd 7d46 7c3b
00000090: fdad d0bd dca5 3aba 95d6 073d b12f 273d
000000a0: 5e2e b03c 4c09 0a3c 3972 c4bd 034e d9bd
000000b0: 9a88 f73c dd0b c3bd b3af 8abd b792 b7bd
000000c0: b6ca 3f3d 2f1e 19be 0b3b 01bc 08a2 3cbc
000000d0: 1dd6 ab3d e471 94bb f773 07bd 6717 02be
000000e0: eda1 a5bd 87c4 903c 11f5 903a 6111 a7bd
000000f0: 013c c13d 47e0 033c dfe4 093d 5486 6b3d
00000100: fbab 82bd 2068 2b3d d61e 9dbd 7332 e8bc
00000110: 528e 77bd 0eb0 f73d 3cb3 97bd c8b0 c93d
00000120: 6581 8dbd 8a39 09bd 9e2d e23d 330b 92bc
00000130: 4215 3ebc 93f7 1cbd 22aa b43a 5860 3dbd
00000140: 2906 43bd fd91 2f3d 63c9 273c 03cf 3d3d
00000150: ada1 aa3d c5d2 db3d 7983 92bd 51a6 b6bd
00000160: bbdb 7b3d 5007 8bbd e04f a6bd de87 743d
00000170: b88f 06bd 8f0a b2bc 1aee e13c 1a9d 8dbd
00000180: ad38 f1bd b97f 24bc f538 20bc d792 70bd
00000190: 385e 52bd 3023 69bc 8543 d9bd 34bb 963d
000001a0: 7401 c8bd 4142 913d af69 1ebd e7c2 03be
000001b0: c78f d4bd 50dd acbd 1e94 083d 4753 e13c
000001c0: 7dc9 ac3d 8947 e6bd 457b f73d 1443 5a3d
000001d0: 1e0e 8c3d bb6b d73c 4075 5e3c 22e2 a73d
000001e0: 3cd8 e93d daaa 88bd e86d 75bd ed38 e5bd
000001f0: d4ed a23d fe51 d7bd 5fef 64bd 5dae 99bd
00000200: 7770 f13d 328d c2bd 58f9 86bd 8c68 d4bd
00000210: 16d5 553d 9463 d6bd 1ccf 0bbd a809 74bd
00000220: f250 4cbd 4778 be3d f0e0 f93d 81a9 dabd
00000230: d0d1 cebd d980 783d 521f f9bd 1704 b63d
00000240: 213b 983d be80 e0bd 7410 c83d a3cb f83d
00000250: e685 c2bd 2f9f 97bd 80cd 86bd c060 e8bd
00000260: a5d3 bd3c 26c6 a33d 0f32 e93d 2c80 b3ba
00000270: 6778 ebbb 2981 213d 17c4 eabd c129 cdbc
00000280: 73cd 013e 7556 a23d 6849 cb3c f293 d7bd
00000290: 276d 863d 7ea0 f2bd 9aba b6bc 0034 d7bd
000002a0: 16e8 4f3d 0f3f 913c b7e9 aabd a59a e53d
000002b0: f55c 77bc 0202 023e d931 5bb9 9826 42bd
000002c0: 932c 41bd 5e5e 8bbd 3f21 ebbd 65f3 9ebd
000002d0: 35df 37bd a1f1 d43c 2870 b7bd a362 f0bd
000002e0: 85d1 d1bd 25e9 b6bd 2ba9 67bd b5df d8bd
000002f0: a593 ebbb d7b7 2abc 14de fdbc bf75 bc3d
00000300: ce56 2abd 8373 e73c 78f2 bd3d 064a 163d
00000310: 98db f1bd d7bf b83c 493d d83d 8b66 2b3d
00000320: a06e 41bd 83a9 f73c 9e78 42bd a63d bf3d
00000330: 8b26 783c f534 bf3c 0d4f 43bc 9816 b73d
00000340: 9708 aa3d e247 c2bc 3398 d7bd fc85 43bc
00000350: 428e a9bd 7f0b adbd a16a 743c ce37 41bc
00000360: 5640 ba3d 5681 b73d 408c 1abd 2683 a5bd
00000370: f63f 1c3d 6014 4a3d 5cf3 273d 1f67 e0bd
00000380: 5a44 093c 5919 f73d 085d ecbd 9bce f23c
00000390: 1d8d 05bd 599b 33bd 65fb fb3d 55ae 90bd
000003a0: 0545 0e3d 4742 ccbd 7744 61bd 35d4 a3bd
000003b0: 177b a83d 9b74 b23d a78b b3bd 3b4c a9bc
000003c0: 2eaf 13be 5a7c 943d 4c7e f63b 0c7b 3c3d
000003d0: e754 08bd 015f c1bd c807 c73c 369b ecbd
000003e0: febb 953d ce49 4e3d d9ad 2d3d 40df cf3c
000003f0: 3c27 ffbc 90a5 fabd b86d 203d cddd fabd

model.model.0.bias f4 [64]
-0.0022751177 0.10300209 -0.01866349 -0.07613542 -0.09193205 0.07293633 0.06439313 -0.11056919
-0.003798302 0.072986394 -0.09890688 -0.08926031 -0.0098385215 -0.10249023 0.02679072 -0.045614466
0.099863015 0.056968756 -0.07240875 -0.098364264 0.022346452 0.05906291 0.013193249 0.06137696
0.04182353 -0.16211425 -0.042785734 0.06299442 -0.047712192 -0.026511932 -0.11540143 -0.05420571
0.10066096 -0.02555586 -0.03737263 -0.08765142 -0.09756044 -0.12013122 0.0858824 0.04365913
0.08609568 -0.0013303143 0.11168103 -0.12127706 0.10493704 -0.024056155 0.060369853 -0.12765989
0.06511386 0.03767953 -0.09401583 -0.1033002 -0.14002976 -0.1318011 0.07213248 0.00079314684
-0.046334032 0.0930541 -0.11367355 -0.103228934 -0.044903763 -0.11973538 -0.053473797 -0.012221558
00000000: 241a 15bb c2f2 d23d 2de4 98bc e3ec 9bbd
00000010: df46 bcbd a55f 953d 8ce0 833d 1972 e2bd
00000020: efec 78bb e479 953d b18f cabd 1cce b6bd
00000030: c031 21bc 66e6 d1bd 3678 db3c 3cd6 3abd
00000040: fb84 cc3d 1258 693d 0a4b 94bd 3473 c9bd
00000050: e80f b73c f3eb 713d 7f28 583c 6866 7b3d
00000060: 264f 2b3d 4701 26be 1840 2fbd 3803 813d
00000070: dc6d 43bd 8d2f d9bc 9657 ecbd ce06 5ebd
00000080: 5527 ce3d 865a d1bc 0b14 19bd 9682 b3bd
00000090: c5cd c7bd 5b07 f6bd 1de3 af3d ead3 323d
000000a0: ef52 b03d f15d aeba 06b9 e43d 1b60 f8bd
000000b0: 3be9 d63d 6a11 c5bc 6146 773d 46b9 02be
000000c0: 6a5a 853d da55 1a3d 5f8b c0bd 0e8f d3bd
000000d0: f663 0fbe def6 06be 32ba 933d 2feb 4f3a
000000e0: c1c8 3dbd 2693 be3d aecd e8bd b169 d3bd
000000f0: 02ed 37bd d337 f5bd 5707 5bbd ee3c 48bc

model.model.2.weight f4 [64, 64]
0.038449705 -0.0012314022 0.11366439 0.0958861 -0.10557485 -0.11535644 0.06819416 0.10894625
-0.047551814 -0.0016730875 0.07111052 0.05293624 0.03258659 -0.035239756 0.12909737 -0.14313124
-0.25132635 -0.09219403 0.0119443685 -0.028893113 0.12920374 -0.05412868 -0.08680426 -0.15925369
0.049824256 -0.14875276 -0.14082216 0.02075608 0.04364498 -0.02521535 0.09835877 -0.08812441
-0.01741392 -0.01566039 0.050341204 0.009821564 -0.055696815 0.06692986 0.033782355 0.08457015
-0.08894029 0.049666047 0.14252436 -0.0488828 0.07955273 -0.08634938 0.09437789 -0.025344715
-0.029654514 -0.08454964 -0.03399259 -0.10074161 -0.02659673 0.061663434 0.02746971 0.11150801
-0.023139313 -0.09377934 0.016385358 -0.111714564 -0.029837161 -0.1053817 -0.110883325 0.034831915
-0.020620903 0.006702319 0.08644955 0.099892646 0.02255925 0.07036642 -0.020544505 0.010393768
-0.016347537 -0.105690435 -0.020379934 0.056596402 0.08559494 0.105143026 0.1793447 0.11409875
-0.18535182 0.036753427 -0.10083003 -0.08150259 0.1502779 0.11784086 0.100658044 0.047380272
0.1560457 -0.018563297 -0.079235464 0.07485393 -0.12377976 -0.07100161 0.18862788 -0.052753117
0.06842411 0.051107902 0.035306673 -0.10511066 0.005948122 0.015955418 0.0402819 -0.07791727
-0.083931774 -0.09435041 0.041980274 0.084128 0.10787115 0.100190714 -0.019345924 -0.019900635
0.11935745 0.11190932 -0.11361134 -0.1085767 0.097082615 0.07688306 -0.058709364 -0.06890778
0.03603497 0.039512925 0.027349953 -0.026849482 0.08741504 -0.05553806 -0.10016462 -0.04514166
0.08804196 -0.06865606 0.007423356 0.10014123 0.08572629 -0.09323346 0.11949995 -0.12071599
-0.042498898 -0.10114278 0.0144722015 -0.113128915 0.07792192 -0.1149631 0.046187352 0.102029525
0.14404617 -0.040624723 0.015617922 -0.004836485 0.13927373 0.002256127 0.0761186 -0.024723593
-0.055593483 -0.02944857 0.030767135 -0.03383644 0.11186734 0.08192162 -0.0055260626 0.08862899
0.013696286 0.040279154 -0.06478468 -0.124403045 0.043419123 -0.029128296 -0.041204825 0.117469564
0.092077434 0.12496786 -0.043258414 -0.046769753 0.09660196 -0.00967741 -0.12372233 -0.099034965
0.15910535 -0.06257731 0.0112520605 -0.04939595 0.046767898 0.09147005 -0.013118148 0.04736501
-0.0004131049 -0.10378124 -0.05517806 -0.059164427 -0.007522958 -0.008200109 0.087943286 0.0695429
-0.071688384 -0.09184185 -0.10431887 0.069589466 0.0067948764 0.15152992 -0.04187267 0.060671587
0.17141283 0.013192296 0.13082844 -0.010165961 0.044290897 -0.005236253 -0.046701673 0.16215725
-0.062395986 -0.08809675 0.08229242 -0.08490589 -0.050587982 0.044581823 0.100886054 0.12167201
-0.019421544 0.030576142 0.00826364 0.03918518 -0.03322783 -0.02585019 0.017255211 -0.039512537
-0.02466712 0.020943481 0.19684915 0.119115666 0.023251241 0.11500713 -0.0280535 -0.1391794
0.026175901 -0.11356068 0.07857376 0.15235853 -0.09598932 -0.013743728 0.06884213 -0.07911511
0.042443015 0.111979865 0.081976995 -0.10123813 0.015336186 0.08584879 0.0760397 0.11284052
-0.03173101 0.09612103 0.1374049 0.0531545 0.008773082 -0.075016335 -0.061249092 -0.0051887333
00000000: 707d 1d3d 0067 a1ba e0c8 e83d ee5f c43d
00000010: a137 d8bd ff3f ecbd 61a9 8b3d 361f df3d
00000020: b1c5 42bd 804b dbba 64a2 913d acd3 583d
00000030: 8479 053d 9057 10bd 1a32 043e ff90 12be
00000040: d9ad 80be 39d0 bcbd 50b2 433c 40b1 ecbc
00000050: fc4d 043e 09b6 5dbd 6fc6 b1bd 6613 23be
00000060: 8514 4c3d a552 18be af33 10be a808 aa3c
00000070: 14c5 323d 6c90 cebc 5370 c93d 927a b4bd
00000080: a3a7 8ebc 384a 80bc 9432 4e3d a0ea 203c
00000090: 5822 64bd 8612 893d 5e5f 0a3d 1d33 ad3d
000000a0: 5426 b6bd a06e 4b3d e8f1 113e 5539 48bd
000000b0: 8bec a23d f2d7 b0bd 3249 c13d b89f cfbc
000000c0: 06ee f2bc 5d28 adbd d03b 0bbd 9e51 cebd
000000d0: 63e1 d9bc cc92 7c3d 2808 e13c 505e e43d
000000e0: a88e bdbc 620f c0bd 963a 863c 9bca e4bd
000000f0: 106d f4bc 5cd2 d7bd cc16 e3bd e9ab 0e3d
00000100: 2bed a8bc 209f db3b 760c b13d 8494 cc3d
00000110: 2dce b83c 451c 903d f34c a8bc 9f4a 2a3c
00000120: 45eb 85bc 3a74 d8bd d2f3 a6bc a1d1 673d
00000130: 664c af3d 3a55 d73d 23a6 373e 9bac e93d
00000140: decc 3dbe c38a 163d fa7f cebd d4ea a6bd
00000150: 73e2 193e 8c56 f13d ce25 ce3d d111 423d
00000160: 72ca 1f3e 0e12 98bc 3446 a2bd 044d 993d
00000170: 3e80 fdbd 4b69 91bd ab27 413e a713 58bd
00000180: f121 8c3d 8556 513d bb9d 103d 4244 d7bd
00000190: 77e8 c23b f0b4 823c a2fe 243d 1793 9fbd
000001a0: 6ce4 abbd ca3a c1bd 82f3 2b3d 4d4b ac3d
000001b0: 8deb dc3d ca30 cd3d 587b 9ebc a806 a3bc
000001c0: ae71 f43d b730 e53d 10ad e8bd 765d debd
000001d0: 40d3 c63d de74 9d3d 3b79 70bd 861f 8dbd
000001e0: 6899 133d 4ed8 213d 020d e03c 72f3 dbbc
000001f0: a806 b33d e07b 63bd 1c23 cdbd 76e6 38bd
00000200: 584f b43d 8c9b 8cbd a03f f33b d816 cd3d
00000210: 4491 af3d 2ff1 bebd 64bc f43d f239 f7bd
00000220: 5313 2ebd f223 cfbd d01c 6d3c 22b0 e7bd
00000230: 8795 9f3d c671 ebbd f32e 3d3d dbf4 d03d
00000240: d780 133e 1c66 26bd 50e2 7f3c 607b 9ebb
00000250: c69d 0e3e 88db 133b 12e4 9b3d 2289 cabc
00000260: feb5 63bd 213e f1bc 5c0b fc3c 1498 0abd
00000270: b41a e53d 86c6 a73d f913 b5bb 1e83 b53d
00000280: 6366 603c c1fb 243d d5ad 84bd 06c7 febd
00000290: 40d8 313d 779e eebc 64c6 28bd e293 f03d
000002a0: 1893 bc3d 26ef ff3d bc2f 31bd a491 3fbd
000002b0: 40d7 c53d 008e 1ebc 2262 fdbd d8d2 cabd
000002c0: 83ec 223e 8828 80bd 905a 383c 6853 4abd
000002d0: b28f 3f3d a654 bb3d 80ed 56bc d001 423d
000002e0: 0096 d8b9 428b d4bd 6402 62bd 6656 72bd
000002f0: 2583 f6bb c059 06bc 9c1b b43d 826c 8e3d
00000300: 5cd1 92bd 9417 bcbd 22a5 d5bd ec84 8e3d
00000310: 8ea7 de3b a92a 1b3e ad82 2bbd c582 783d
00000320: d886 2f3e 8024 583c e4f7 053e 228f 26bc
00000330: 5f6a 353d e094 abbb 414a 3fbd 8d0c 263e
00000340: ef92 7fbd 126c b4bd ee88 a83d 24e3 adbd
00000350: 5835 4fbd 6e9b 363d 599d ce3d 2d2f f93d
00000360: ee19 9fbc d17a fa3c 3864 073c a480 203d
00000370: e819 08bd c7c3 d3bc cd5a 8d3c e6d7 21bd
00000380: b312 cabc aa91 ab3c d392 493e eaf2 f33d
00000390: 6379 be3c dc88 eb3d 74d0 e5bc 0b85 0ebe
000003a0: d86e d63c 8092 e8bd 48eb a03d e003 1c3e
000003b0: 0c96 c4bd 602d 61bc 1afd 8c3d 1a07 a2bd
000003c0: bad8 2d3d b355 e53d 8ee3 a73d f055 cfbd
000003d0: a044 7b3c 7ed1 af3d b4ba 9b3d ee18 e73d
000003e0: 60f8 01bd 1adb c43d dfb3 0c3e 88b8 593d
000003f0: f9bc 0f3c 2aa2 99bd 54e0 7abd 4006 aabb

model.model.2.bias f4 [64]
-0.0074831266 -0.007993138 -0.082622334 -0.05855412 -0.09058565 -0.047402304 -0.047908567 -0.10575886
-0.03242244 -0.03170145 -0.03493596 -0.05596683 -0.062376298 -0.085116416 -0.029965458 -0.04667267
-0.10457643 -0.09005008 -0.08887566 -0.079561636 -0.059017546 -0.071676284 -0.114626005 -0.04679259
-0.04050166 -0.06396963 -0.040229186 -0.0035531968 -0.07009271 -0.0583803 -0.029092921 -0.045195077
-0.112191066 -0.10416956 5.0428705 5.8717546 -0.044429783 -0.039712377 -0.01961956 -0.00079802884
-0.03550522 2.3831258 -0.08011233 -0.03742294 -0.06247955 -0.21724969 -0.02483966 -0.041876372
-0.029590692 -0.05500995 -0.013147307 -0.020538267 -0.11285716 -0.054823395 -0.06985245 -0.0069644074
-0.045766737 -0.019448444 -0.013337526 -0.1172455 -0.051292285 4.984516 -0.0486177 -0.048313346
00000000: 0435 f5bb a7f5 02bc e635 a9bd 72d6 6fbd
00000010: f884 b9bd eb28 42bd c63b 44bd 1a98 d8bd
00000020: 64cd 04bd 61d9 01bd 0219 0fbd 7a3d 65bd
00000030: 4a7e 7fbd 8451 aebd 1f7a f5bc d72b 3fbd
00000040: 2b2c d6bd 2d6c b8bd 7104 b6bd 36f1 a2bd
00000050: 62bc 71bd 04cb 92bd 0ac1 eabd 96a9 3fbd
00000060: 12e5 25bd 8202 83bd 5cc7 24bd c0dc 68bb
00000070: c48c 8fbd 2e20 6fbd 4754 eebc 791e 39bd
00000080: 6ec4 e5bd da56 d5bd 325f a140 6ae5 bb40
00000090: 01fc 35bd 72a9 22bd 33b9 a0bc cf32 51ba
000000a0: ec6d 11bd 2285 1840 ef11 a4bd cc48 19bd
000000b0: 8eea 7fbd b476 5ebe 8b7c cbbc 8f86 2bbd
000000c0: 2e68 f2bc 1d52 61bd cd67 57bc de3f a8bc
000000d0: a821 e7bd 7f8e 60bd cd0e 8fbd af35 e4bb
000000e0: e775 3bbd 5852 9fbc a385 5abc 691e f0bd
000000f0: dc17 52bd 2881 9f40 5a23 47bd 37e4 45bd

model.model.4.weight f4 [5, 64]
0.013142358 0.15096794 0.30753258 0.03881972 0.1293461 5.807225 0.08480107 0.10907391
0.088904716 0.038382336 0.21193834 -0.12824276 0.22488874 0.12426498 0.20057419 0.011740445
0.056325305 0.07865645 0.030496111 0.050511517 0.23060776 0.3212393 0.0418019 0.056802835
0.14509071 0.14535394 0.102370024 0.061366927 -0.11480996 -0.014376288 0.35875684 0.093471505
-0.03246177 0.14273016 11.118432 10.299509 0.31608075 0.014410838 0.059913665 0.1004882
0.032719012 9.838179 0.19746178 0.0328049 0.04361695 0.224825 0.09448531 -0.026657479
0.025297051 0.20336683 0.020228978 0.086499006 0.15236606 0.08331089 -0.010432532 0.09403111
0.3644688 0.017492212 0.075103655 -0.116561614 0.33881652 10.4305105 0.16155247 0.34152454
0.14803377 -0.011510934 0.37969 -0.046559744 0.15860656 6.4990683 0.027028417 0.12230033
0.14722948 -0.06272207 0.12639627 0.055802297 -0.04059638 0.031179799 0.28415874 0.17190504
-0.048565913 0.11085461 -0.10299268 0.10452473 0.27052954 0.39937827 -0.10313021 -0.02748184
0.08971895 0.09792033 0.12326959 0.016693331 -0.0954828 0.006197008 0.17250323 0.21976615
0.10688975 -0.04862048 11.14821 10.360976 0.27898154 -0.10649385 0.12304363 0.1329965
0.08755927 10.04526 0.08697154 0.24797249 0.11886331 0.23396467 0.41622394 -0.0041971775
-0.025122123 0.32550594 0.12367632 0.13311028 0.004222887 0.18305865 0.0037735936 -0.04625082
0.29408306 -0.009498328 0.082257815 0.07821066 0.33788854 10.506381 0.30273902 0.2897012
0.009396816 0.052583285 0.43527943 -0.025762623 0.0139202485 6.24597 0.20793739 -0.028135456
-0.037556205 0.076444626 -0.05360435 -0.033064403 -0.08669739 0.08629663 0.26169035 0.18679176
-0.07156372 0.06326854 0.00048997643 -0.056796327 0.37256613 0.44775817 -0.05169627 0.10148798
0.013468191 -0.024803862 0.10298887 0.09153717 0.090910666 0.029163932 0.40442073 0.1891305
0.09989312 0.015573295 10.5570755 10.1432495 0.30467367 0.039039828 -0.084359586 0.077051595
-0.028591584 10.232011 -0.093824804 0.23759612 0.08806704 0.46530235 0.2166159 0.020721426
0.012557559 0.28513125 0.06290989 -0.029909212 -0.0733561 0.15836409 -0.068194374 0.042850062
0.47966692 -0.08212081 0.018506002 0.10180875 0.44042927 9.952604 0.28791198 0.29081327
0.093927816 0.072478294 -0.49317607 0.05966013 0.15827271 5.133302 -0.85803956 0.16228643
0.093513906 -0.090903796 0.13938391 -0.017838622 0.21612169 0.06438881 -0.584729 -0.033938896
-0.0034159343 -0.025751013 -0.11433871 -0.06773778 -0.3146977 -0.46717992 0.07015461 0.10981585
0.027182331 -0.055191945 0.017176459 0.10438444 0.081751525 0.052205354 -0.65484464 -0.43359965
-0.011437038 -0.117479004 10.33084 10.76636 -0.42692494 0.014280603 -0.040055223 0.16468702
-0.025289644 10.072214 0.10230616 -0.46340355 0.01657543 -0.3905439 -0.40592855 0.024727551
0.101036176 -0.33314216 0.13677588 0.13148774 -0.07955813 -0.8032486 -0.044706654 0.010654829
-0.5849782 0.0047138683 0.04709964 -0.08578145 -0.25266618 10.772586 -0.3715612 -0.16775301
00000000: 0b53 573c 5797 1a3e e974 9d3e 6d01 1f3d
00000010: 4e73 043e cad4 b940 2fac ad3d 2462 df3d
00000020: ad13 b63d cc36 1d3d 5d06 593e 1252 03be
00000030: 3c49 663e a37e fe3d 5263 4d3e ff5a 403c
00000040: 5db5 663d a216 a13d fbd2 f93c 2ae5 4e3d
00000050: 7124 6c3e 7a79 a43e 7838 2b3d 17aa 683d
00000060: a992 143e aad7 143e 60a7 d13d e35b 7b3d
00000070: 7c21 ebbd 868a 6bbc faae b73e fd6d bf3d
00000080: a2f6 04bd db27 123e 19e5 3141 caca 2441
00000090: 56d5 a13e 6f1b 6c3c 0868 753d c2cc cd3d
000000a0: 5f04 063d 2e69 1d41 6c33 4a3e 6e5e 063d
000000b0: b0a7 323d 8638 663e 8481 c13d c960 dabc
000000c0: c33b cf3c 653f 503e 3eb7 a53c 6426 b13d
000000d0: d905 1c3e e69e aa3d 36ed 2abc 6293 c03d
000000e0: a89b ba3e d44b 8f3c f2cf 993d dbb7 eebd
000000f0: 5c79 ad3e 5fe3 2641 036e 253e 4edc ae3e
00000100: 2a96 173e 5b98 3cbc ba66 c23e 6eb5 3ebd
00000110: c269 223e 5ef8 cf40 b36a dd3c 9878 fa3d
00000120: 53c3 163e 6e74 80bd 066e 013e f390 643d
00000130: 6448 26bd c76c ff3c 417d 913e e007 303e
00000140: 0ded 46bd be07 e33d d4ed d2bd 1011 d63d
00000150: d982 8a3e 4f7b cc3e ee35 d3bd 9921 e1bc
00000160: 92be b73d 748a c83d c474 fc3d 74c0 883c
00000170: 7c8c c3bd 4510 cb3b b0a4 303e 610a 613e
00000180: 03e9 da3d 4526 47bd 115f 3241 8fc6 2541
00000190: abd6 8e3e 7319 dabd 4cfe fb3d 3c30 083e
000001a0: 4652 b33d 63b9 2041 221e b23d 80ec 7d3e
000001b0: 9b6e f33d 6f94 6f3e 4e1b d53e 7a88 89bb
000001c0: e9cc cdbc b7a8 a63e 034a fd3d 104e 083e
000001d0: 2560 8a3b ba73 3b3e 654e 773b 8071 3dbd
000001e0: 0e92 963e e09e 1bbc c976 a83d e92c a03d
000001f0: baff ac3e 231a 2841 9c00 9b3e b753 943e
00000200: 1af5 193c 9261 573d f2dc de3e 230c d3bc
00000210: c111 643c fcde c740 8aed 543e 547c e6bc
00000220: 89d4 19bd 008f 9c3d 3c90 5bbd 8a6e 07bd
00000230: 678e b1bd 4abc b03d 47fc 853e 5746 3f3e
00000240: 0090 92bd f092 813d c371 003a 44a3 68bd
00000250: fdc0 be3e 8f40 e53e 78bf 53bd eed8 cf3d
00000260: b0a9 5c3c 7831 cbbc d4eb d23d d777 bb3d
00000270: 5f2f ba3d 33e9 ee3c 3c10 cf3e 6dab 413e
00000280: c494 cc3d 2227 7f3c c8e9 2841 c04a 2241
00000290: 30fe 9b3e 3ae8 1f3d b8c4 acbd 3acd 9d3d
000002a0: e638 eabc 51b6 2341 3827 c0bd 664c 733e
000002b0: 7e5c b43d 1c3c ee3e 8fd0 5d3e fbbf a93c
000002c0: 38be 4d3c b9fc 913e e7d6 803d 2a04 f5bc
000002d0: b93b 96bd 322a 223e 7ea9 8bbd 8c83 2f3d
000002e0: e796 f53e f52e a8bd e699 973c 1b81 d03d
000002f0: f27f e13e de3d 1f41 3369 933e 7ae5 943e
00000300: 3a5d c03d 806f 943d 9381 fcbe 2e5e 743d
00000310: 3e12 223e 0344 a440 7ba8 5bbf 6a2e 263e
00000320: 3884 bf3d c52b babd a8ba 0e3e 4d22 92bc
00000330: 014f 5d3e 48de 833d cdb0 15bf 8303 0bbd
00000340: dedd 5fbb caf3 d2bc 6a2a eabd 1bba 8abd
00000350: 0f20 a1be 3532 efbe 38ad 8f3d 22e7 e03d
00000360: 7bad de3c f310 62bd a5b5 8c3c 82c7 d53d
00000370: 586d a73d 48d5 553d e6a3 27bf c600 debe
00000380: 6a62 3bbc d598 f0bd 1f4b 2541 0343 2c41
00000390: e895 dabe 31f9 693c f210 24bd b7a3 283e
000003a0: 3a2c cfbc ca27 2141 e485 d13d 3b43 edbe
000003b0: 32c9 873c 5ff5 c7be ded5 cfbe 6f91 ca3c
000003c0: 0eec ce3d 9c91 aabe fa0e 0c3e b9a4 063e
000003d0: 5fef a2bd b3a1 4dbf 531e 37bd 9891 2e3c
000003e0: 22c1 15bf cb76 9a3b 8deb 403d 2fae afbd
000003f0: 765d 81be 835c 2c41 453d bebe 72c7 2bbe

model.model.4.bias f4 [5]
9.63403 10.393432 10.546091 9.701612 10.338881
00000000: fd24 1a41 7f4b 2641 cabc 2841 ce39 1b41
00000010: 0e6c 2541
