notebooks/assets/policy/SimpleConv_scenario_3.pth (torch, 47314 bytes, 12 tensors)

model.embeder.0.weight f4 [64, 2, 1, 10]
00000000: f9a1 17bd b35b cb3d 6909 f8bd 7aa5 d2bc
00000010: 6859 3fbe e88d 873d 3ec8 08be ad78 b83d
00000020: 1214 5ebe ff77 cd3d 23d2 acbd 7a65 f13d
00000030: 04a5 6cbd f68d a0bd 1fc4 e5bc 91c4 2ebd
00000040: 9275 fb3c dc5a 183e 9fcf 3d3e 8ac6 01be
00000050: 6600 29be c54c ba3d efdb de3c 0668 c03b
00000060: c528 94bd bada c53d dc43 d0bd 1adc 6fbe
00000070: 7574 05bd 2017 503d a854 43bd 9d30 b93d
00000080: fd94 b73d bc3f 7fbe 620e 7ebe a640 f8bd
00000090: 7ed0 943d af70 7b3b 210c c23d 195d 46be
000000a0: 490d b5be e6ff 8ebe 11c8 a0be 7257 d33d
000000b0: 5280 58be 622b 38be 06f6 86be 2ab9 5bbe
000000c0: 29d6 c3bd a49d bb3b 03e2 973e 491f b3bd
000000d0: 7a26 bfbd bc68 71be 2718 e1bd 197a bdbd
000000e0: 7c74 dfbd 9d5b ab3b 5088 353e 65b9 59bd
000000f0: 115f 87be cef3 74be 4a1d 49be 4ea4 dc3d
00000100: 9ca0 86be 06a1 50be 833d 093e 9a5e 593c
00000110: a81b 11be 80b3 5abd 0eae 8f3d c933 95bd
00000120: 469a f6be 0a47 d13d d6d9 c3bd 06df b2bd
00000130: fe29 183e b5ad e1bc e4f3 923d b99b 973c
00000140: 7327 76be 5d3b 76be 1dd6 47be 0a95 58bd
00000150: 7bb4 ee3c 1169 a63e 377c dbbd 8c14 503e
00000160: 32f1 183e 1bb7 553e 18df 00be 2351 8ebd
00000170: 87e6 8dbe 54be 8fbd 27c0 37be 6d80 2abe
00000180: 4dfb 24be f1bc d83c b3e1 2ebe c373 adbc
00000190: 2b2c 4e3d 5a38 503e f08c 0cbe 526a 37be
000001a0: 9846 5c3e 1aaa efbd 46c9 133d 2e2a 08bd
000001b0: 717a 15be 2723 d73d 2748 183e 2d69 4a3c
000001c0: db10 073e 062b e5bc c789 62be edaa 093e
000001d0: 17b8 19be 3748 07bd a63f 8d3a 3a56 93bd
000001e0: 1139 023e ca15 f4bd 0041 af3b 31d9 75be
000001f0: 2a3a a13d a6f3 263e 2798 c83d 7604 21be
00000200: 86d4 f63d db8d 1dbe 2ceb 04be 3a24 253e
00000210: 7ef3 0ebe a785 34bd 49a8 2dbd c432 debc
00000220: 5c9f 5bbe 6935 ca3d 0323 533d 5ed0 c03c
00000230: 0feb 663d 9875 c3bd ebc3 7cbe b786 2c3d
00000240: b2da 9fbe 7aab a3be a871 71bd 086f 46be
00000250: f66b 66be 58df d4bc 1d68 b93e 2716 223d
00000260: 4868 81be e870 33be 162b f6bd 169b 0ebe
00000270: 5954 52be fb80 18be df90 7c3e 4b83 173d
00000280: aac8 fa3d ff6e 24be 4bb0 65be 2b27 243e
00000290: 638a 08be 3d66 233e 5fe1 4a3c 8669 15be
000002a0: 4a60 b53d 1433 ce3c 63e6 07bd bc92 13bd
000002b0: ab2f 0d3e df7d 27be cd29 4ebe 1d3b 13be
000002c0: 090e c4bd f915 e73d ffd5 43bd b9f0 f9bd
000002d0: a884 32be 140e 75be 0d67 f83d c948 363b
000002e0: 66b7 843d 9ed2 cb3d f053 373e 9c4e 14be
000002f0: 62ce 67bd 2d88 21be 1cfa 4dbe 24da 88bb
00000300: 5585 6fbe 85e2 1bbe a5e7 b2bd 46d9 18bd
00000310: 7517 09be e12a 5ebe fecd 19be c845 61be
00000320: ddce 0c3d 1d77 7ebd 1378 b63e 2528 e03e
00000330: e22b 373c e4a2 7c3e f24e 953e b2ec d53e
00000340: 59ae f53d bab7 943e 9f64 83be 56bf 80be
00000350: f785 433e d254 cbbd 8280 4c3e 8eac cebd
00000360: 4e87 743e 8c5d 9d3d 109b 013e aedf 7b3e
00000370: a2f5 1fbe 02b7 56bd fbec 81be 63f2 3e3d
00000380: 6609 e83c 5cac 093e 43a8 1b3d 121b e63d
00000390: c8ce 343c 3eaa 1dbe 9c71 92bd 151f 0d3e
000003a0: d08a 87be 8d0f be3d 0ea6 04be aee4 5abe
000003b0: d583 3c3d fd05 8abe d52e 073e 3896 28be
000003c0: db21 6a3d 0db9 8bbd 3cfe 2fbe 2e0d 0d3e
000003d0: 6c66 8ebd 6b32 52be 8fd9 6fbd bed8 98bd
000003e0: 4716 1c3e 5f0e 0bbe 8f8e 7abd 3289 24be
000003f0: a0b2 113e 478c d23d 50c7 4fbe d830 023e
-0.037019704 0.099295996 -0.1211117 -0.025713671 -0.1868645 0.06618863 -0.13357636 0.09007392
-0.21687344 0.10032653 -0.08438518 0.11786933 -0.05777456 -0.07839577 -0.02804762 -0.04266793
0.03069571 0.1487841 0.18536232 -0.12673393 -0.16504058 0.09096674 0.027204482 0.0058717756
-0.07234339 0.096608594 -0.10169193 -0.23423806 -0.032581765 0.050803304 -0.047688156 0.090424754
0.08963964 -0.24926656 -0.24810174 -0.12121706 0.07266329 0.0038366725 0.0947497 -0.19371451
-0.35361698 -0.2792961 -0.3140264 0.10319413 -0.211427 -0.17985299 -0.26359576 -0.21457353
-0.09562332 0.0057255793 0.2966462 -0.087462015 -0.09333511 -0.23575109 -0.10990935 -0.09251804
-0.109108895 0.005229427 0.1772778 -0.05315532 -0.26439717 -0.23921129 -0.19640079 0.10773526
-0.2629441 -0.20373926 0.13402371 0.013267184 -0.14170706 -0.05339384 0.0701562 -0.07285268
-0.48164576 0.10218628 -0.09563033 -0.087339446 0.14859769 -0.02754865 0.07175425 0.018506872
-0.24038486 -0.24046083 -0.19515271 -0.05287651 0.029138794 0.32502034 -0.107170515 0.20320338
0.14935759 0.2087063 -0.12585104 -0.06949069 -0.2771494 -0.07018724 -0.17944394 -0.16650553
-0.16111489 0.026457282 -0.17078285 -0.021173364 0.05033509 0.20333996 -0.13725638 -0.17911652
0.21511304 -0.11702366 0.03608062 -0.03324335 -0.14597489 0.10504752 0.14871274 0.012354177
0.13190024 -0.027974617 -0.2212287 0.1344411 -0.15011631 -0.033027854 0.0010776415 -0.07194181
0.12717082 -0.119182184 0.005348325 -0.24008633 0.07872422 0.16303882 0.09794646 -0.15724358
0.120522544 -0.15386145 -0.12980336 0.161271 -0.13960072 -0.044072773 -0.042396817 -0.027123816
-0.2144751 0.098734684 0.05154706 0.023536857 0.056376513 -0.095439136 -0.24684112 0.04212066
-0.3122154 -0.31966764 -0.05894628 -0.19378293 -0.22502121 -0.025985405 0.36212245 0.039571907
-0.25274873 -0.17523539 -0.12019937 -0.13926348 -0.20539989 -0.14892952 0.24664639 0.036990445
0.12245305 -0.16057967 -0.22430532 0.16030566 -0.1333404 0.1595697 0.012382834 -0.14591035
0.08856256 0.02517084 -0.0331787 -0.03602861 0.13787715 -0.1635661 -0.20133133 -0.14378019
-0.095729895 0.11283488 -0.047811504 -0.12204117 -0.17433417 -0.23931152 0.121290304 0.002781438
0.06480293 0.099522814 0.17903113 -0.14483112 -0.056593306 -0.15774603 -0.2011494 -0.004176395
-0.23390706 -0.15223129 -0.08735589 -0.037316583 -0.13387854 -0.21696045 -0.15019986 -0.21999276
0.034376968 -0.062125314 0.35638484 0.43780628 0.011179896 0.24671513 0.29161793 0.41782147
0.11996145 0.29046422 -0.25662705 -0.25145978 0.19094072 -0.099282876 0.19970897 -0.10091506
0.2387974 0.07683858 0.12656808 0.24597046 -0.15621045 -0.052420624 -0.25376114 0.046617877
0.028324794 0.13444656 0.038002264 0.11235632 0.011035629 -0.15396973 -0.071505755 0.13781388
-0.26473093 0.0928031 -0.1295397 -0.21376297 0.046024162 -0.26957694 0.13201459 -0.16463554
0.057161193 -0.06822405 -0.17186826 0.13774559 -0.06953129 -0.20527045 -0.05855709 -0.07463215
0.15242873 -0.13579701 -0.06117111 -0.16067961 0.14228296 0.10280662 -0.20290875 0.12713945

model.embeder.0.bias f4 [64]
00000000: f711 61be 1594 25be 9c33 583e 67a4 893e
00000010: 6331 263e a0ba 583d 8141 50be 8cf7 a83e
00000020: 5498 2cbd dea9 593e efdc d53e fd08 4abd
00000030: fee3 3abe 8397 923e 3b86 863e 9cf0 953e
00000040: 657a 4abe 04b9 b73e 8717 c8bd 856e 5abe
00000050: 11ea 3abe ee6f 20bd dc80 a23e cd86 cb3d
00000060: e0a2 a33e 4f46 6d3e 3526 a93d 2453 e5bd
00000070: 7a3d 16ba d611 a6bd d4e6 a13d ee01 d23d
00000080: 5318 48bd e9a7 7b3e 548b 9b3e 88f8 e9bd
00000090: 7509 c33e 4cb1 0cbe 9a41 1fbe 716a 233e
000000a0: 9700 053e 11e5 913d 092f 34bd bc28 25bd
000000b0: 8dfe 58bd a185 e53d 1277 abbd e8d9 633e
000000c0: 3ba1 1d3e 5484 1a3e be6f 4b3e 7adb a03e
000000d0: 6a67 efbc 4ee8 4abb c925 993c aead 86bd
000000e0: ee22 d43d 2ebb 8dbd 1f46 11be 78fa a73e
000000f0: 3ca5 ce3c 3292 463e 1f82 573e 2824 2f3e
-0.2197951 -0.1616977 0.21113437 0.26883242 0.16229777 0.052912354 -0.20337488 0.33001363
-0.04213746 0.21256205 0.4177012 -0.04932498 -0.18251035 0.2863122 0.26274285 0.29285133
-0.19773252 0.35883343 -0.097701125 -0.21331222 -0.18253352 -0.039169244 0.31738937 0.099378206
0.319602 0.23171352 0.082592405 -0.111974984 -0.00057312066 -0.08108871 0.07905355 0.10254274
-0.048851322 0.24575771 0.30379736 -0.11424357 0.38093153 -0.13739508 -0.15552369 0.15958573
0.12988506 0.07123769 -0.04399017 -0.04032205 -0.052977134 0.11207128 -0.0837232 0.22251093
0.15393536 0.15089542 0.19866845 0.31417447 -0.029224116 -0.0030961218 0.018694775 -0.065760955
0.10358225 -0.06920467 -0.14186905 0.3280828 0.025225274 0.19391707 0.21045731 0.17103636

model.embeder.2.weight f4 [32, 64, 3, 1]
00000000: 7280 e63b d890 0fbd dd60 52bd 8742 36bc
00000010: 1ad5 c03c eb0c bbbd 0079 e73c 7b2c d63c
00000020: 9ec5 793c fade 83bd 8680 bdbd 5ef2 10bd
00000030: 00bd a1bc 47c0 b23c 1ee9 f53b 9dfa e8bb
00000040: fef5 3c3d f70c 88bd fdcd 4b3d 1c1e 80bd
00000050: e7ea dc3c ddd0 b5bc b453 9cbd 1eff b63c
00000060: 4588 9ebc cb26 8abd 0602 8cbd 1958 84bd
00000070: 55be 9ebc a349 143d be15 b2bc 2f24 7c3d
00000080: e43e 4fbd 99bb 59bd 1a08 a6bc 2eb7 0b3c
00000090: 6fc0 aa3c 4435 1f3d c1bd e83b 0634 603d
000000a0: e8a7 6c3d 7ddf 15bd 667c 93b9 8014 033c
000000b0: de03 81bd 18af 05bd eb43 02bd b15b 42bc
000000c0: f5d3 f8bc 1386 6a3a 0b80 93bd f703 75bd
000000d0: bf2b 14bc e9c5 823d d7fc 2dbb 2fa5 24bd
000000e0: 8f33 5bba effa 1aba 8c20 973c 1cff 10bc
000000f0: 3c71 8cbd c600 2ebd 8339 f4bc 6175 2c3c
00000100: ad4e 2f3d 4977 293d c483 d3bc e4d8 7bbc
00000110: 28cc 97bd 3adb 033d 8978 753a cac4 e63c
00000120: bb2d c4bd 8fbc bcbd 1f8b 6ebc b6f4 2abd
00000130: 2b06 6b3d 501d f3bc 01ea 073d ccd3 2e3d
00000140: 626b df3c 8405 103d d40d ec3c c267 6dbd
00000150: 155e 5abb dcb6 b33c bc4f 7a3d 061a 873d
00000160: 860e 8ebd dd7f 473c a15a bcbc 6536 a9bd
00000170: a98a 323c 9504 88bd 3b69 4f3c f562 82bb
00000180: ac3d 8fbc fde8 12bd 2a80 05bd 292a 37bd
00000190: 7fa1 713d d678 17bd 42d5 f1bd 4a1e fbbd
000001a0: c3b8 93bc 3014 03bc ba3d 44bd 0d57 6fbd
000001b0: 89d7 64bd eb84 33bc 4232 0e3d 3c88 9bbc
000001c0: 82f2 58bd e01f 34bd 8b63 20bd d3f3 42bd
000001d0: d658 79bd 0f1e 183d 8ccb c2bb c780 c1bc
000001e0: e2a5 a5bc daa8 92bb fffa b93c 4807 91bd
000001f0: 1f02 27bc 0e55 73bd 9cf3 abbc ab72 e1bc
00000200: 6327 0dbd 4062 50bd 65a7 153d 7cfa f9bc
00000210: ef5a e6bc 86d0 72bc 0a3e 7c3d 5eaa fabb
00000220: 44a4 d4bd 734d a2bd 48a9 3a3d 4160 813d
00000230: 86a9 f23c 6c37 3fbd f558 4c3c 4fae 3a3d
00000240: d1e9 bdbc 04dd 56bd 7b06 ce3c 9aee 8dbd
00000250: f68c a3bd 89d8 3a3c ccdb 2abd 8c35 01bd
00000260: d191 ddbd aa08 1e3c 2b42 39bd 2d5b ccbd
00000270: 6b5f 2ebc 4eda 7e3d 0b41 83bd 0cbb 843c
00000280: 3296 04bd b6d8 60bd 33d6 b8bd 226b 8bbc
00000290: f45c 2ebd d413 83bd 10a4 743c 9101 863d
000002a0: f606 b63a 9644 a23c db6b 49bd be11 733c
000002b0: 51e2 853d 08fd 0fbd cd71 63bd 3172 1b3d
000002c0: fcfa 19bc 524e 50bd 3ee4 27bd e4cb 7abd
000002d0: 3269 753b 5d20 203d 843a 253d ed81 bdba
000002e0: 3066 29bd 460d d8bd 619c 2ebd 49a5 56bd
000002f0: 2bce 5dbd 20d0 d5bc 203d 933c 182c 64bd
00000300: ec5b 76ba 2551 0dbb aebc aa3c c834 28bd
00000310: 7060 31bd f739 94bd dea3 86bc 706a c6bb
00000320: 26c2 8fbd 0111 52bd 3e7b f6ba 4b0d 42bd
00000330: 423a e2bc 353f b8b8 f30c 933d 8bb0 0fbe
00000340: 7816 3fbe 998c 27be 5cdd 9abc bf8b 833d
00000350: e17c 70bc b4cd c8bb 1549 dabd 598b a8bd
00000360: f592 74bd d1a1 e8bb 00ff 0bbc 3585 b63b
00000370: 0e06 47bd e812 063d 8706 233d 42d2 db3c
00000380: 2df0 0ebd e17d 08bd ee43 213d 2a5b dabc
00000390: 0a31 93bd f0b8 87ba af23 10bc d779 1bbd
000003a0: 612c 8abd 3b92 80bd 3980 f93c b052 73bd
000003b0: f231 b8bc 3f33 1a3b 4a05 96bd b1b5 abbc
000003c0: 903a 613c 1b5d 6ebd 688e 92bd 8fab 6cbd
000003d0: edbf 643d 3038 5b3d 4929 083d c809 aebc
000003e0: c8a5 893c 949c 833d d4a0 18bd 3f6a 863d
000003f0: a965 32be dde7 60bd 38ae 42be 255f abbd
0.007034355 -0.035050243 -0.051361907 -0.01112426 0.023539115 -0.09133323 0.02825594 0.026144257
0.0152448695 -0.06439014 -0.092530295 -0.03538739 -0.019743443 0.0218202 0.0075045964 -0.0071099536
0.046133034 -0.06643098 0.049756993 -0.06255743 0.026967479 -0.02219432 -0.076331526 0.022338446
-0.019352088 -0.067456804 -0.068363234 -0.06462116 -0.019377867 0.036203038 -0.021738883 0.061557945
-0.050597087 -0.053157423 -0.020267535 0.00852756 0.020843713 0.038869157 0.0071026986 0.054737113
0.057777315 -0.03659009 -0.0002813071 0.008000493 -0.06299566 -0.032637686 -0.031803053 -0.011862681
-0.030374506 0.000894637 -0.07202157 -0.059818234 -0.009043633 0.063854046 -0.002654841 -0.040196594
-0.000836187 -0.0005912026 0.018448137 -0.008849885 -0.06857535 -0.042481206 -0.02981258 0.010526032
0.04279964 0.041373525 -0.025819667 -0.015371535 -0.074119866 0.032191493 0.00093639694 0.028170008
-0.09579035 -0.09215652 -0.014559536 -0.04173728 0.05737893 -0.029677063 0.033182148 0.042682454
0.027272884 0.03516151 0.028815188 -0.05796028 -0.0033320237 0.02193778 0.061111197 0.065967605
-0.06936364 0.012176481 -0.022992434 -0.08262328 0.010897317 -0.06641499 0.012659366 -0.0039790818
-0.017485462 -0.035866726 -0.03259293 -0.04471794 0.058991905 -0.036980473 -0.11808254 -0.122616366
-0.018032437 -0.008000419 -0.04791043 -0.058432627 -0.055869613 -0.010956983 0.0347159 -0.01898586
-0.05296565 -0.04397571 -0.03915743 -0.04759581 -0.060875736 0.03713804 -0.005944675 -0.023620976
-0.0202207 -0.004475695 0.022702692 -0.07081467 -0.010193377 -0.059407286 -0.020990185 -0.027520498
-0.03446139 -0.05087495 0.036536593 -0.030514948 -0.028119532 -0.014820224 0.061582603 -0.007649704
-0.10382894 -0.079249285 0.045571595 0.06317187 0.02962185 -0.046683714 0.012472381 0.04557639
-0.023182781 -0.05245687 0.025149575 -0.06930275 -0.079858705 0.011404165 -0.04171352 -0.031545207
-0.10818828 0.00964562 -0.04522912 -0.09978328 -0.010642867 0.06221991 -0.0640889 0.016202472
-0.0323698 -0.05489417 -0.0902523 -0.017018858 -0.042569116 -0.06400266 0.014931694 0.065432675
0.0013887573 0.019808095 -0.049175125 0.014835773 0.06537307 -0.03515342 -0.05552845 0.0379507
-0.009398218 -0.050855942 -0.040989153 -0.0612296 0.0037446734 0.039093364 0.040339008 -0.0014458277
-0.04135722 -0.10549407 -0.042629603 -0.052403722 -0.054151695 -0.026100218 0.017973483 -0.055706114
-0.00093978527 -0.0021563258 0.020841923 -0.04106596 -0.04330486 -0.072376184 -0.01643556 -0.006055169
-0.07019453 -0.051285747 -0.001880504 -0.04737596 -0.02761567 -8.785577e-05 0.07180204 -0.1403219
-0.18660915 -0.16362227 -0.01890438 0.06423139 -0.014678211 -0.0061280373 -0.106584705 -0.082297035
-0.05971046 -0.007099368 -0.008544683 0.0055700787 -0.04858976 0.032732874 0.039801147 0.026833657
-0.03489702 -0.033323172 0.039371423 -0.026654799 -0.07187088 -0.0010354798 -0.00879757 -0.037957992
-0.06746746 -0.06277891 0.03045665 -0.05940503 -0.022484753 0.002352908 -0.073252276 -0.02096066
0.013746873 -0.05819426 -0.07156068 -0.0577808 0.055847097 0.05352038 0.033242498 -0.021244898
0.016802683 0.06426349 -0.037262753 0.065632336 -0.17421593 -0.054908622 -0.19011772 -0.08367757

model.embeder.2.bias f4 [32]
00000000: 650e c5bd 7304 ccbd 00a4 c8bc d6da 0ebe
00000010: d46a 413e 961a c1bd 324b efbd 5ea9 75bb
00000020: a2b3 1abd 2fbf 57bc 1c7e 66bb a624 05bd
00000030: c0c5 e5bc 99af d83d 2a55 2cbc 5029 b9bd
00000040: cafd 8fbd 44c8 0abd a2ce 243e 80f2 453d
00000050: 5c36 e4bc 1da7 d0bd c1ce cfbd 1896 2f3e
00000060: 341a a0bd bf1c 90bd 05a2 05bd 4025 83bd
00000070: cad2 38bd 3f7e e73d 9a03 bcbc 29c6 b2bd
-0.09621886 -0.09961786 -0.024492264 -0.13950667 0.18888408 -0.09428899 -0.11684264 -0.0037484984
-0.037768967 -0.01316814 -0.0035170382 -0.032505654 -0.028048396 0.105803676 -0.010518352 -0.09041083
-0.07030828 -0.033882394 0.16094449 0.04832697 -0.027857952 -0.10188124 -0.10146857 0.171471
-0.07817498 -0.07036733 -0.032625217 -0.06403589 -0.0451229 0.113033764 -0.022950936 -0.08729202

model.embeder.4.weight f4 [16, 32, 1, 1]
00000000: 3703 1bbe 24ae fdbd 7f18 24be d257 273e
00000010: 33c4 d93b 5228 bf3d 0dd3 733d f9d9 13bc
00000020: 3d2f 08bd 09db cb3d 85e3 94bd 01c3 993c
00000030: b170 0c3e 0fd6 04bc 5df8 09be c5e4 8d3d
00000040: c628 e0bd 820c e0bd 07ff 4abe 79e4 1dbe
00000050: e62d 373c 7a07 4bbd 0564 1abe a9f0 c5bd
00000060: 7e8d 093d 98e5 d23c 55da d9bd 33bb df3d
00000070: 8524 c5bd 448a c4bd 59c4 aabd 0ed3 13bc
00000080: 33ef 6f3d 4851 6d3c f3cb d43c ff67 ee3c
00000090: 1cc9 3ebe 476a 673d 1807 0cbe 539a c1bd
000000a0: f83a 823d 4a69 b6bc 7e11 553d 7bc3 033c
000000b0: c575 b03d c5d2 89bb adbd e4bd d576 07be
000000c0: e977 c73d 5c19 03be 4559 333c 7aec 3e3d
000000d0: 07bd c93d 7d1d c83d d9b4 c9bd 2d25 4abe
000000e0: 5cca c8bd fa63 0a3e a39a 093d a470 343d
000000f0: 32cd 6a3d 1a4e 1abd 96f9 4bbd b2cd 383e
00000100: e7bf 19be a0c8 25be 6849 24bd 949d a7bd
00000110: df7d a6bd c9dd 16bd 55bf 32be 8e06 e53c
00000120: 786a 38be 1e63 33bd 5feb d4bb 6c02 fabd
00000130: 7137 e5bd b50e 0bbe a5ba 9fbc 6214 d5bc
00000140: 2696 0e3e 02e5 0abe 210f c4bc 5855 893d
00000150: 997b 723d e4f5 94bd 527d 27be ff4a 92bc
00000160: f29a b6bd e795 be3d 3c64 4fbe 5383 91bd
00000170: 9a28 afbd 6278 73be fff7 f9bc 46a8 c93d
00000180: dc10 7e3d 8aff d1bb 131a 9c3d a930 38be
00000190: c553 20be 52fe 8d3d b470 ebbd b23d edbd
000001a0: 1bda fb3d b5bc c8bc fb6e 78bc 5c78 653d
000001b0: 13c5 a63d 0bdf 2bbe 5aed 28bd 9b54 c8bc
000001c0: b7a4 e4bd 8ecf 9c3d 40fb a0bd 2f85 17bd
000001d0: cbc8 70be 239c 45bd 7811 8c3d bf25 83be
000001e0: e8b3 223e 822d 5cbd 8a9b 7ebd 308e 873a
000001f0: 41d6 903c 3b02 e0bd 365e eabc 3a8e c2bc
00000200: 77f0 d3bc b139 9c3d 0efb 9e3d a132 c03d
00000210: 9d99 64be e263 02be 41e0 f2bd feec bcbc
00000220: 90db b83c 1686 d2bd b7eb 753d 3128 a9bd
00000230: 466b 193d c9d9 90bd 747c 113e 9285 30be
00000240: 2b22 b83d 47cb a13d 879b 31be 234a 72bd
00000250: 3251 bbbd 3d99 5bbd e505 923d ace3 e1bd
00000260: 0e5d 203e ccb8 1e3d 4454 18be 80e5 dd3d
00000270: 7111 0f3e 51bc ab3d 0dbd afbc 9f7a 2ebe
00000280: ad01 e13d 295f 52be db45 fd3d 1bd1 20be
00000290: 9c91 c2bd be8a 993d ea6f b03d f663 75bd
000002a0: 253b d33c d500 103d c543 fabd 6c67 dbbd
000002b0: 013a 1c3e c325 873e a756 243e c5a8 acbd
000002c0: 2eee 1bbe 75bf cfbd ad0c 91be ae98 92be
000002d0: 2490 b7bd 7d6c fa3d a130 91bd bcfc d6bd
000002e0: b12e f53d 69a3 0d3e c2f8 78be a78b a1bd
000002f0: 675b 853d 05e6 2ebe 34d2 91be 2dcb 103e
00000300: b90d c13c 7488 aabd 1ed9 a43d 3074 de3d
00000310: 3349 c03d e10a c7bc 26d8 82bd 494a 33bc
00000320: 3e13 653d c97c c9bd 821d e9bd ac4c c93d
00000330: 97bd 133e bf80 983e 6e9b 423d a9f9 283e
00000340: 4429 a53c 3720 8a3c 5837 013e f980 0d3d
00000350: 2d64 d4bd 3dd8 40bd 05e6 3f3d c1c0 503d
00000360: 9403 02be bc28 e7bc 4ed3 6abe 9f97 c5bc
00000370: 2830 fdbd fa3b f0bc faa0 073e f8e5 0dbe
00000380: 11c2 29be 5fb5 70bd 16c9 9dbd 773f 2dbd
00000390: 4c46 f53e ccf8 3cbd dd6f 07be 3817 f5bc
000003a0: 874b b53c e55f 78bc 58cd 82bd c39a 0e3e
000003b0: 102a ccbc aec9 343e b0e9 46bd 9f5b 343d
000003c0: a1e7 e53c a07e fd3d e5c9 3d3e 5d9b febd
000003d0: e760 3bbe 6756 083e 8543 173e c533 3cbe
000003e0: 3dbc c43d daff 9b3d c29c a9bd dee1 823c
000003f0: f062 323e 7fda aa3d 9cea 0cbe 2087 973c
-0.15137945 -0.1238673 -0.1602497 0.16342095 0.006645703 0.09333862 0.059527446 -0.009024137
-0.033248175 0.09953887 -0.072699584 0.018769743 0.13714863 -0.008107676 -0.1347365 0.069284
-0.10945277 -0.10939886 -0.19823848 -0.15419187 0.011180377 -0.049567677 -0.15077217 -0.09665043
0.033582203 0.025744244 -0.10637347 0.10924377 -0.09626106 -0.095966846 -0.083382316 -0.009022487
0.058577728 0.014484711 0.025976157 0.029102324 -0.18631405 0.05649784 -0.13674581 -0.09453263
0.06358904 -0.022267003 0.052018635 0.008042212 0.08616213 -0.004206034 -0.1116899 -0.13228925
0.09739668 -0.12802643 0.0109465765 0.04661224 0.09850507 0.097712494 -0.09848947 -0.19740744
-0.09804222 0.135147 0.03359474 0.044052735 0.057324596 -0.03767214 -0.04979857 0.18047217
-0.15014611 -0.16189814 -0.04010907 -0.081843525 -0.08129477 -0.036832605 -0.174558 0.027957227
-0.18009365 -0.043795697 -0.006497785 -0.12207493 -0.11192215 -0.13579829 -0.019498179 -0.026010696
0.13924465 -0.13563922 -0.023932995 0.06705731 0.059199903 -0.072734624 -0.163564 -0.017858027
-0.08916272 0.09305935 -0.2025308 -0.07105126 -0.08552666 -0.23776391 -0.030513762 0.09846549
0.062027797 -0.0064086365 0.07622161 -0.17987312 -0.15656956 0.069332734 -0.11496106 -0.11584033
0.1229746 -0.024504045 -0.015163179 0.056022987 0.08143058 -0.16784303 -0.04124198 -0.024454406
-0.11164229 0.076567754 -0.07860422 -0.03699225 -0.23514096 -0.048244607 0.068392694 -0.25614735
0.15888941 -0.053754337 -0.062160052 0.0010342058 0.01768029 -0.109379254 -0.028609376 -0.02374946
-0.025871499 0.07628191 0.07762729 0.09384657 -0.22324224 -0.12733415 -0.11859179 -0.023062225
0.022565633 -0.10279481 0.06003925 -0.08259619 0.03745582 -0.07072789 0.14207631 -0.17238453
0.08990892 0.079001 -0.17344485 -0.059152734 -0.09146346 -0.053612936 0.071300305 -0.11029753
0.15660498 0.038750455 -0.14875895 0.10834789 0.13971497 0.08385528 -0.021452451 -0.17038964
0.10986648 -0.20544113 0.123668395 -0.15704767 -0.09500429 0.07497166 0.08615096 -0.059909783
0.025785038 0.035157043 -0.12219957 -0.107130855 0.15256502 0.26395997 0.1604868 -0.08430628
-0.15227577 -0.101439394 -0.28329983 -0.2863211 -0.089630395 0.12227724 -0.07089353 -0.10497424
0.11971796 0.13831867 -0.24313644 -0.07887965 0.06511574 -0.17079933 -0.28480685 0.14140005
0.023566114 -0.083268076 0.08049224 0.10862005 0.09388962 -0.02429718 -0.06388883 -0.010943004
0.055926554 -0.09838254 -0.11382581 0.09829077 0.14427792 0.29785725 0.04751151 0.16501488
0.020161279 0.016861064 0.12618768 0.034546826 -0.103706695 -0.04708122 0.046850223 0.050965074
-0.12696677 -0.028217666 -0.22932169 -0.02412015 -0.12362701 -0.029325474 0.13245001 -0.13857257
-0.16577937 -0.05876672 -0.0770437 -0.042296853 0.47905195 -0.04613571 -0.13226266 -0.029918298
0.02213074 -0.015159582 -0.063868225 0.13926224 -0.0249224 0.1765506 -0.048562706 0.04403269
0.02806455 0.123776674 0.18534048 -0.12431977 -0.18298684 0.1331421 0.1477185 -0.18379124
0.09606216 0.07617159 -0.08281852 0.015976842 0.17420554 0.08342456 -0.13761371 0.01849705

model.embeder.4.bias f4 [16]
00000000: 865c b4bd c8b0 203e 00dd f8bd 0f38 3bbb
00000010: 80b5 02be a01a 123f 1b0b d2bc 7a39 febd
00000020: c898 0b3e dfad a93b 512a a73e 6cc5 113c
00000030: af2e ffbc cf7a 85bd b92e d73e 4cdd 7bbd
-0.0880671 0.15692437 -0.121515274 -0.002856735 -0.1276455 0.57071877 -0.025640061 -0.124133065
0.136325 0.0051781978 0.32649472 0.008897167 -0.03115019 -0.065175645 0.42027834 -0.061490342

model.embeder.7.weight f4 [16, 16]
00000000: 5386 ca3d e6a6 94be 0393 333e c0c5 95bc
00000010: 6d19 33bb 3cdc 8cbe becf 7b3d d6d5 c53d
00000020: 01f1 d03e b9e2 14bf 35cf f13d 5966 f83e
00000030: 873b adbe 14ac f63d 8909 04bc 6b80 7dbe
00000040: 74a0 c7bd 3ae4 e5bd e8a3 27bd 705b f23c
00000050: 1090 25bd 3b6e 8f3c 5174 dbbe 54ab 38be
00000060: 35c1 e33d 69b1 753d fd87 c83c 4df0 32be
00000070: 8cc4 23be 5cfa 1bbe 6125 08be bc0e e4bd
00000080: 53f5 e7bd 39bc 8a3e 5284 413e d630 b73d
00000090: d393 d53d b06f c23e 8588 7cbe 0362 093d
000000a0: bbe7 a43e d9e0 d6be 2db8 ba3e 1d57 b5be
000000b0: 2a8b 88bd 90d9 db3d 20ca 933e c5a4 2bbe
000000c0: 6636 e63d ceb7 543d 146d 5cbe c844 09bd
000000d0: b104 5ebc f7bb 013f f6cd 053c 9157 efbe
000000e0: e832 113e db99 e73e afe8 0a3d 4816 92be
000000f0: 2de7 babb dfd6 7dbe 31fb e7bd 5926 81be
00000100: a097 d23c b6d5 21be 2029 953c 0021 e3ba
00000110: f02b 553d d0dd bcbd cc60 dd3d 9856 49be
00000120: 10d4 b2bd a43b c1bd 88f5 c3bd c09d 253d
00000130: 40a1 423e 8aae 68be fc30 edbd 9cde 11be
00000140: 8d64 f43c 9c62 79be 029f e23d 991b 3cbc
00000150: 290f ca3d 9d63 2dbe ab61 29be 31d3 4b3e
00000160: d99a 01be dd56 0b3e 6f65 95be 10d6 33bd
00000170: 6931 4dbe d1a5 af3d 0303 1abe 095a 883d
00000180: add7 c33d 09f0 efbd afac 1cbe d525 bfbd
00000190: 95f7 343e 28c6 d5bd f1ac 6cbe 483d fa3d
000001a0: c4df 1abb a06d 3ebe 1aaa 53be 9641 efbc
000001b0: 6239 7abc 33f2 723d 10e4 2dbe 466e 83be
000001c0: 8610 4abe 0467 54be 501f 69bd f08e c2bd
000001d0: d09a ca3d 0bfd 57be 1e07 2a3e 70bb 8bbe
000001e0: 1505 853e 50dc 603e 39b4 473e 843b 3a3e
000001f0: f789 7d3e d0c4 1ebd 13eb 59be 7eeb 45be
00000200: 2460 60be 42d1 27be 2b96 cc3b 3dc2 aa3c
00000210: f4a9 2abe 81f0 16bd 3ce9 853c e850 b7bd
00000220: 9e1b 4bbe 96b5 963d 73e1 b5bd 492d 2d3c
00000230: 65d8 3c3e 882d afbd 11e6 1ebe 0ed1 f13d
00000240: fd5f 69bb 8d6c 78bd eedd ae3d abca 9f3d
00000250: 8958 163e 660c 6c3d a269 53bd 31ab 3f3d
00000260: 3ab8 b6bd cf04 523c e597 d9bd fc4e 78bc
00000270: c0c8 ba3d 7b5d 273e b992 4ebe f483 99bd
00000280: 3516 313d 1714 ffbd 4f56 e5bd 498e 49bd
00000290: 607b adbc 4543 3c3e 6a77 b73d c178 8fbd
000002a0: 2657 a93e c041 2b3d 4e4d 5e3e 088a c0bd
000002b0: f529 663c d0b8 01bd 29f9 26be c842 84bd
000002c0: 0aca 533e 7a07 2e3e c347 e4bd 3e74 42be
000002d0: 364f 61be 3923 02bf c49d 0fbe 8f1c d2be
000002e0: 3a6b e2be f76d 003f f537 ff3e 2c48 75be
000002f0: 6e6f ce3e a20f debd 8b09 a13e 4c1b 953d
00000300: 638f 3c3d e517 b0bc 5c67 9fbc 9d66 f7bc
00000310: 2030 643c 275a 993d 6fae ecbd a04e 61bd
00000320: ec04 39be 2ec0 6bbe c8bb 043e 6356 9e3d
00000330: eb2d cbbc 8010 383e 0d7e 06be 256b d63c
00000340: b4c2 93bd fb85 8fbb 7a28 f9bb 78a2 89bd
00000350: 7c1c 8ebb 6bac 3fbd c054 283e 8a78 613e
00000360: 9a1f 243e 09c2 853c 7a5a 403e 4b36 9b3d
00000370: d40c f33b 9099 1bbe 81d7 933d 9453 14be
00000380: abd6 94bc c134 af3d d2e0 f8bc 8027 c7bd
00000390: f0c7 ccbc 862f cf3e 0289 d5be 4702 1ebe
000003a0: ed5b 61be 2b90 643e a0ec f63d f7d5 3cbd
000003b0: 9413 28be 7934 03be a61d 5dbc 853c 8dbe
000003c0: 8f58 a3bd 9f9f 54be 970e 88bc cf03 ecbd
000003d0: 7bf5 bc3d 35e5 853d 9a36 66be 9a16 a3bd
000003e0: 2103 b8bd f434 9cbd c26a 133e 840a 24be
000003f0: b710 61be 9497 23be a0ce 8dbd 07fd 25bd
0.098889016 -0.29033583 0.1753655 -0.018282771 -0.0027328387 -0.27511775 0.061477415 0.096599266
0.4080887 -0.5815845 0.118071 0.48515585 -0.33834478 0.1204454 -0.008058914 -0.24756019
-0.09747401 -0.112251714 -0.040927798 0.029584616 -0.04042059 0.017508617 -0.4286218 -0.18034106
0.11120836 0.059983645 0.024478907 -0.1747448 -0.15992945 -0.15232223 -0.13295509 -0.11135623
-0.11326089 0.27096727 0.18898132 0.089448616 0.10428586 0.37975836 -0.24661453 0.033540737
0.32208046 -0.4196842 0.3646864 -0.35418025 -0.066671684 0.10734856 0.28865147 -0.16762073
0.112408444 0.051933102 -0.21525985 -0.03351286 -0.013550923 0.50677437 0.008166781 -0.46746495
0.14179575 0.4523457 0.03391331 -0.28532624 -0.005703828 -0.24788998 -0.11327208 -0.2522457
0.025707066 -0.1580418 0.018208086 -0.001732856 0.052043855 -0.09221995 0.10809478 -0.19661939
-0.08731854 -0.09435204 -0.09568316 0.040433645 0.19006824 -0.22722831 -0.11581609 -0.14245075
0.029833103 -0.24354023 0.110654846 -0.011481189 0.09866173 -0.1693253 -0.16541164 0.19904782
-0.12656726 0.13607354 -0.2917895 -0.043905318 -0.2003838 0.08576549 -0.15040211 0.06657798
0.09562621 -0.11715705 -0.15300249 -0.09333388 0.1767257 -0.10438186 -0.23112847 0.1221872
-0.002363191 -0.18596506 -0.20670357 -0.029206078 -0.01527247 0.05931301 -0.1698153 -0.2567007
-0.19732866 -0.20742422 -0.056914628 -0.094999194 0.098928094 -0.21092622 0.16604277 -0.2729144
0.2598044 0.21959043 0.19502343 0.18186766 0.2475966 -0.038761914 -0.2128108 -0.19328114
-0.21911675 -0.1638842 0.0062434874 0.020844573 -0.16666394 -0.036850456 0.016346566 -0.089509785
-0.19834754 0.073588535 -0.08880892 0.010569879 0.18441923 -0.08553606 -0.15517451 0.11807452
-0.0035610192 -0.060650397 0.085384235 0.07802328 0.14682211 0.05762901 -0.05161441 0.04679412
-0.08921857 0.012818529 -0.10624675 -0.01515555 0.09120321 0.16344254 -0.20173158 -0.07495871
0.04323407 -0.12455004 -0.11198103 -0.04920796 -0.021176994 0.18385036 0.08958323 -0.07005454
0.330743 0.04181075 0.21709177 -0.09401327 0.014048089 -0.03167039 -0.16305985 -0.0645805
0.2068254 0.1699504 -0.111465 -0.18989655 -0.22002873 -0.50834996 -0.14025027 -0.41037413
-0.44222432 0.50167793 0.4984738 -0.23953313 0.4031939 -0.108428255 0.31452593 0.07280597
0.04603518 -0.021495769 -0.019458465 -0.030200297 0.0139274895 0.07487898 -0.11556708 -0.055006623
-0.18068284 -0.2302253 0.12962258 0.07731321 -0.024802169 0.17975044 -0.13134022 0.026174137
-0.07214871 -0.0043799854 -0.007603702 -0.067204416 -0.0043368917 -0.04679529 0.1643858 0.22018638
0.1602768 0.016327875 0.18784514 0.07578715 0.0074173007 -0.15195298 0.072188385 -0.14485008
-0.018168768 0.08554984 -0.03038064 -0.09724331 -0.024997681 0.40465945 -0.4170609 -0.15430556
-0.22007723 0.2232062 0.120568514 -0.04610249 -0.16413718 -0.12812985 -0.013495838 -0.27585235
-0.079758756 -0.20764016 -0.01660852 -0.11524164 0.09226509 0.065378584 -0.22481766 -0.07963295
-0.08984972 -0.076272875 0.14396194 -0.16019636 -0.21979032 -0.15975791 -0.06924176 -0.04052451

model.embeder.7.bias f4 [16]
00000000: 3cc5 11be a978 e7be e6e8 4f3d f8aa 833e
00000010: 4cef 08be 9620 debd 3c46 bcbd 53f9 4cbe
00000020: 5563 fabc 0095 cfbc 6c78 e1bd 0bbf 363e
00000030: 6a85 b6bd 1ce8 91be acf9 c13c 5696 c2bd
-0.14235395 -0.45209244 0.05075922 0.25716376 -0.13372535 -0.10846059 -0.09193084 -0.20016985
-0.030564943 -0.025339603 -0.11009297 0.17846315 -0.089121655 -0.28497398 0.023678623 -0.095013306

model.clf.0.weight f4 [64, 32]
00000000: a325 4fbe 7e93 35be 8f63 a43c 4539 abbd
00000010: 98f7 85bd 14bd ecbd 01ed d4bd a1c5 463e
00000020: eaf3 6c3e 1595 68be 41c9 5abd d473 4b3e
00000030: 2620 fe3d 7de1 1c3b d7ec 1a3e d2de 573e
00000040: cfbe af3d c762 1f3e 6770 5cbd b855 c03d
00000050: a959 7ebd ab03 473e 978c 44bd ed45 17be
00000060: b6cf 043e 7d51 08be 5f6f b1bd 4904 98be
00000070: c9ee 0d3e 21e9 6b3a 2ac7 193e 85a8 2ebc
00000080: a981 11be 40a8 e7bd d899 e53b 6800 043e
00000090: 7f5d 883d d608 063d faa1 e23d 7983 213d
000000a0: 2291 6a3b 78ae 67bd 4c29 3c3d 7415 17be
000000b0: 49c9 88bd 0c8b bdbd cab9 64ba 2691 8f3d
000000c0: dae4 b43d 2f6e b1bd 345a e6bd 193a 05be
000000d0: 9332 cb3c 0ebf bebc 9e76 1fbd 7ec1 05be
000000e0: 859e c4bd fbb1 23be d3fb 963d 3ec7 9e3c
000000f0: 0ab7 a93d b4de 0fbe 169a 16be b754 8cbd
00000100: 7e85 a53c c829 0d3e f084 ba3d 484f d6be
00000110: e673 e33d 7317 f43c 3f97 e93d 99fa 39bd
00000120: 1ee9 bebd 900e 0bbe 0238 d6bd 5e08 2abf
00000130: 34f4 5d3d 2226 c6bd f7d0 353e e317 013e
00000140: ce9a 45be c193 193c d27d 9bbd c348 8bbe
00000150: 4f99 343e 0fc4 163e d287 b1bd 40f1 05be
00000160: 0a22 17be a41c 4fbe b330 2c3e 1841 4a3d
00000170: ad11 003e 685f 123e ffe4 303e 19b3 8c3d
00000180: 81a1 11bf b5e7 bebc b4a2 8e3d b4b8 ccbe
00000190: b4d7 933d c1a0 f5bd 285e adbd 0899 82bd
000001a0: 70e1 f7bd 8149 d9bc 1641 9bbd c463 17bf
000001b0: 7d93 1c3e 8d59 033d 870b 80be da4a 17be
000001c0: b127 32be ed23 80bc 51a3 853e 9824 7fbd
000001d0: d6ed c5bd 3b66 f43d c496 18bd a0c7 46be
000001e0: 5cc2 b93d 87ab 45be 6dfd 81be b0ae 243e
000001f0: 3bbe 353e 08bb 0c3c 66a5 a83e d6a0 a73d
00000200: 6416 03be 3812 ef3c ca10 98bd c599 92be
00000210: a780 16be a3f2 ef3d 66b4 6fbe 01e9 213e
00000220: c384 013e 68b7 fb3c f57c 0dbe cef4 35be
00000230: 6b78 963d 6f42 a03d eb9d 0ebd 07d5 21be
00000240: 7607 fcbd 6ed5 383d 07ed 9b3d 5c9a b8bd
00000250: 8cc2 563d 7255 7fbd a6c4 93be 580d d7bd
00000260: ba0c 603e 11cf 4ebe a15c bcbd faf4 813d
00000270: f65d c43d f56d c13d bea1 64be b8c9 fe3d
00000280: 5adb 55bc fe3b f13b b710 64be 15c6 e5be
00000290: 6947 6939 27d8 17bd bdcc d7bc 9efa 233e
000002a0: 2ea6 b83c 0b18 32be eb0a 70bd 72e5 2cbd
000002b0: 68c5 99bd 59ad 223d 7afa 65be 9760 83bd
000002c0: be33 0f3e 58b7 b0bd a9a0 d63d ea14 45be
000002d0: b068 32bd b487 9e3e d64e 8dbe 4a8c 3e3e
000002e0: 8177 e93b 2374 33be f669 513d a8e0 cc3d
000002f0: 729a 303d f2be 35bd 422f 05be 0c20 89bb
00000300: c5ea a2bd 5e69 81b9 c411 14be e705 26bd
00000310: 1238 303e 9c61 fbbb 4d3c c03d 0c0b 3bbe
00000320: 40e2 a23d 664b 2d3e 288d 31be 6abc 30be
00000330: 39ad 02bd 3cf7 2c3e 4d98 4cbe c82f 6a3d
00000340: bbc5 a13d 7b19 4abe 24ce 08be 4ef8 9d3c
00000350: 2162 a3bd 6126 06be 2f3c 12be ab0c 0dbd
00000360: 7867 8bbd f34f 19be cc38 d0bd a3bc 2b3d
00000370: d2a9 6bbd f9d9 51bd c787 05bd 380a c83c
00000380: 53ba 24bd 78bc 03be 6b28 b7bd 13e2 183e
00000390: a5cb c23c 00d4 ffbc f8d1 14bc 4bff cab9
000003a0: b948 63bd eb26 b7bd e68d 363d b277 3c3d
000003b0: 6b93 403d 834e 87bc 4aaa 8e3e 202c 8dbd
000003c0: a3cb b6bd 796e 343d d02e 0cbe 3cdc 0bbd
000003d0: 0770 e43d 2875 e43c 1631 313e 4829 973d
000003e0: 5cb0 8c3e 41de bcbd caf0 9ebd 7bae 86be
000003f0: 37a6 ffbd b30b 99bd cbec 143d bf16 8d3d
-0.20229201 -0.17732045 0.020067004 -0.08360533 -0.065413654 -0.11559501 -0.103967674 0.19411327
0.23139921 -0.2271312 -0.053414587 0.19868404 0.124084756 0.0023938112 0.1512941 0.21081093
0.08581316 0.15565024 -0.053818133 0.093913496 -0.062097225 0.19434993 -0.04798564 -0.14772768
0.1296986 -0.13312335 -0.086638205 -0.2969077 0.1386062 0.00089992775 0.15017381 -0.010660295
-0.14209618 -0.11311388 0.007006865 0.1289078 0.06658458 0.03272327 0.11066051 0.039432023
0.0035792072 -0.05656287 0.04593782 -0.14754277 -0.06679017 -0.09255037 -0.00087251945 0.07010107
0.088327125 -0.08663594 -0.11247674 -0.13010444 0.02480439 -0.023284461 -0.03893148 -0.13062093
-0.09600548 -0.15985863 0.073722504 0.019382115 0.08286865 -0.14049798 -0.14707217 -0.068520956
0.020205256 0.1378547 0.09107387 -0.41857362 0.1110609 0.029796338 0.11405801 -0.045405004
-0.09321807 -0.13579774 -0.104599014 -0.6641902 0.05418797 -0.09675242 0.17755495 0.12606768
-0.19297335 0.009373606 -0.07592358 -0.2720395 0.17636608 0.14723228 -0.08668484 -0.13080311
-0.14759079 -0.2022577 0.16815452 0.049378484 0.12506743 0.14294207 0.17274855 0.06870098
-0.5688706 -0.023303846 0.06964627 -0.39984667 0.072188765 -0.11993552 -0.084652245 -0.06376845
-0.12103546 -0.026524307 -0.075807735 -0.59136605 0.15290637 0.032067824 -0.25008795 -0.14774647
-0.17397954 -0.01564213 0.26101163 -0.062290758 -0.09664504 0.119335614 -0.037253156 -0.19412088
0.09070274 -0.19303714 -0.2538866 0.16082263 0.17748348 0.008589514 0.3293869 0.08184974
-0.1280151 0.029183492 -0.07425077 -0.28632942 -0.14697514 0.11716201 -0.2340866 0.1581154
0.12648301 0.030727103 -0.13817199 -0.17769167 0.07347187 0.07825171 -0.03481857 -0.1580392
-0.123061106 0.045125417 0.07613569 -0.09013817 0.052431628 -0.062337346 -0.28860968 -0.10500592
0.21879855 -0.20196177 -0.09197355 0.06345554 0.09588234 0.09444801 -0.22327325 0.124408185
-0.013052786 0.007361888 -0.22272001 -0.44877687 0.00022247214 -0.037071373 -0.026342744 0.16013572
0.022540178 -0.17391984 -0.058604162 -0.042211004 -0.075083554 0.0397161 -0.2245883 -0.064149074
0.13984582 -0.0862872 0.10479862 -0.1924626 -0.04355687 0.30962908 -0.2759921 0.18608204
0.0071248417 -0.17524771 0.051126443 0.10003787 0.04311604 -0.044371553 -0.13006309 -0.0041847285
-0.07954935 -0.00024683302 -0.14459902 -0.040532973 0.17208889 -0.007671548 0.093865015 -0.18265933
0.0795331 0.16923293 -0.17339003 -0.17259374 -0.03190348 0.16891187 -0.19979973 0.057174474
0.07899042 -0.19736283 -0.13359886 0.01928344 -0.07977701 -0.13100578 -0.1428077 -0.03443591
-0.068068445 -0.14971904 -0.10167083 0.041927945 -0.057535 -0.051233266 -0.03260019 0.024418935
-0.040216755 -0.12864864 -0.08943256 0.1492999 0.023778746 -0.03122902 -0.009083264 -0.0003871865
-0.055489276 -0.0894297 0.04456892 0.046012588 0.04701559 -0.01651693 0.27864295 -0.06893182
-0.08925559 0.044050667 -0.13689733 -0.03414558 0.1115418 0.027887896 0.17303881 0.07380921
0.27478302 -0.09222079 -0.077607706 -0.26304993 -0.12482875 -0.074729346 0.036358636 0.06889104

model.clf.0.bias f4 [64]
00000000: f4e7 f5bd a83c 64be 0eb5 f6bc e2a7 29bd
00000010: eaf2 7bbd 022b 73bd 4488 1ebe d5f4 09bd
00000020: cc3a 7ebd d2bd 993e c295 493c 0f0f 1dbe
00000030: 4a8b 64bd 34b7 69be b024 303e 1d2f ff3d
00000040: 1f1f 303e 2442 8cbd a61b a2be 6052 1dbd
00000050: 24a9 a5bd da14 6ebe 1149 1abe 2fbd fbbc
00000060: 171b 29bd e9ea 89bd 77c2 98be 8f9f 05be
00000070: 8845 87be 38a7 88be 8b3c 20be e20e 2fbe
00000080: ba08 723e b2da 1ebe 7ea0 c13d b1b1 ed3d
00000090: 0874 b1bc abb1 18bd ead0 c5bd 577f 93bd
000000a0: 737f d3bc 90ae 05be 4991 b9bd 0b2a fa3d
000000b0: b9d7 bb3d 7e00 d4bd e99f bcbd f4af 88be
000000c0: 87de dbbd d9bf a4bc 9320 0cbd 4dad a7bc
000000d0: 261d 31bd e48d 923b e3e0 a0bd 0040 d4bd
000000e0: 0522 173e d844 97be b133 4dbe 3ba4 18be
000000f0: 6123 dabd 8fbf 2fbe 1ca7 3abe 88a6 00bd
-0.12007132 -0.22288764 -0.03011563 -0.04141987 -0.061510958 -0.059367187 -0.15481669 -0.033680756
-0.06206779 0.30027634 0.012303771 -0.15337776 -0.0557969 -0.22823793 0.17201495 0.12460158
0.17199372 -0.06848553 -0.3166172 -0.038408637 -0.08088902 -0.23250142 -0.15066935 -0.030729858
-0.0412856 -0.06734259 -0.29835865 -0.13049148 -0.26420236 -0.26690078 -0.15648095 -0.17095521
0.23636141 -0.15513113 0.094544396 0.116061576 -0.021661773 -0.037278812 -0.09658988 -0.072020225
-0.025817608 -0.13054872 -0.09060914 0.1221505 0.09172005 -0.103516564 -0.09210188 -0.26696742
-0.10735803 -0.020111011 -0.034210753 -0.020468378 -0.04324069 0.004472481 -0.07855394 -0.103637695
0.14759071 -0.2954471 -0.2003925 -0.14906399 -0.10651279 -0.17162918 -0.1822781 -0.031408817

model.clf.3.weight f4 [5, 32]
00000000: 7f38 6b3f 7d7e c73e 5e22 f3bc b976 823f
00000010: 5f76 583e 6b61 a73e 492f a7bd 50c5 a23e
00000020: 073b 4ebe de4b ec3e 759a 033e 52f0 f13e
00000030: 4a7a 783e c95a 453e 3a18 d93e c8e4 c9bd
00000040: a9fe 993d eb48 ed3e b1a1 453f 4d22 b93e
00000050: 1bd6 483d d778 0a3f cee5 f73e a943 923e
00000060: 7ae2 7d3f a41b ef3e 6594 183f 2959 663f
00000070: 3e74 17be ebbd 033e f36f 373f 1fec 313f
00000080: 7b5f b43e e718 0a3f a0f7 a73e f14e 1b3e
00000090: ddf0 9ebd 9844 f63e 5b0d 533e 1267 843f
000000a0: 75ba b33e 2bc5 d03e 24a4 2a3e fef1 c43e
000000b0: 4b98 a83e 7bf4 6b3e c809 c53c 23a9 833e
000000c0: 7e77 fc3e 002f 3d3f e7f3 793f 5d63 873e
000000d0: 5f88 e73e 7239 0b3f 296c 753e e922 753e
000000e0: 705b 15be 4968 e63e c0ff b53e ac27 983e
000000f0: ff72 093f 56e3 a93d 4936 d73e bc4c fb3e
00000100: 3bef 413f 2310 083e 5d09 9b3e 10c4 803f
00000110: 90f7 883f f696 4e3f fea5 dabc 439c 87bd
00000120: 971f d13e c641 173e 8a2e ce3d 2429 2d3f
00000130: e39d ce3d 4f66 873e 675d f83e dc98 013e
00000140: dd7d 3f3f a7f8 613e fed3 133f 9aa8 ff3e
00000150: 4493 9e3e c45d 4d3f a361 043d 1d5a 823e
00000160: 6060 a73e 0af6 693e 395f ec3e fff1 863f
00000170: 5d45 fd3e e6b1 86bc 6ad1 5b3f da4b 3a3f
00000180: 1d89 303f 7e57 223f 1719 c53e e9a1 b43e
00000190: 11ad e23e 29cb 8d3e f38f 47bd 1a7f 733f
000001a0: 1206 ad3e 7f9c 853f 6187 043e c502 ef3e
000001b0: a20f 513f 9dfe 793e 522f 09be de3e a2bd
000001c0: c28a e33c 4edb 893f 1118 9d3f f167 cebd
000001d0: c353 c8be 00af 043f 2054 a3bc 01b1 4b3e
000001e0: 17db 5dbe fa6f 673f 8f4a a53f 361a 0fbe
000001f0: ec17 d73e 42b6 1e3c f9bd 5bbb a29e 2b3e
00000200: c17f ec3e bc4a 443e 6484 013e 40fd 513f
00000210: f26f e83e 919a d03e 454c 02bc 5ba2 f03d
00000220: 0ac0 dbbc 8a79 873e 41d6 d73d e265 e63e
00000230: b51b fc3d cd3d ea3d 70e5 4f3e e3a2 d0bd
00000240: 7d00 a23e 9bcd 0d3f 0e90 4e3f 3068 b33d
00000250: 38a1 313d 71c0 0f3f ef12 543e 861d df3d
00000260: e20f d73e b8c5 a23e e417 b83e 12cd 273f
00000270: 07ee 1c3e a8ad 603d 55e4 173f 05d0 033f
0.9188308 0.3896369 -0.029679473 1.0192481 0.21138905 0.32691512 -0.08163316 0.31791162
-0.20139705 0.46151632 0.1285189 0.47253662 0.242654 0.19272913 0.42401296 -0.0985809
0.07519276 0.46344694 0.77199847 0.36158982 0.049032312 0.54090637 0.48417515 0.28567246
0.991737 0.46700776 0.5960143 0.899798 -0.14790437 0.12865417 0.71655196 0.6950092
0.35229096 0.5394425 0.3280611 0.15166833 -0.07760785 0.48099208 0.20610563 1.0343955
0.35103193 0.40775427 0.16664177 0.38465875 0.3292869 0.2304248 0.024052516 0.2571498
0.49309915 0.7389984 0.9763779 0.26442996 0.4522123 0.5438453 0.23967041 0.23939098
-0.14585662 0.45001438 0.35546684 0.29717767 0.53691095 0.08295314 0.42033604 0.4908198
0.7575566 0.13287406 0.3028058 1.0059834 1.070055 0.806991 -0.02669048 -0.066216014
0.40844414 0.14771184 0.1006747 0.676409 0.10088708 0.26445243 0.4850876 0.12655967
0.7480143 0.2206751 0.5774535 0.4993332 0.3097173 0.802212 0.032319676 0.25459376
0.32690716 0.22847763 0.461664 1.0542601 0.49466982 -0.01644225 0.85866416 0.7277199
0.6895922 0.6341475 0.38495705 0.35279778 0.44272664 0.2769406 -0.048721265 0.95115817
0.33793694 1.0438384 0.12942268 0.466818 0.8166448 0.24413534 -0.13396958 -0.07922147
0.027776126 1.0770051 1.227297 -0.10078419 -0.39126405 0.5182953 -0.019937575 0.1989174
-0.21665607 0.9040524 1.2913378 -0.13974842 0.42010438 0.009687008 -0.003352998 0.16759732
0.46191218 0.19169134 0.1264816 0.82027054 0.45397907 0.40742925 -0.007952754 0.11749717
-0.02682497 0.26459914 0.105389126 0.44999605 0.12309972 0.11437569 0.20302367 -0.10187318
0.31640998 0.55391854 0.8068856 0.087601066 0.04336664 0.5615302 0.20710348 0.10894303
0.42004305 0.31791472 0.35955727 0.6554729 0.15325175 0.05485311 0.5933278 0.5148929

model.clf.3.bias f4 [5]
00000000: d0ed 1441 5f77 1541 c702 0d41 a0aa e440
00000010: 4437 c1c0
9.30806 9.341643 8.813178 7.1458282 -6.0379963
