notebooks/assets/policy/SimpleNN_scenario_1.pth (torch, 22144 bytes, 6 tensors)

model.model.0.weight f4 [64, 4]
00000000: f65e 853e b0bc ffbd 5ec9 a0be b075 ec3d
00000010: 5d3f ccbe a40c 99bf e8ce 6e3e ef90 c8bd
00000020: e4a4 18be d0f6 48be a880 d23d e40a e2be
00000030: 013f c93b e685 6bbd cff4 7dbe a33a 6fbe
00000040: 4f0d 11bf ff57 d1be d8a9 073c 8c1d ab3d
00000050: 1d8a 69be a0e0 07bf 0afa d03d c21e 4cbe
00000060: cc59 553e 085d 8abe 2cf6 053e 0cae 50be
00000070: 5861 393e 0edf aa3e 38ae 9abd d825 b9bd
00000080: b2a3 a13e 471c 14bc e80f 14be 1b32 07be
00000090: 0e2b a0be ac7f 76bc 1699 cebe 3649 c33d
000000a0: f895 a93c 4f33 b1be 7c21 643e 699d c6be
000000b0: 5e95 d0be d819 e0be 0096 d0be d84e 87bd
000000c0: 7cdc 15be 6060 7cbd 784c 99bd eef9 8cbe
000000d0: 2f51 8f3e c1ad 14bf fb16 113e 965e ee3d
000000e0: e947 263e bd9a 98bd 23c0 9c3e e6d1 d0be
000000f0: 6497 20bd 2828 a9be acf6 e2be b5e8 283e
00000100: af07 3a3e 01f1 f3bd 8df9 d2be 6db1 b13e
00000110: af25 11bc c674 cabe cb7b 9fbd 81e7 553d
00000120: c2de fb3e fb76 73bf 5765 e63e f740 b03e
00000130: 5dca 843d c949 75be b60f 7a3e 20f8 babe
00000140: 3d39 b33e 68ca dc3a 8319 62be dd26 253e
00000150: a7f0 883d 16f7 f23d 416c 72be 8323 5f3e
00000160: e3ed 04bf 8be3 b33e 3678 32bf e8a9 0fbd
00000170: 9f8b 643e 5ae3 3d3e 3c98 09bf be1f a6bd
00000180: fbd3 f5be 160d a33d 7245 e7be e84b 3a3e
00000190: c1da cfbe 36e4 39bf 807d 163f a925 a43d
000001a0: af9f b93e ea6d 303e 8426 08bf 1d72 8cbd
000001b0: 513f 903e 5f7a ddbd 4520 82be 15b8 a1be
000001c0: 7083 053e adfb 68bd a068 a5be 89bf e03d
000001d0: b25e a8be 8dba 19bf 6806 92bd 13d0 09be
000001e0: 3820 883e 302c 22bd 7878 f8be 5a57 a1be
000001f0: 0824 80be 0ef9 b9be 3474 fdbe 245f a13e
00000200: 1c75 43bf 6e38 8a3e a7ab e0bd e85f a4be
00000210: 4edc 1cbe 4eaf d7bd a53d 8e3d c759 87bd
00000220: f74f 783e ff6f eebe 8d89 fabe eb00 043e
00000230: f36b a13e a4a5 1bbe eadb a8be f2e9 443e
00000240: 9287 4dbf 6d82 edbc 26fe 5bbe 8292 ea3b
00000250: 9604 25bf 41b1 9dbb ec3b fc39 0369 c13d
00000260: 7e63 5c3e 3cc9 0e3c 9ae3 93bd 9001 92bd
00000270: caf7 04bf 50f7 ffbe 095d 6f3e 4bcc 8e3d
00000280: 3efc 533e 2fd8 0bbc cfbd dc3d ae62 58be
00000290: 13bc 2ebf 9a1f 3cbe 32e0 93be 118b 7bbb
000002a0: c40e 423e 3226 a23e 1e7d cfbe aaf6 afbe
000002b0: 2061 60be 2053 bebe 24d4 07be 000d 3bbe
000002c0: 48f1 6dbe 8856 c5bd 36d3 803e 08f5 5abe
000002d0: bc74 c7bf d16b 69bd 0827 9b3e 052e 483f
000002e0: 34f7 47be 30f8 063d b854 6d3e b66f 87be
000002f0: c689 aebe 3da2 983e 90d7 063e a557 02bf
00000300: 02ec f4be 7e1b eebe c2a2 90be 10b0 34bd
00000310: bcac a73e 2343 afbc 93cd a3be decd 733e
00000320: 3d5e 6a3e d93f 07bf 99b2 fabe 69ba 12be
00000330: 8526 bd3d ee3b 2fbe 89bc 19be 57a1 ae3d
00000340: 270a 143e 7fa1 67be da99 d9be cc29 533e
00000350: a8de a53e dbf1 843e dd9b 1ebf 9314 c1be
00000360: 1176 123e a83b babe 7d91 7fbc bcba debe
00000370: 4259 aabe 34a4 73be 34f0 1bbe 7047 913d
00000380: b82c a2be 80e4 87bb 205b 373e 24ce d3be
00000390: e04e 653d 6e2c f5be acbe f4be 1470 4dbe
000003a0: b834 493e c89a 9ebd 042f e0be 64d2 313e
000003b0: 3af2 9dbe 20d1 edbe e8da 9cbd 542a d5be
000003c0: ea51 ddbe 08ba 6a3e 6eba d5be 0412 ddbe
000003d0: 6222 23bd a770 233e e4e1 5e3e 9a02 10bf
000003e0: 6bb8 71bf afb1 fd3d 3add f53e fd34 db3d
000003f0: 0905 c6be a554 943e d982 a5be 0c56 9f3e
0.26049012 -0.12487161 -0.3140363 0.115458846 -0.39892092 -1.1956983 0.23321116 -0.09793269
-0.14906651 -0.19625401 0.102784455 -0.44148934 0.006141544 -0.057500742 -0.24800418 -0.23362212
-0.5666093 -0.40887448 0.00828024 0.08355245 -0.22806592 -0.53077126 0.10203941 -0.19933608
0.20835036 -0.27024102 0.13082188 -0.20378894 0.1810354 0.33373302 -0.07552761 -0.09040421
0.31570202 -0.009039945 -0.14459193 -0.13202707 -0.31282848 -0.015045088 -0.4035117 0.09535448
0.020701393 -0.34609458 0.22278398 -0.3879197 -0.40738958 -0.43769717 -0.4073944 -0.06606835
-0.1463489 -0.061615348 -0.074852884 -0.2753443 0.27991626 -0.5807763 0.14168923 0.116391346
0.16238369 -0.07451389 0.3061534 -0.4078514 -0.039206877 -0.3303845 -0.4432882 0.1649502
0.18166994 -0.11911202 -0.41206017 0.34705678 -0.008859082 -0.39542216 -0.077872835 0.052222732
0.49193388 -0.95103425 0.4499919 0.34424564 0.0648391 -0.23953928 0.24420056 -0.3651743
0.35004607 0.001684499 -0.22080044 0.16128106 0.06686526 0.11863534 -0.23674108 0.2179089
-0.51925486 0.3513454 -0.6971468 -0.035074145 0.22318886 0.18543759 -0.53747916 -0.08111523
-0.4801329 0.0796148 -0.4517017 0.18193018 -0.40596583 -0.7261385 0.5878525 0.080149956
0.3625464 0.17229429 -0.5318377 -0.06857703 0.28173307 -0.10814356 -0.25415245 -0.31585756
0.1303842 -0.05688064 -0.32306385 0.109740324 -0.32884747 -0.6005028 -0.07130128 -0.1345828
0.2658708 -0.03959292 -0.4852941 -0.31511956 -0.2502749 -0.36322826 -0.49502718 0.315179
-0.7635057 0.26996177 -0.1097024 -0.3210442 -0.15318415 -0.105314836 0.069453515 -0.066089205
0.24249254 -0.4656982 -0.48933068 0.12890975 0.3152767 -0.15199906 -0.3298028 0.19229868
-0.8028499 -0.028992856 -0.21483669 0.0071585784 -0.6446012 -0.00481239 0.0004810983 0.094438575
0.21522328 0.00871497 -0.07221146 -0.07129204 -0.51940596 -0.49993372 0.23375334 0.069725595
0.20701692 -0.008535429 0.107783906 -0.21131393 -0.6825573 -0.1837143 -0.28881985 -0.003838245
0.18950945 0.31669766 -0.40525144 -0.34367877 -0.2191205 -0.37172794 -0.13264519 -0.18266678
-0.23236573 -0.09635645 0.2516114 -0.21382535 -1.55825 -0.056987587 0.30303216 0.7819522
-0.19527894 0.032951534 0.23176849 -0.26452416 -0.34089488 0.29811278 0.13168168 -0.50914985
-0.4783631 -0.4650535 -0.28249174 -0.04411322 0.32748973 -0.021394318 -0.31992778 0.23809001
0.22887512 -0.528318 -0.48964384 -0.14328922 0.09235863 -0.17112705 -0.15013327 0.08526867
0.14456998 -0.226202 -0.42500192 0.20621413 0.32396436 0.2596577 -0.6195658 -0.3771101
0.14302851 -0.3637364 -0.015598652 -0.43501842 -0.33271223 -0.23793107 -0.15228349 0.07093704
-0.31674743 -0.0041471124 0.17905855 -0.4136821 0.055983424 -0.4788546 -0.4780172 -0.20062286
0.19649017 -0.07744366 -0.4378587 0.17365414 -0.30848867 -0.46448612 -0.076589406 -0.41633856
-0.43226558 0.22922528 -0.41743797 -0.43177807 -0.039827712 0.15960942 0.21765858 -0.5625397
-0.94422024 0.12387406 0.48020345 0.10703466 -0.38675717 0.2897083 -0.3232639 0.31120336

model.model.0.bias f4 [64]
00000000: a693 a7be 0b8a 4d3e fe1c 81be c11b ce3e
00000010: 458e 173e 776c ec3c f835 72be dceb e0be
00000020: fb81 95be 353a 2f3e 5497 23bd 5877 bebe
00000030: 9a72 8f3e 85be 09bf 6794 3dbe 983b 583e
00000040: c363 72be 1c6b f8bd 6bcb ae3e 006d 003d
00000050: 7b8e 0cbf 2045 a6be deba 833e de60 9cbd
00000060: 98ee 89bc b2ad 5a3e 4c1c a9bc 5c74 af3d
00000070: 8905 4fbe 53ff 873d 2050 e13c 44d3 44be
00000080: 3796 fc3d e09c 23bd 527e a73d cac5 42be
00000090: 1031 4a3e ae95 42be 6f35 60be 7170 f1bd
000000a0: 4ad0 36be 8272 7b3e a604 6e3e 72f2 c1be
000000b0: aa98 86be f7ed 6f3e ce12 b7be 9af4 eb3b
000000c0: a0b0 89bd abd5 86be 8b2a 8b3e c6f5 afbd
000000d0: 3bcb 103c 67d3 a03e a372 0e3e fe88 debe
000000e0: 3c86 30be e499 433e c0f1 f6be 705a 413e
000000f0: 804a ba3d 122e e4bd aa0d f03d 2bba 8ebe
-0.32729834 0.2007219 -0.25217432 0.4025555 0.14800365 0.028860314 -0.236534 -0.43929946
-0.2920073 0.17112048 -0.03993924 -0.37200427 0.28017122 -0.53806335 -0.18513642 0.21116483
-0.23670869 -0.121298045 0.3413957 0.03135395 -0.5490491 -0.32474613 0.25728506 -0.076356634
-0.016837403 0.21355322 -0.020643376 0.08567116 -0.20216955 0.06640496 0.027504027 -0.19221216
0.12333339 -0.03994453 0.081783906 -0.19020763 0.19745278 -0.19002411 -0.21895383 -0.117890246
-0.17852893 0.245554 0.2324396 -0.37880284 -0.26288348 0.2343062 -0.35756534 0.0072007896
-0.06723142 -0.2633489 0.27180895 -0.085917994 0.008837516 0.31411287 0.13910918 -0.43463892
-0.17238706 0.19101673 -0.48231316 0.18882155 0.09096241 -0.111416 0.11721356 -0.2787641

model.model.2.weight f4 [64, 64]
00000000: 005c efba a71f 833d c00b bfbb 1639 873d
00000010: b534 78bd aea6 89bd c06d 753d 1493 c03d
00000020: c46f 3a3d 2012 503d 8e0e 8abd f454 c83d
00000030: 9086 553c 08d7 373d b82a e93c 7a83 87bd
00000040: daa6 b7bd b0a9 efbc e564 3fbd d077 ca3c
00000050: a045 6abc 2abc 893d eece 893d b0dd 9bbc
00000060: 606c eb3b 2893 90bd 0043 a4bc 08f0 1c3d
00000070: de66 c9bd 3396 cd3d fe2e 9c3d 6c9f dbbd
00000080: c1aa 5b3d 282d 7c3d e6c0 e7bd cab9 a2bd
00000090: 0dff 20bd 6c1b cdbd 3081 283c 6bfe babc
000000a0: da9c f7bd de91 02be c431 d3bd b071 003d
000000b0: 2086 473d f54a dcbc 2e0b e93d 08ca fbbd
000000c0: a8b4 73bd be00 a63d 8cc4 a5bd a05e 803d
000000d0: a2fd 993d 5a9c cb3d c656 d9bd a0fd 1d3c
000000e0: 38fa dc3d 04a8 793d 0033 69bc 02e4 aebd
000000f0: 42a5 a9bd 2021 5ebc cf9f c9bb 5c17 c7bd
00000100: 743d bbbd 9322 32bf 1cd9 1d3d c298 c63d
00000110: 05d0 cebe 4fca 8abe 14e3 4b3d f486 943d
00000120: c0fd dfbb c588 e33d 0471 babd 84bd 8dbd
00000130: c844 143d 3935 ac3d b64a d7bd ee3b edbd
00000140: d4ad a1bd 6394 3cbe 87c9 2abf 1738 b53d
00000150: 7042 a1bd 4657 cebd 99ae 183e 4430 c8bd
00000160: d7e6 2e3d f522 bebe 909b 9cbd 42b9 debd
00000170: d09b 733d 61c0 c9be 08c3 98bd 00f8 ef38
00000180: b871 54be c096 c2bd 1dc0 94bd 6416 73bd
00000190: da23 913e 274a 18bc e8ac b0bc d95e 1d3f
000001a0: 6a1d d4bd 4b99 253e 7ae8 ecbd a4b2 1cbd
000001b0: 18ba dcbc 9885 22bf 688f febd 3f6b f63d
000001c0: 2831 c1bc c05e dfbc 0f8c 75bd 405a f6bd
000001d0: 5e22 a03d 587f 393d 0030 6d3c e0d2 9dbd
000001e0: 8091 dbbd f084 fcbc 9014 e6bd 386b c8bd
000001f0: d224 aa3d dba2 5bbd 66dd f8bd 6db5 083f
00000200: 98dd ebbd 3c14 983e 246f 6e3d b252 7d3d
00000210: cc3b 933e a3bc 013e 0acd f1bd c4f1 743d
00000220: 7a9a 40bd f581 ce3e c8ac 423d 3cc0 353d
00000230: b0c7 943d f05e f73d 5537 48bd 31de c8bd
00000240: 7cb3 733d bfe5 8d3e 17cd 90bc 4787 af3b
00000250: d3c2 20bd 2525 723c 5681 103f 47d5 343c
00000260: 7ef7 2bbe 8635 cabd c659 dfbd 8642 cabd
00000270: 2839 ebbd 790f 603e 10c5 b43d 8c36 c03d
00000280: 6eae d93e 9a78 c7bd e1fe 57be 1465 15be
00000290: 3145 653f eed8 c73e 094e 2bbd a896 0f3f
000002a0: 66e1 b63d e06a db3e 534e f4bb a850 d23d
000002b0: 2a97 b83d ffee 1f3f 3075 08bc eb23 8e3e
000002c0: 3634 903d 80ae 943d a377 13bd 087a c8bd
000002d0: 9eae 12be 2d50 06be 9869 e23d 2c1f f7bd
000002e0: b83b c43c 343f 633d d4fe 4ebd c0f6 cd3b
000002f0: de07 d2bd 3e0e b1bd ea2d 193f ac44 8ebd
00000300: 3881 ba3c 616c dc3d b62c f13d 7b3b 5cbd
00000310: 2e54 6abd 08b9 413e d432 06bd dc53 8b3d
00000320: 8ec5 133e 2639 023e 7674 cb3c 66c1 d23d
00000330: d00d 31bc 4184 893e 35f4 adbd 71cf 063e
00000340: 3526 0abe 6013 e33e 34e0 a63e 647e 81bd
00000350: 1dc5 c23d 4cd1 013e 82f7 4dbf 7193 573d
00000360: 48e8 eebc 24c3 573e 45eb bc3d 25ae fabd
00000370: 0b90 fd3d fd86 613e a4c1 333d b86f 0abd
00000380: ea06 40be adbc 463d 2dc5 6e3e 8e9d e93d
00000390: 4b0f 8dbd fad0 c2bc df81 3c3e 1edc 4139
000003a0: dc89 873c 9749 c13d cd1b 77bd e234 903d
000003b0: 2206 f7bd 583a 13be 5843 e73d 4e04 69be
000003c0: a0ca c93b e2d5 87bd c7b2 4d3d c87b 4cbd
000003d0: 4604 6d3d 14ec 423e 260f fabb c491 783d
000003e0: a025 993d e07d 133d a426 49bd 3a46 8a3d
000003f0: d0fb bc3c 65a9 2c3e abdf dabe 9161 da3d
-0.0018261671 0.064025216 -0.005830258 0.06602685 -0.06059714 -0.06721245 0.05991912 0.09403053
0.045516744 0.050798535 -0.06741057 0.097818285 0.0130325705 0.044882804 0.028462753 -0.06616874
-0.08967371 -0.029255718 -0.04672708 0.024715334 -0.014298826 0.067253426 0.06728922 -0.019026607
0.00718455 -0.07059318 -0.02005148 0.03831485 -0.098340735 0.10038414 0.076261505 -0.10723767
0.05362964 0.0615665 -0.11316089 -0.07945593 -0.039305735 -0.10014996 0.010284707 -0.022826394
-0.12090464 -0.12750956 -0.103122264 0.03135842 0.048711896 -0.026891211 0.113790855 -0.12294394
-0.05949846 0.0810561 -0.08094129 0.06268048 0.0751908 0.09941931 -0.10612254 0.009642988
0.10789913 0.060951248 -0.014233351 -0.08539583 -0.082834736 -0.013557702 -0.006153084 -0.09721252
-0.09142581 -0.69584006 0.03853713 0.09697105 -0.4039308 -0.27107474 0.049777105 0.07252303
-0.0068356693 0.11110071 -0.09103587 -0.06920913 0.036198407 0.08408589 -0.10512297 -0.11583696
-0.07894483 -0.1841598 -0.66713756 0.08848589 -0.07874 -0.1007524 0.14910354 -0.09774831
0.042700615 -0.37136045 -0.07646859 -0.10875179 0.059474766 -0.39404586 -0.07459074 0.00011442602
-0.20746505 -0.095014095 -0.07263205 -0.059347525 0.28347665 -0.009295023 -0.021566823 0.6147285
-0.10357173 0.16171758 -0.11567779 -0.038256302 -0.026944205 -0.634851 -0.12429696 0.12032174
-0.02358301 -0.02726686 -0.059948023 -0.120289326 0.07819055 0.04528746 0.014476776 -0.07706237
-0.10721111 -0.030825108 -0.11234391 -0.09786075 0.08307804 -0.053622108 -0.121516034 0.53401834
-0.11516875 0.29702938 0.05821146 0.061846443 0.2875656 0.12669615 -0.11806686 0.05980088
-0.04702232 0.40333524 0.04752806 0.044372782 0.0726465 0.12078655 -0.048880894 -0.09808005
0.05949734 0.27714345 -0.01767592 0.0053567025 -0.0392483 0.014779364 0.5644735 0.011037177
-0.1679363 -0.0987349 -0.10905795 -0.098759696 -0.11485511 0.21880902 0.08826649 0.09385404
0.42515892 -0.097398 -0.21093322 -0.1458934 0.895587 0.39032692 -0.041822467 0.5608926
0.0892971 0.42854977 -0.007455626 0.1026929 0.09013207 0.62474054 -0.008328721 0.27761778
0.070412084 0.07259846 -0.036002766 -0.097889006 -0.14324424 -0.13116522 0.11055297 -0.120664924
0.023954257 0.055480197 -0.05053599 0.0062855184 -0.10255407 -0.086452946 0.59835684 -0.06946692
0.022766694 0.10762859 0.11776106 -0.053767662 -0.057209186 0.1891824 -0.032763317 0.06803104
0.1443083 0.12717113 0.024835806 0.10290794 -0.010806516 0.26858714 -0.084938444 0.1316507
-0.13491137 0.4435072 0.32592928 -0.06322935 0.095102526 0.12677497 -0.8045579 0.052630845
-0.029163495 0.21070534 0.092245616 -0.12240247 0.1238099 0.2202415 0.043885842 -0.03379795
-0.18752638 0.04851978 0.23317404 0.11407004 -0.068876825 -0.023781288 0.18408917 0.00018487914
0.016545229 0.09437864 -0.060329247 0.070413366 -0.120617166 -0.14377725 0.11292142 -0.22755548
0.006158188 -0.06632592 0.050219323 -0.049922734 0.057865404 0.19035369 -0.0076312004 0.060685888
0.074778795 0.036008716 -0.049109116 0.06751676 0.023069292 0.16861494 -0.4274877 0.106631406

model.model.2.bias f4 [64]
00000000: 624a fcbd 5553 61bd 2278 edbe 4dae fbbe
00000010: 757e 833e e10d 613f 5fd1 d73e 748e dabd
00000020: b2c9 12be 00de debe 2e38 2f3f 7d8d 04be
00000030: 98c4 c13e 7ffe 533f 40d1 ca3e be9a 47be
00000040: 8696 6abd 5761 40be 0a54 73be 97d1 643f
00000050: d9de d5be ea72 98bb 9fde 03be 62ba 0c3e
00000060: 89f2 3a3e 1dac 033f 7604 f73e f9c4 aebe
00000070: 9053 bebe b625 08be 748a 073e f25a 0fbe
00000080: e152 e8be 850c 01bf c3f8 82be 3723 233e
00000090: cb9f 303f 72b6 e1bd 5aa2 433f 50ef 17be
000000a0: c263 903e 41a8 05be d502 90bd c0be 4f3e
000000b0: 6a7b 013f 794b ce3d a167 313f a06a 273f
000000c0: 556f dcbd 3149 6c3f 663b abbe e50b 65be
000000d0: a5f1 9d3e 7871 753f 962a efbd 831b 5cbe
000000e0: 780d 883e 9e84 653f ab12 b5be 1ab2 8a3f
000000f0: e529 f33e 5905 07be b37b 3ebe 0907 e43e
-0.12318875 -0.055011112 -0.46380717 -0.49156418 0.25682417 0.879118 0.42151925 -0.10671702
-0.14334753 -0.43528748 0.684451 -0.12944598 0.37845302 0.82810205 0.3961277 -0.19492623
-0.057272457 -0.18787132 -0.23762527 0.8938231 -0.41771582 -0.0046523707 -0.12877892 0.13742974
0.18256582 0.514345 0.4824559 -0.34134653 -0.37173128 -0.13295636 0.1323641 -0.13999537
-0.45375732 -0.5040973 -0.25580415 0.15931402 0.68993825 -0.11021127 0.76419604 -0.14837384
0.2820111 -0.13052465 -0.0703179 0.20287609 0.5057894 0.10072989 0.6929875 0.6539707
-0.107634224 0.9229918 -0.33443755 -0.22367819 0.30848423 0.95876265 -0.116780445 -0.2149487
0.26572776 0.8965548 -0.35365805 1.0835602 0.474929 -0.13185634 -0.18601875 0.44536617

model.model.4.weight f4 [5, 64]
00000000: ae0a 183e 2ab0 093f 1cba c93f 1a89 873f
00000010: c805 aa3f 159d 913f 4dca 263f 762d 6d3d
00000020: e37d 1fbd 0b07 ba3e 8972 ae3e 05a8 f33e
00000030: 4c3f 693f c7cf c63f 5da7 6c3f 62f1 763f
00000040: 8e10 b03c e932 27bc ce4f 823f 29e2 1c3f
00000050: 4cc8 483f 7ace 7b3f 1244 a0bd b809 263f
00000060: 15e8 a73f ab69 a43f 93fd 2ebf 960a b13f
00000070: 11f4 653f 0d79 cdbd 9130 a33f 63d1 143f
00000080: 7fbb d23f 9fbc c03f a26d ab3f b1d7 3b3f
00000090: 840c bebe 6e58 97bd 4e35 9ebf aaa0 c7bd
000000a0: b4e2 253f 020d c5bc 2348 5dbd 9790 a03e
000000b0: 7415 d03d 4325 383f 36df a93e 3ca9 413f
000000c0: f194 5e3f 3799 9ebd 07ed 6b3f 4402 0640
000000d0: 85d6 dfbe 5e49 943f f4d4 1240 e785 e73e
000000e0: 57e7 c63f 4acf 933f b671 503f 969c 043f
000000f0: b725 943f 1e89 bdbc 4555 da3e 6036 773f
00000100: 10be b83d ad0b 323e 941f 553f eb4b 803f
00000110: e45e f73f 0eeb 1c40 68ff 983f 7cde 9e3d
00000120: ed77 183d 2489 093f 9836 cd3f aba9 853e
00000130: 5fd7 dc3f 29fa b03f b029 dc3f 5e7f f63e
00000140: d194 ea3d de5a 3d3e 700f 943f cea6 e43f
00000150: b8b4 6a3f 51bc 343f c2b0 cf3d c40a 743f
00000160: 3c10 523f 7e57 d33f 50bf 843f 6645 783f
00000170: 290e 9a3f 315a 82bd 22aa b83f 52e3 0f3f
00000180: f979 a73f 712a 853f e7b5 7e3f 936d 64be
00000190: 54d5 ba3f 461c bd3d 335f de3f 88f1 48bd
000001a0: 9b7b 043f 1c0d e33b d4ba ef3d 8f0a ca3f
000001b0: a4a4 be3f f19f 9b3f ee89 0440 a8cf f13f
000001c0: bf86 983f db14 bf3f 1995 893f a3ac 763f
000001d0: 4024 8e3f 1a4f 2a40 6b0e ba3f b643 e33e
000001e0: ef99 f93e 72bb d73f 488e 823f fc99 0740
000001f0: 0e1c 2a40 e461 a23d 7822 d53e 4264 d23f
00000200: 8bec ad3d 2ff0 403f 96d1 b23f fe37 64be
00000210: d3f4 403f 2832 803f 4372 743f 704c d5bc
00000220: 583b a2bd 57b1 193f 0e81 9b3f ac22 da3e
00000230: 3e73 0b40 c3a8 2a3f aed4 9abd 00cf c33e
00000240: c954 85bd 97fa bf3c f85c a83f 0ef0 303f
00000250: 755f 8b3f 5cbf be3f 992e b7bd ac87 ee3e
00000260: 6821 b33e 275f 8c3f e143 7e3f c2d2 e83f
00000270: f1a8 ff3e 12bd 1bbd 7fc0 473f 254f fb3e
00000280: 3823 75bf 7ecb e43f 6e8c e63f 2c93 b53f
00000290: 38a2 763e 500f 32bc a0c1 5d3f ddfd 10bc
000002a0: 3760 fa3e 7327 98bd 9287 5a3d c58d f23d
000002b0: 79c8 a83f bea6 3abf 3ac8 343f 1ceb 243f
000002c0: fdc1 333f ee55 9a3f 205a af3f a32b 0c40
000002d0: 4852 123f 7363 943e ce9b 7f3f 517a f63c
000002e0: 359f ac3e 2fba a83f ccdd 6e40 8582 7b3f
000002f0: 1654 2f40 0231 bb3d 2d26 d23e eeec f23f
00000300: 7078 833d 4c87 6f3f 4d65 8a3f 91e5 be3f
00000310: ce23 ee3f c9e1 813f e4fd 703f 8dab e03d
00000320: 6118 6ebd 1ad6 503f 0893 613f 61e8 14be
00000330: fa3e 8e3f e1e7 1a3f 6872 873f 650a 5a3f
00000340: 6878 993b 6b2c 013e e458 b13f 5c1b 5f3f
00000350: 5ea4 a93e d882 8c3f b63e d5bd 0fb3 7e3f
00000360: 22ea 5f40 5737 343f 4b80 f33e 2a80 af3f
00000370: 2926 c33e e85b 0f3c 56bd 343f b27f 203f
00000380: 43a0 e93f d1c4 b73f 4d64 da3e e15f a53f
00000390: af6f 983f 7a77 b43d 71cf 9c3e bfe7 8b3d
000003a0: a3ce e43f d23b 893d 0bca f03d ba01 843f
000003b0: 5ef7 6f3e 49e2 303f e693 1f3f 333e 513f
000003c0: 4559 843f c7e6 5f3d 70c2 273f 8e42 893f
000003d0: 92d7 603e 65c6 fc3f 964b 9cbd 903d d53e
000003e0: add4 4240 6fb1 a43f 844f 2740 fc73 0cbf
000003f0: 20e2 0b40 440f 1e3d f176 943e b12e 653f
0.14847824 0.5378443 1.5759921 1.0588715 1.3283014 1.1376063 0.65152436 0.057904683
-0.038938414 0.36333498 0.34071758 0.47589126 0.9111221 1.5532159 0.92442876 0.9646207
0.021492269 -0.010205009 1.0180604 0.61282593 0.7843063 0.98361933 -0.078254834 0.6485858
1.3117701 1.2844747 -0.68355674 1.3831356 0.8982554 -0.10032854 1.2749196 0.58132
1.6463469 1.5057563 1.3392832 0.73375994 -0.37118924 -0.073899135 -1.2360017 -0.09747441
0.64799047 -0.024054054 -0.054023873 0.31360313 0.10160342 0.71931857 0.3317811 0.75648856
0.86946017 -0.07744067 0.9215855 2.0938883 -0.43718353 1.158489 2.2942476 0.45219347
1.5539349 1.1547635 0.8142351 0.5180143 1.157401 -0.023136672 0.4264318 0.96567345
0.090206265 0.17387266 0.8325131 1.0023168 1.9325833 2.4518466 1.1952944 0.07757279
0.037223745 0.53724885 1.6032286 0.2610601 1.7253226 1.3826343 1.7200222 0.48144048
0.11454166 0.18491694 1.1567211 1.7863405 0.91682005 0.7059985 0.10141136 0.9532893
0.8205602 1.6511075 1.0370884 0.96980894 1.2035571 -0.06364859 1.442692 0.5620624
1.3084098 1.0403577 0.9949631 -0.22307424 1.4596353 0.09233908 1.7372802 -0.049058467
0.51751107 0.006929053 0.117055565 1.5784472 1.4893994 1.2158185 2.0709186 1.8891497
1.1916121 1.492824 1.0748626 0.9635717 1.1104813 2.661078 1.453565 0.44387597
0.48750255 1.6854079 1.0199671 2.1187735 2.6579623 0.079288274 0.4162786 1.6436846
0.084923826 0.7536649 1.397021 -0.22286984 0.7537357 1.0015306 0.9548685 -0.026037425
-0.07921475 0.60036224 1.2148759 0.42604578 2.1789088 0.6666376 -0.07560097 0.38243866
-0.06510312 0.02343492 1.3153372 0.69116294 1.0888506 1.4902148 -0.08944435 0.46587884
0.34986424 1.0966538 0.99322325 1.8189318 0.4993358 -0.03802211 0.780281 0.4908382
-0.95756865 1.7874601 1.8011606 1.4185538 0.24085319 -0.010867909 0.86623573 -0.008849588
0.4890153 -0.07429399 0.053351946 0.11843447 1.3186179 -0.7291068 0.7061802 0.6442125
0.7021788 1.2057474 1.3699379 2.1901634 0.571568 0.28982124 0.99847114 0.030087622
0.33715215 1.3181819 3.7322874 0.9824603 2.7395072 0.09140207 0.4104475 1.8978555
0.06419456 0.9356582 1.0812165 1.4913808 1.8604677 1.0147029 0.94137406 0.10970221
-0.05812872 0.81576693 0.88114977 -0.1454177 1.1112969 0.6051007 1.0581789 0.8517211
0.004683543 0.126146 1.3855252 0.8715112 0.33133215 1.097743 -0.10412352 0.9949197
3.4986653 0.7039694 0.47558817 1.3710988 0.3811505 0.0087499395 0.70601404 0.6269485
1.8252033 1.4356939 0.42654648 1.2919885 1.1909083 0.08811851 0.30627015 0.068313114
1.787556 0.06700863 0.11757287 1.0313027 0.23434207 0.69095284 0.6233505 0.81735533
1.0339743 0.054663446 0.65531063 1.0723436 0.21957234 1.9748045 -0.076316044 0.4164853
3.0442307 1.2866648 2.6142282 -0.5486448 2.1856766 0.038588777 0.28996995 0.8952437

model.model.4.bias f4 [5]
00000000: f6c8 753f 8c90 ca3f 8822 9c3f ca0c 603f
00000010: b68d 453f
0.9600977 1.5825362 1.2198038 0.87519515 0.7716936
