notebooks/assets/policy/SimpleConv_scenario_2.pth (torch, 44754 bytes, 12 tensors)

model.embeder.0.weight f4 [64, 2, 1, 5]
-0.03907269 0.15913135 0.14964193 -0.12866285 0.14084637 0.09240083 0.03377056 -0.30266604
0.07170785 -0.21801807 -0.21073748 -0.013176716 0.145745 -0.2579014 -0.09920913 0.09552289
0.099461526 -0.035214197 0.098151244 -0.33827204 0.06820052 -0.22462068 -0.13861167 -0.1364776
0.14467064 -0.1718556 -0.19819637 -0.010748679 -0.1714702 -0.14752209 0.10198139 0.06922988
0.015800655 -0.16083394 -0.28951117 0.06622278 -0.12405126 0.08877344 -0.099586226 0.18334052
-0.15428156 0.1895343 -0.4058069 0.2028251 0.09734681 -0.13594423 -0.25436044 -0.09152392
0.20370978 -0.102735914 -0.1361701 -0.23941934 -0.19060698 -0.09191673 -0.05237102 -0.15340391
-0.01150551 -0.23491342 -0.011055377 0.022291383 -0.094566755 0.18678729 -0.19142807 0.23488443
-0.08464212 -0.08018081 -0.34943777 -0.32783327 -0.49193427 0.11840693 0.28674623 0.16804416
-0.23130406 -0.062594935 0.059797894 -0.7024112 -0.33806163 -0.2673237 0.21904309 -0.2710392
-0.5927833 -0.64892775 -0.15475214 -0.05127527 -0.10939418 0.044581234 0.12566218 0.00273526
-0.12631619 -0.14536287 -0.19776517 -0.025137117 -0.2622774 -0.07297931 -0.15296489 0.23384783
0.03716651 -0.18438081 -0.25007564 -0.056283582 0.21974769 0.13913614 0.14805685 -0.059656084
-0.0675955 -0.09914577 -0.22923541 0.3010263 0.11864218 -0.06332118 -0.17857787 -0.03235917
-0.40304902 -0.35263017 0.0840301 -0.13700284 0.16699088 0.021731244 0.013255876 -0.3819582
0.2253741 0.095326886 -0.3702984 -0.21246435 -0.2599111 0.056581825 0.01899596 -0.17599043
-0.105218984 0.018264022 -0.13998108 0.26800472 -0.30116767 -0.27935475 -0.26580483 -0.058833778
0.021601489 0.01629616 -0.18931668 -0.26966044 0.06416527 0.31658155 -0.07942925 0.04594916
0.17556778 0.28277275 -0.034477912 -0.22170228 0.1379085 0.22598508 -0.054793626 -0.24313438
-0.08148459 -0.033579852 0.18170966 -0.02299401 0.0785584 -0.054840017 -0.017025663 -0.30101356
-0.18526867 -0.27455586 -0.10033878 0.25944993 0.18996146 0.2619524 0.17207153 0.45772457
0.36167687 0.36576363 0.30044812 0.50796425 -0.09522546 0.31690627 0.4501963 -0.8591385
-0.5762907 -0.28273618 -0.25651532 -0.18505406 -0.2746162 -0.13256025 0.0973201 -0.33660594
0.17540193 -0.1483239 -0.25850996 -0.31581995 0.0075812996 -0.043463763 0.36944005 -0.006484825
0.14049186 0.04708068 0.4168654 0.33591104 0.22149907 0.25334206 0.42408803 0.06613171
-0.10818424 0.04634825 -0.037953563 -0.033402164 0.16476458 -0.28463754 0.105816506 -0.2343288
-0.01574436 -0.48864627 -0.11129904 -0.044206984 0.17422111 -0.13179336 -0.050489537 -0.25848615
-0.11864181 -0.25044027 -0.10178342 -0.377343 0.28610873 -0.2731242 -0.059059132 -0.0067025023
-0.1305499 -0.24502283 -0.12684286 -0.09751564 -0.10882332 -0.09065285 0.1619337 0.1483271
-0.1767579 -0.15075338 -0.2826622 -0.10995888 0.036550988 0.013950069 0.1209185 -0.27995023
-0.14041133 0.42566153 0.11630338 0.18891107 0.23174588 -0.9478401 -0.6862368 -0.06663768
0.10276243 0.011614357 -0.7257042 -0.28105095 -0.23646913 -0.45140246 -0.54661584 0.01668413
00000000: af0a 20bd 54f3 223e bc3b 193e 32c0 03be
00000010: 083a 103e a53c bd3d 0053 0a3d 0bf7 9abe
00000020: 91db 923d 2140 5fbe 91cb 57be 27e3 57bc
00000030: 2d3e 153e a70b 84be 282e cbbd 81a1 c33d
00000040: 7cb2 cb3d c33c 10bd 8503 c93d fe31 adbe
00000050: b7ac 8b3d f702 66be 38f0 0dbe c9c0 0bbe
00000060: 8a24 143e eafa 2fbe fdf3 4abe 3a1b 30bc
00000070: e295 2fbe 0810 17be 9edb d03d 65c8 8d3d
00000080: 6070 813c a7b1 24be cf3a 94be cf9f 873d
00000090: 960e febd d9ce b53d ddf3 cbbd 9ebd 3b3e
000000a0: fcfb 1dbe 4815 423e ecc5 cfbe 62b1 4f3e
000000b0: c45d c73d f734 0bbe 883b 82be e570 bbbd
000000c0: 4c99 503e 3567 d2bd 2d70 0bbe 582a 75be
000000d0: 7a2e 43be d73e bcbd ff82 56bd ea15 1dbe
000000e0: 9b81 3cbc 258d 70be 9d21 35bc 6b9c b63c
000000f0: 37ac c1bd 2b45 3f3e b805 44be 8b85 703e
00000100: d958 adbd d635 a4bd 82e9 b2be c3d9 a7be
00000110: cfde fbbe 557f f23d 67d0 923e c513 2c3e
00000120: f9da 6cbe c631 80bd a3ee 743d 38d1 33bf
00000130: 6a16 adbe a7de 88be d54c 603e a6c5 8abe
00000140: a5c0 17bf 2120 26bf 5877 1ebe 0406 52bd
00000150: 0e0a e0bd d09a 363d 96ad 003e 0c42 333b
00000160: 0859 01be 01da 14be f482 4abe 5bec cdbc
00000170: 3949 86be 2d76 95bd d4a2 1cbe ce75 6f3e
00000180: e93b 183d 53ce 3cbe ea09 80be 9d89 66bd
00000190: 8a05 613e b479 0e3e 379c 173e f059 74bd
000001a0: 826f 8abd f00c cbbd b0bc 6abe 1f20 9a3e
000001b0: acfa f23d 89ae 81bd 1edd 36be 0d8b 04bd
000001c0: 715c cebe f18b b4be f917 ac3d 794a 0cbe
000001d0: a8ff 2a3e b905 b23c 2c2f 593c 0690 c3be
000001e0: 78c8 663e be3a c33d c097 bdbe 4190 59be
000001f0: 1113 85be 58c2 673d 6a9d 9b3c d636 34be
00000200: 0d7d d7bd 6e9e 953c 3357 0fbe ea37 893e
00000210: a632 9abe 9607 8fbe 9217 88be b0fb 70bd
00000220: 9bf5 b03c 867f 853c 3bdc 41be ef10 8abe
00000230: 1569 833d fa16 a23e cdab a2bd 3035 3c3d
00000240: 0ac8 333e 97c7 903e b638 0dbd ec05 63be
00000250: e337 0d3e a268 673e 486f 60bd 38f8 78be
00000260: 65e1 a6bd 078b 09bd 1912 3a3e ef5d bcbc
00000270: 3ae3 a03d ed9f 60bd 6779 8bbc 731e 9abe
00000280: 12b7 3dbe 9692 8cbe 6b7e cdbd 9fd6 843e
00000290: 4285 423e a01e 863e 8533 303e e05a ea3e
000002a0: b62d b93e 5f45 bb3e 56d4 993e f209 023f
000002b0: 9105 c3bd 8a41 a23e 2180 e63e 80f0 5bbf
000002c0: ca87 13bf ccc2 90be fa55 83be d07e 3dbe
000002d0: 7f9a 8cbe e0bd 07be c34f c73d 9d57 acbe
000002e0: 909c 333e 38e2 17be 6b5b 84be 27b3 a1be
000002f0: 8d6c f83b 0f07 32bd 3f27 bd3e a87e d4bb
00000300: 19dd 0f3e acd7 403d 626f d53e 88fc ab3e
00000310: a7d0 623e 0db6 813e 1122 d93e 1070 873d
00000320: b38f ddbd aad7 3d3d 3275 1bbd b5d0 08bd
00000330: 0cb8 283e 03bc 91be 53b6 d83d e4f3 6fbe
00000340: 51fa 80bc d82f fabe c0f0 e3bd 6212 35bd
00000350: 0567 323e d7f4 06be 1ece 4ebd 4c58 84be
00000360: 7afa f2bd b539 80be d373 d0bd 1a33 c1be
00000370: d87c 923e efd6 8bbe fde7 71bd aaa0 dbbb
00000380: dfae 05be 44e7 7abe 18e3 01be 48b6 c7bd
00000390: c3de debd 34a8 b9bd f3d1 253e 0fe3 173e
000003a0: 0600 35be 185f 1abe 1ab9 90be 1f32 e1bd
000003b0: 7db6 153d d58e 643c 1ea4 f73d a355 8fbe
000003c0: fdc7 0fbe 4ff0 d93e 7730 ee3d e771 413e
000003d0: cb4e 6d3e a6a5 72bf 37ad 2fbf 5679 88bd
000003e0: 1c75 d23d 254a 3e3c c0c7 39bf e9e5 8fbe
000003f0: f724 72be 391e e7be 04ef 0bbf 28ad 883c

model.embeder.0.bias f4 [64]
-0.33142865 -0.16352312 0.22581758 -0.17402053 -0.2676847 0.0067846305 -0.1647667 0.23750527
-0.03550506 0.06670716 0.41401696 0.17210053 -0.09678801 -0.30980423 0.35518938 0.013340652
0.49168918 0.03552696 0.0021086722 0.38081065 -0.219537 0.0071339933 -0.07677652 -0.04923669
0.26782602 -0.031581476 0.15996942 -0.124454856 -0.26960394 -0.17416683 -0.31588766 -0.110001
-0.17401278 0.26548228 -0.013646232 0.21988721 0.014967683 0.38305137 -0.05371788 -0.14150499
-0.2724326 -0.06406931 0.054935295 0.25393224 0.13248056 0.13202243 0.08604817 0.36434156
-0.11251604 -0.0425664 0.12579401 0.16479322 -0.36048216 0.020221177 -0.058194455 0.2609433
-0.2065523 -0.2555879 0.1385481 0.28041258 -0.039352633 -0.1489672 0.18159248 -0.12868628
00000000: 04b1 a9be 9b72 27be b93c 673e 7032 32be
00000010: f80d 89be 9b51 de3b 9ab8 28be 9534 733e
00000020: c16d 11bd c39d 883d 08fa d33e 1f3b 303e
00000030: cb38 c6bd a99e 9ebe 62db b53e c092 5a3c
00000040: afbe fb3e b884 113d a631 0a3b 9df9 c23e
00000050: 4fce 60be 46c4 e93b 023d 9dbd 69ac 49bd
00000060: 7e20 893e 945b 01bd 06cf 233e 30e2 febd
00000070: 8709 8abe ca58 32be 07bc a1be 3448 e1bd
00000080: 6830 32be 4bed 873e 7294 5fbc 1d2a 613e
00000090: 033b 753c 4f1f c43e 4807 5cbd afe6 10be
000000a0: 497c 8bbe c536 83bd d503 613d 6803 823e
000000b0: fca8 073e e330 073e 063a b03d fa8a ba3e
000000c0: cf6e e6bd 1b5a 2ebd 25d0 003e 8ebf 283e
000000d0: 1e91 b8be e2a6 a53c 4f5d 6ebd 5c9a 853e
000000e0: 7282 53be 6bdc 82be 8edf 0d3e 3d92 8f3e
000000f0: 3a30 21bd dc8a 18be 61f3 393e 56c6 03be

model.embeder.2.weight f4 [32, 64, 3, 1]
0.085409425 0.046793707 -0.004790636 -0.04669161 -0.03459152 -0.09468224 -0.034612413 0.055298787
0.040919263 -0.03435829 0.007288382 -0.011429511 -0.0797206 -0.008354036 -0.06285997 -0.05904665
0.014794385 0.03679916 0.011616386 -0.086985745 -0.051930293 -0.03710034 -0.0807274 -0.07228588
-0.064742915 -0.0715517 -0.0471725 -0.06555371 -0.013192719 0.0011561214 -0.07531384 -0.004456107
-0.07100016 -0.025839143 -0.0039701164 -0.075279325 0.0059042335 -0.0070244977 -0.03057652 -0.03956883
-0.06195104 0.040947147 -0.011353165 -0.063043244 0.029414754 0.023456035 -0.0588853 0.052557714
0.039186332 -0.04441775 -0.00796168 -0.18307692 -0.1459635 -0.19248769 0.012781319 0.02345453
-0.042598486 0.0069781793 -0.038092177 -0.017093144 -0.044532157 0.0061207633 0.017040404 0.03650184
0.04022713 -0.0055163167 -0.03419051 0.04126659 -0.030715536 -0.0014458606 -0.007415175 -0.010446508
-0.021761708 -0.13465239 -0.07994971 -0.026310097 0.012454312 -0.07653291 0.016527642 0.030675296
0.030174948 0.044585563 -0.005919734 0.0050827297 -0.053591356 -6.28635e-05 -0.041004617 0.0057174983
-0.0046431306 0.032002665 0.01874184 0.010890201 0.033928636 0.022138603 -0.007100179 -0.00399916
-0.037659805 -0.011747392 -0.014437631 -0.11370605 -0.20372018 -0.1512234 0.08785136 0.00011259306
-0.051296137 -0.08715793 -0.15479457 -0.04515696 0.04690927 0.009508557 -0.008929946 -0.088140994
-0.06338758 -0.10936027 -0.01123703 0.031379145 -0.03836261 0.038097892 -0.06582561 -0.03607928
0.07930923 0.028400665 0.029174594 0.008579242 -0.07337563 -0.058195017 0.014167594 -0.03566322
-0.051459525 -0.0580179 -0.07691332 0.010941426 0.05516545 -0.011655425 0.01549073 -0.016918309
-0.065187566 0.04508659 -0.17533748 -0.1088166 -0.10862661 -0.11787112 -0.0068886145 -0.005062766
0.014998003 -0.06855599 -0.10364964 0.013727737 0.015886277 0.06945071 0.1344513 0.06503157
0.038005903 -0.044837296 0.023902453 -0.091019385 -0.040794685 0.046963368 0.014636813 0.04245251
-0.012156907 0.08321473 -0.07990395 0.0045629498 0.030339058 0.051838413 0.06229991 -0.0003698339
-0.008108498 -0.040525746 -0.027305137 -0.044669334 -0.029052839 -0.047343917 -0.1014803 -0.07957228
-0.07610848 -0.04601181 -0.059659135 0.045518693 0.038082417 0.02272453 -0.013158202 -0.03892358
0.008190297 -0.00042453298 0.010009647 0.06136981 0.042463742 -0.069687374 -0.05450415 -0.027247602
0.028299011 -0.052430246 -0.09558952 0.068904616 0.071919195 -0.027784863 -0.08006737 0.026072491
0.026435524 -0.037529107 0.05026362 -0.018473133 0.0056127324 -0.065435365 -0.044052165 -0.09773738
-0.06163125 -0.030631764 -0.11031991 -0.06658585 -0.09228329 0.013836817 -0.032985225 -0.0109710945
-0.11088516 -0.021320539 -0.054076973 -0.041325126 0.009615139 0.012043209 -0.013655753 -0.041768223
0.015969407 0.055137243 -0.056991346 0.054881144 -0.07075101 -0.1095816 0.030148527 -0.009963844
0.0061079115 -0.0053473725 -0.068805434 7.156777e-05 -0.034008473 -0.03401603 0.07341321 0.039762262
-0.044361025 0.022399474 0.029961454 -0.037959896 -0.04955517 0.030431313 0.02098712 0.06346575
0.060830228 -0.028767144 -0.053105474 -0.0007326783 -0.09909441 -0.10305817 -0.045328468 0.03184344
00000000: 23eb ae3d c2aa 3f3d c4fa 9cbb b43f 3fbd
00000010: d6af 0dbd c3e8 c1bd bfc5 0dbd fb80 623d
00000020: f59a 273d 47bb 0cbd 61d3 ee3b d842 3bbc
00000030: 8e44 a3bd 5edf 08bc babc 80bd e6da 71bd
00000040: 2664 723c b7ba 163d a752 3e3c 9525 b2bd
00000050: dcb4 54bd 87f6 17bd 6854 a5bd 9f0a 94bd
00000060: ef97 84bd b389 92bd f437 41bd 0641 86bd
00000070: 4626 58bc ff88 973a 243e 9abd 8904 92bb
00000080: 8868 91bd 9cac d3bc c017 82bb 0c2c 9abd
00000090: 4d78 c13b c22d e6bb 9c7b fabc ed12 22bd
000000a0: 60c0 7dbd 32b8 273d a002 3abc d11c 81bd
000000b0: 36f7 f03c df26 c03c b631 71bd c246 573d
000000c0: d981 203d 63ef 35bd b571 02bc 8478 3bbe
000000d0: 7577 15be 7e1b 45be bd68 513c b723 c03c
000000e0: c07b 2ebd 36a9 e43b 8b06 1cbd ec06 8cbc
000000f0: 5a67 36bd af90 c83b 5198 8b3c f482 153d
00000100: 34c5 243d 38c2 b4bb 590b 0cbd 2807 293d
00000110: 269f fbbc 0883 bdba fffa f2bb d527 2bbc
00000120: 9c45 b2bc 51e2 09be acbc a3bd 4688 d7bc
00000130: 2c0d 4c3c 49bd 9cbd fa64 873c c24a fb3c
00000140: 7431 f73c 5a9f 363d 54fa c1bb 078d a63b
00000150: 9c82 5bbd 96d5 83b8 75f4 27bd da59 bb3b
00000160: 6725 98bb 3a15 033d 7d88 993c d06c 323c
00000170: c1f8 0a3d 045c b53c 9ea8 e8bb 630b 83bb
00000180: 2b41 1abd 2278 40bc d08b 6cbc b8de e8bd
00000190: 069c 50be 4fda 1abe 6aeb b33d f01f ec38
000001a0: e61b 52bd db7f b2bd 7882 1ebe 81f6 38bd
000001b0: ef23 403d c7c9 1b3c e94e 12bc 4483 b4bd
000001c0: 59d1 81bd 47f8 dfbd 851b 38bc 6b87 003d
000001d0: 1d22 1dbd 890c 1c3d 94cf 86bd dec7 13bd
000001e0: e16c a23d 83a8 e83c 8fff ee3c f38f 0c3c
000001f0: f645 96bd e65d 6ebd 321f 683c 9913 12bd
00000200: 39c7 52bd 2da4 6dbd bb84 9dbd ab43 333c
00000210: 2bf5 613d 65f6 3ebc d5cc 7d3c 4498 8abc
00000220: 0f81 85bd b7ac 383d ab8b 33be 3ddb debd
00000230: a177 debd 6a66 f1bd e3b9 e1bb 8fe5 a5bb
00000240: 2fba 753c 1567 8cbd 4346 d4bd 4dea 603c
00000250: f023 823c 2d3c 8e3d 9aad 093e 462f 853d
00000260: 14ac 1b3d 50a7 37bd 14cf c33c 5f68 babd
00000270: 5418 27bd a95c 403d 3ecf 6f3c afe2 2d3d
00000280: c32d 47bc 7c6c aa3d afa4 a3bd cc84 953b
00000290: 9e89 f83c 8454 543d 312e 7f3d 44e6 c1b9
000002a0: 81d9 04bc 53fe 25bd 06af dfbc 31f7 36bd
000002b0: 3800 eebc b2eb 41bd e7d4 cfbd cbf6 a2bd
000002c0: c3de 9bbd e176 3cbd 235d 74bd cf71 3a3d
000002d0: 4ffc 1b3d cb28 ba3c 8095 57bc 556e 1fbd
000002e0: 9830 063c da93 deb9 81ff 233c e95e 7b3d
000002f0: 76ee 2d3d 41b8 8ebd be3f 5fbd 5d36 dfbc
00000300: 54d3 e73c 19c1 56bd 70c4 c3bd dd1d 8d3d
00000310: 5f4a 933d 159d e3bc 5cfa a3bd fa95 d53c
00000320: 508f d83c 1fb8 19bd 3ae1 4d3d f854 97bc
00000330: 03eb b73b fa02 86bd 0b70 34bd 892a c8bd
00000340: 0d71 7cbd 77ef fabc 68ef e1bd 2a5e 88bd
00000350: 06ff bcbd d1b3 623c 841b 07bd 1bc0 33bc
00000360: c217 e3bd 69a8 aebc d17f 5dbd 8944 29bd
00000370: d188 1d3c e150 453c 61bc 5fbc 2815 2bbd
00000380: 46d2 823c 97d7 613d c26f 69bd 0dcb 603d
00000390: e8e5 90bd 516c e0bd 0bfa f63c 643f 23bc
000003a0: e024 c83b 0339 afbb dde9 8cbd a716 9638
000003b0: 784c 0bbd 6554 0bbd aa59 963d c1dd 223d
000003c0: e8b3 35bd 1a7f b73c b971 f53c d67b 1bbd
000003d0: 5dfa 4abd 174b f93c 2eed ab3c 55fa 813d
000003e0: 1e29 793d 13a9 ebbc 2085 59bd 3511 40ba
000003f0: 03f2 cabd 2910 d3bd 58aa 39bd 446e 023d

model.embeder.2.bias f4 [32]
-0.06627256 -0.039016694 -0.30445808 0.0060845553 -0.17410964 -0.05741797 -0.059181195 -0.0970179
-0.017059585 -0.12396933 -0.04921555 0.1275637 -0.08094754 -0.094306834 -0.0843555 -0.036265936
-0.107529834 0.030388221 -0.031202272 -0.035709478 -0.061052006 -0.10130614 -0.079985194 -0.0900102
-0.21133766 -0.0542139 -0.0007910062 -0.1539684 -0.11903536 -0.28287014 -0.039352074 -0.0076634013
00000000: e8b9 87bd f8cf 1fbd eee1 9bbe f360 c73b
00000010: cc49 32be 1b2f 6bbd fb67 72bd 52b1 c6bd
00000020: 8bc0 8bbc a2e3 fdbd 3f96 49bd 0fa0 023e
00000030: d3c7 a5bd f123 c1bd 94c2 acbd 978b 14bd
00000040: 9a38 dcbd b8f0 f83c e89b ffbc 1a44 12bd
00000050: ab11 7abd 9879 cfbd 47cf a3bd 4557 b8bd
00000060: e668 58be 650f 5ebd 875b 4fba e4a9 1dbe
00000070: d0c8 f3bd 5bd4 90be a42f 21bd 451d fbbb

model.embeder.4.weight f4 [16, 32, 1, 1]
-0.110657625 0.11693646 0.026273014 0.06473129 -0.19322821 0.10541863 0.0032160354 0.02051765
0.13175236 -0.22039697 0.11756747 0.036477186 -0.013624949 -0.061215796 -0.06499356 0.015591805
-0.21130347 -0.0993795 -0.014036164 -0.04488341 0.119481415 -0.08912841 -0.0219858 0.09872102
-0.09378985 0.01178341 0.14292511 0.23702501 0.0954554 0.119918704 0.086760856 -0.035108585
0.019943161 -0.17469451 -0.025345782 -0.13182467 -0.3634171 -0.20767845 -0.14121799 -0.008757362
-0.11989727 -0.22868067 -0.16257645 -0.015317457 -0.007958271 -0.14499003 -0.11096372 0.09739884
0.08642725 -0.1295969 -0.09190499 -0.024289615 0.0026114187 -0.18947585 0.07559387 -0.00034629958
0.115986206 -0.06940389 0.14099298 -0.15148395 -0.13903864 -0.15826839 0.07835265 0.09958413
-0.18600482 -0.061569385 -0.08490524 0.154802 -0.11853073 0.19245084 -0.06349157 0.13084331
-0.12649472 -0.036550697 0.11983117 -0.081853524 0.071328424 -0.08787127 -0.016382627 -0.020896133
-0.0045922343 -0.2016581 0.06616913 -0.09621731 0.04302765 -0.08209008 0.022683447 0.06656277
-0.024923576 0.11260373 -0.15325874 -0.10919092 -0.11445637 -0.0540583 -0.11876668 -0.13188846
0.08751786 -0.10691821 -0.0009566403 -0.15550153 -0.1826488 0.047128584 0.14126854 -0.18137598
-0.1292736 0.07453704 0.09708967 0.2022741 -0.08082948 0.060689144 0.03377463 0.108750686
-0.06455252 0.24934757 -0.07110138 -0.0008123903 -0.10395635 0.07577263 0.055570748 -0.019597651
-0.15459844 0.10288541 0.114409 -0.18385789 0.14015397 0.0752693 0.0866235 -0.145938
0.06269547 -0.004987113 0.081225894 -0.07126487 0.058839187 -0.0487901 0.03368674 0.05901988
-0.11164665 -0.009440142 0.10448127 0.3219395 -0.1234434 0.153723 -0.14411543 -0.09524819
-0.12165458 0.49879858 -0.061199713 0.044682264 0.073871695 0.11355201 0.060502138 0.052050155
-0.016858751 -0.1276612 -0.034771267 -0.09139737 0.007992672 0.1676229 -0.018666469 -0.12226534
0.022669984 -0.14200556 -0.20547853 -0.11512428 -0.13047428 0.10487695 0.13037066 -0.0060908874
0.20973475 -0.4098873 0.07125942 0.36102518 -0.18583244 0.16551216 0.1557334 -0.097516954
0.13308658 -0.025544312 0.00032870972 0.046654653 -0.13396004 -0.15471749 -0.07969162 -0.036230814
-0.028823337 0.16808148 -0.0443512 0.587131 -0.11028311 -0.36361292 -0.04881239 0.009726054
0.15624686 0.11044298 0.35656887 -0.12765996 -0.08185937 0.0759513 0.037237488 -0.09278099
-0.06699684 -0.10421257 0.15155299 1.2935658 -0.116418116 -0.117813684 -0.052480165 -0.12231138
-0.026559835 0.11398479 0.05384213 -8.7736946e-05 -0.008978036 -0.07125753 -0.04588622 -0.016515955
-0.08235576 -0.1148269 -0.16386954 0.48766294 -0.121147946 -0.5307587 -0.06315844 -0.08623989
-0.22148642 -0.02713861 0.08994126 -0.056275904 -0.39642859 0.10469599 -0.08537474 0.041189045
0.08233606 0.14111567 -0.100265905 0.48553395 0.077523455 0.053676225 0.14484778 -0.028020963
0.048756164 0.05657307 -0.14048637 -0.03172395 0.022210231 0.1834957 -0.10522918 0.13653725
0.14796363 -0.07200302 -0.081648424 0.5544194 0.020197427 0.28672758 -0.11961622 0.093675576
00000000: 77a0 e2bd 627c ef3d 813a d73c d791 843d
00000010: 9edd 45be b9e5 d73d 1fc4 523b a114 a83c
00000020: 17ea 063e beaf 61be 37c7 f03d 1a69 153d
00000030: 2e3b 5fbc 6abd 7abd 581b 85bd c574 7f3c
00000040: f05f 58be 7b87 cbbd f0f7 65bc abd7 37bd
00000050: acb2 f43d f588 b6bd 901b b4bc 3f2e ca3d
00000060: e514 c0bd 340f 413c f65a 123e afb6 723e
00000070: 1f7e c33d f097 f53d adaf b13d 05ce 0fbd
00000080: d75f a33c 1ee3 32be f5a1 cfbc 0cfd 06be
00000090: ce11 babe a9a9 54be 739b 10be 0a7b 0fbc
000000a0: b38c f5bd 442b 6abe 717a 26be 12f6 7abc
000000b0: 6863 02bc 4478 14be f240 e3bd 0b79 c73d
000000c0: c500 b13d 0db5 04be af38 bcbd 04fb c6bc
000000d0: 5624 2b3b f505 42be f5d0 9a3d 8b8f b5b9
000000e0: 2d8a ed3d a023 8ebd 7760 103e 9c1e 1bbe
000000f0: 2560 0ebe 1c11 22be 5b77 a03d c4f2 cb3d
00000100: 0c78 3ebe 2e30 7cbd cce2 adbd 6a84 1e3e
00000110: 3dc0 f2bd d511 453e de07 82bd cafb 053e
00000120: d587 01be 2fb6 15bd 0b6a f53d d2a2 a7bd
00000130: a314 923d daf5 b3bd dc34 86bc 5e2e abbc
00000140: 747a 96bb 767f 4ebe ae83 873d 950d c5bd
00000150: c33d 303d d81e a8bd a3d2 b93c 1052 883d
00000160: 872c ccbc c99c e63d dcef 1cbe 7d9f dfbd
00000170: 1a68 eabd 3c6c 5dbd f23b f3bd c50d 07be
00000180: 903c b33d eff7 dabd 0bc7 7aba cb3b 1fbe
00000190: 4908 3bbe e709 413d b3a8 103e a0ba 39be
000001a0: 4c60 04be e0a6 983d f3d6 c63d f120 4f3e
000001b0: ed89 a5bd 2e95 783d 4457 0a3d aeb8 de3d
000001c0: 1d34 84bd f854 7f3e 9a9d 91bd 97f6 54ba
000001d0: 11e7 d4bd ae2e 9b3d 279e 633d 418b a0bc
000001e0: 0e4f 1ebe 96b5 d23d 444f ea3d 3e45 3cbe
000001f0: 8684 0f3e ca26 9a3d a967 b13d c570 15be
00000200: 7c66 803d f06a a3bb c359 a63d 51f3 91bd
00000210: 5c01 713d 21d8 47bd 1bfb 093d d4be 713d
00000220: 00a7 e4bd d3aa 1abc 47fa d53d 41d5 a43e
00000230: e5cf fcbd 9069 1d3e ff92 13be 7c11 c3bd
00000240: 0926 f9bd 8762 ff3e 8dac 7abd c004 373d
00000250: 0b4a 973d f58d e83d 17d1 773d 8b32 553d
00000260: 5d1b 8abc 9eb9 02be 516c 0ebd 8b2e bbbd
00000270: b2f3 023c 56a5 2b3e 6cea 98bc 4066 fabd
00000280: 67b6 b93c e869 11be f768 52be 47c6 ebbd
00000290: 0d9b 05be bac9 d63d e37f 053e 1196 c7bb
000002a0: b5c4 563e c0dc d1be 75f0 913d 4bd8 b83e
000002b0: dc4a 3ebe 057c 293e 9478 1f3e f8b6 c7bd
000002c0: d947 083e 4e42 d1bc ac56 ac39 f318 3f3d
000002d0: d22c 09be 436e 1ebe 5c35 a3bd c366 14bd
000002e0: eb1e ecbc 8d1d 2c3e 9ba9 35bd 384e 163f
000002f0: 1cdc e1bd 792b babe 80ef 47bd 075a 1f3c
00000300: 2dff 1f3e ee2f e23d 3290 b63e 4bb9 02be
00000310: e3a5 a7bd 5b8c 9b3d 5686 183d f603 bebd
00000320: a435 89bd 666d d5bd b530 1b3e 9093 a53f
00000330: 9f6c eebd 4d48 f1bd 71f5 56bd 647e fabd
00000340: 0394 d9bc dc70 e93d 9189 5c3d 6aff b7b8
00000350: 9d18 13bc 78ef 91bd 30f3 3bbd 784c 87bc
00000360: 23aa a8bd 5e2a ebbd 6bcd 27be f5ae f93e
00000370: 6a1c f8bd cddf 07bf 3659 81bd 8a9e b0bd
00000380: 56cd 62be ca51 debc 2033 b83d 9081 66bd
00000390: b0f8 cabe da6a d63d f4d8 aebd d8b5 283d
000003a0: cf9f a83d a080 103e 3658 cdbd e897 f83e
000003b0: 9ec4 9e3d 9adb 5b3d fa52 143e 388c e5bc
000003c0: 8bb4 473d 2ab9 673d a9db 0fbe f9f0 01bd
000003d0: 3bf2 b53c 4ce6 3b3e 6582 d7bd 6cd0 0b3e
000003e0: c783 173e 5276 93bd 4a37 a7bd 6eee 0d3f
000003f0: 1375 a53c f5cd 923e 59f9 f4bd fbd8 bf3d

model.embeder.4.bias f4 [16]
-0.38519382 -0.034500513 -0.025168981 0.44222447 0.5658503 0.039190866 -0.37752858 0.06778812
-0.2240051 -0.2655662 -0.056316413 0.079932466 -0.37508696 -0.35974517 -0.19325556 -0.07436546
00000000: 2038 c5be 6950 0dbd 2e2f cebc 3f6b e23e
00000010: 91db 103f 9a86 203d 6d4b c1be 7fd4 8a3d
00000020: 9861 65be 4bf8 87be 0aac 66bd a2b3 a33d
00000030: 660b c0be 8530 b8be c9e4 45be eb4c 98bd

model.embeder.7.weight f4 [16, 16]
-0.17726266 -0.062290378 0.2116743 -0.11440812 -0.03844067 0.023327075 -0.34734905 -0.42653236
0.18010342 -0.33648658 -0.02278718 0.018357405 -0.2003945 -0.052757803 -0.031368077 0.14083104
-0.27415884 -0.016484603 0.043024343 0.41863313 0.30178806 -0.24548386 0.12397879 0.042044453
0.17460138 -0.061279748 0.15405278 -0.07480236 0.06968669 -0.009782332 0.19356331 0.03803468
-0.034518246 -0.21812244 -0.17937016 -0.16975473 -0.3956047 -0.036137816 0.22132443 0.007990124
0.14893344 0.13147841 0.12443069 0.032543547 -0.020236116 0.031899784 -0.018322024 -0.29493335
-0.11627802 -0.055724442 0.18863663 -0.06871104 0.06574719 0.028018832 -0.20469943 -0.09808357
-0.22974794 -0.18698989 -0.24568269 -0.17122844 -0.032624003 0.021737775 0.14904675 0.12233499
-0.075100295 -0.0026812553 -0.17209 -0.00053695554 0.28146234 0.022335054 -0.27486354 0.20230943
-0.1319554 -0.120611235 -0.20937724 -0.042604886 0.2054947 0.089637004 0.12087971 0.039308786
-0.04120682 -0.072934374 0.13045761 -0.15319504 -0.32377794 -0.4443066 -0.1073699 -0.21427691
0.19106029 0.042430457 -0.30354267 -0.30237594 0.25804186 0.1023604 -0.0764569 -0.31022012
-0.22863013 0.17280008 0.0005302386 0.9486153 0.45528618 -0.06088401 0.12183138 -0.2939066
-0.041506816 -0.15299475 0.08947656 0.19402114 0.63453996 -0.065674454 -0.0086582005 -0.19372708
-0.027298946 0.036099546 -0.3012296 0.13477169 -0.22025022 0.24351078 -0.026205583 -0.010148225
0.021795819 -0.003895981 -0.046203315 -0.2562741 -0.13778268 0.0040635094 -0.10431254 0.42670104
0.13447483 -0.17355458 0.061948635 0.14990443 -0.156216 0.17271471 -0.24801837 -0.026438475
0.16455193 -0.12384921 0.14556046 -0.15964977 -0.007902284 -0.13005663 -0.09909788 0.07614292
-0.23923923 -0.057630006 -0.08370955 0.05279652 -0.09193919 -0.39466375 -0.16797315 -0.35966682
-0.029357454 0.103750795 -0.08201002 0.018640997 -0.34871015 0.15132289 0.16003326 -0.2596244
-0.13665518 -0.1598978 -0.15896055 0.9542902 0.3494005 0.24397853 0.16913816 0.62375206
-0.14215179 -0.2218818 0.09565124 0.27052996 -0.0142048765 -0.25393638 -0.038854033 -0.21041745
-0.159191 -0.24951383 0.10323114 0.47573036 0.44992548 0.47236484 0.9733499 0.33318847
-0.21101955 -0.11149625 -0.32397088 0.4247246 -0.045123298 -0.22554933 0.22019884 -0.0789817
0.10030303 -0.12220825 0.08939489 -0.073501185 -0.092947975 0.096610844 0.0489503 -0.23408265
-0.16728571 -0.39342856 -0.07842195 0.07165029 0.28321964 -0.43677104 0.1707061 -0.29218343
-0.12593551 -0.2094579 0.08387208 -0.16390061 0.1198009 0.07108803 -0.21793179 0.13141073
0.085461706 0.04148957 0.026616441 -0.21450053 -0.012060523 -0.17381407 -0.12064469 -0.060784966
0.22205415 0.21271634 -0.1769689 0.18947616 -0.14043169 0.030688416 -0.21734837 0.068659194
-0.042510517 -0.13460734 -0.23151791 -0.012192473 -0.19414413 -0.164792 -0.09819344 -0.24314594
-0.15167645 -0.20634204 -0.14296722 0.56634176 0.58771014 0.27142695 0.036687892 0.2861087
-0.071933314 -0.44471225 0.21022044 0.26448053 0.04347953 -0.15674609 -0.030532986 0.15520564
00000000: 5884 35be 3224 7fbd 26c1 583e ce4e eabd
00000010: f773 1dbd 6c18 bf3c bcd7 b1be 7362 dabe
00000020: 086d 383e f847 acbe 2eac babc 4562 963c
00000030: 3734 4dbe 9118 58bd d07b 00bd 0336 103e
00000040: 8c5e 8cbe b80a 87bc 4b3a 303d 1557 d63e
00000050: f783 9a3e 1f60 7bbe 98e8 fd3d ce36 2c3d
00000060: b4ca 323e 7900 7bbd 03c0 1d3e fb31 99bd
00000070: e5b7 8e3d 1346 20bc 7635 463e 41ca 1b3d
00000080: 0163 0dbd 7d5b 5fbe d0ac 37be 2fd4 2dbe
00000090: b38c cabe 3f05 14bd dfa2 623e 02e9 023c
000000a0: 0282 183e 47a2 063e 85d5 fe3d 624c 053d
000000b0: 36c6 a5bc 59a9 023d 1218 96bc 8101 97be
000000c0: 2c23 eebd 503f 64bd f629 413e 60b8 8cbd
000000d0: 76a6 863d c087 e53c ba9c 51be 0ae0 c8bd
000000e0: 0b43 6bbe 477a 3fbe 3e94 7bbe 8256 2fbe
000000f0: bfa0 05bd 6b13 b23c b69f 183e c48a fa3d
00000100: 2fce 99bd 00b8 2fbb 5c38 30be 7ac2 0cba
00000110: d51b 903e 01f8 b63c eaba 8cbe 342a 4f3e
00000120: 511f 07be 0603 f7bd fd66 56be 7682 2ebd
00000130: 346d 523e 9b93 b73d c88f f73d 4002 213d
00000140: 7cc8 28bd 9e5e 95bd ae96 053e 29df 1cbe
00000150: 39c6 a5be 287c e3be c0e4 dbbd 686b 5bbe
00000160: 4fa5 433e 8fcb 2d3d f269 9bbe 05d1 9abe
00000170: 101e 843e 54a2 d13d 6f95 9cbd 2cd5 9ebe
00000180: 041e 6abe 81f2 303e b6ff 0a3a 74d8 723f
00000190: 451b e93e 8361 79bd bb82 f93d ed7a 96be
000001a0: 0d03 2abd a8aa 1cbe 7d3f b73d 7aad 463e
000001b0: 3671 223f 5480 86bd 20db 0dbc 6460 46be
000001c0: 0aa2 dfbc 1edd 133d c43a 9abe 9701 0a3e
000001d0: 4689 61be e45a 793e 17ad d6bc be44 26bc
000001e0: 258d b23c b753 7fbb b03f 3dbd 5c36 83be
000001f0: e716 0dbe 3027 853b d0a1 d5bd 8f78 da3e
00000200: c5b3 093e 4bb8 31be dabd 7d3d 8c80 193e
00000210: 16f7 1fbe 20dc 303e 87f8 7dbe 8095 d8bc
00000220: 4d80 283e a8a4 fdbd cd0d 153e 3b7b 23be
00000230: 9578 01bc 912d 05be d4f3 cabd d2f0 9b3d
00000240: 21fb 74be 710d 6cbd ea6f abbd 2a41 583d
00000250: 9d4a bcbd 5e11 cabe 2701 2cbe 4026 b8be
00000260: 0b7f f0bc 4c7b d43d dff4 a7bd 01b5 983c
00000270: 238a b2be 63f4 1a3e c2df 233e 7ded 84be
00000280: 56ef 0bbe 40bc 23be 8ec6 22be 5d4c 743f
00000290: 9fe4 b23e 82d5 793e 8e32 2d3e 37ae 1f3f
000002a0: 3d90 11be fc34 63be cce4 c33d e782 8a3e
000002b0: 92bb 68bc f303 82be 6825 1fbd ac77 57be
000002c0: f702 23be 8e80 7fbe d96a d33d ee92 f33e
000002d0: a25c e63e ced9 f13e 762d 793f ae97 aa3e
000002e0: 8215 58be 2558 e4bd 83df a5be 8175 d93e
000002f0: 35d3 38bd 67f6 66be ce7b 613e 28c1 a1bd
00000300: ad6b cd3d 5248 fabd ab14 b73d ca87 96bd
00000310: 825b bebd e8db c53d 1c80 483d 5db3 6fbe
00000320: f24c 2bbe 786f c9be b09b a0bd 63bd 923d
00000330: 2a02 913e 74a0 dfbe 94cd 2e3e 1199 95be
00000340: 3df5 00be 227c 56be 20c5 ab3d 90d5 27be
00000350: 2d5a f53d 9a96 913d 8329 5fbe 8990 063e
00000360: 8c06 af3d f8f0 293d b90a da3c 07a6 5bbe
00000370: 8099 45bc 51fc 31be 9014 f7bd a8f9 78bd
00000380: 2a62 633e 50d2 593e 5637 35be 0a06 423e
00000390: 53cd 0fbe 4666 fb3c 9290 5ebe 319d 8c3d
000003a0: 821f 2ebd 82d6 09be 0813 6dbe f0c2 47bc
000003b0: b8cd 46be 3cbf 28be a419 c9bd 40fb 78be
000003c0: 1251 1bbe 544b 53be 0066 12be c6fb 103f
000003d0: 2c74 163f 79f8 8a3e 0b46 163d d77c 923e
000003e0: c651 93bd 53b1 e3be 0744 573e fe69 873e
000003f0: 9717 323d 0c82 20be 5020 fabc 3aee 1e3e

model.embeder.7.bias f4 [16]
-0.06421842 0.21494873 -0.19771038 -0.1835759 -0.2647044 -0.19938076 0.2647869 -0.43510148
-0.12963003 -0.02548349 0.110256225 0.0009797787 -0.09094814 -0.30283868 -0.13131599 0.101551965
00000000: f284 83bd 851b 5c3e 9774 4abe 52fb 3bbe
00000010: 5687 87be 782a 4cbe 2692 873e 9fc5 debe
00000020: bcbd 04be c1c2 d0bc 04ce e13d eb6b 803a
00000030: 0543 babd ac0d 9bbe b377 06be 7afa cf3d

model.clf.0.weight f4 [64, 32]
-0.22400743 -0.23241733 -0.16321881 0.039033227 -0.048463143 -0.26997465 -0.09762394 -0.02085012
-0.041465193 0.018660445 0.06291898 -0.16238205 0.02916566 0.07575358 0.040387508 0.10307869
-0.04685584 -0.10539488 0.1287184 -0.06012501 -0.021981794 -0.39350158 0.06582855 -0.021417871
0.06598774 -0.009366527 -0.10320566 0.10309741 0.0648438 0.099829935 -0.19127493 0.16120584
0.044651315 -0.2937459 -0.52128804 -0.1590764 -0.14781754 0.07902029 0.011521856 0.37201676
-0.2576722 -0.11983698 -0.1216113 0.11303455 0.0400806 0.05098171 -0.034656297 0.05934358
-0.035043187 -0.08476247 -0.37464878 0.15874164 -0.062641926 -0.2603015 0.014537625 0.25423133
-0.09497301 0.1312704 -0.14774418 -0.15599208 0.04388689 0.086718045 0.16565713 -0.07865472
0.08102731 -0.1366679 -0.07048197 0.001569949 0.023361089 0.022335973 -0.15669012 -0.24340545
-0.06473766 -0.010154306 0.114494495 0.24578601 -0.19269949 0.14728773 0.11620478 -0.07000634
-0.003712878 0.07782767 -0.32040116 0.044553306 0.11708461 0.03477076 -0.048533175 0.18632452
0.11582298 -0.003743827 -0.12743305 0.22294234 -0.03784383 0.14028566 -0.06945754 0.05510065
0.03954765 -0.096190885 -0.07107627 0.1252308 0.29474825 -0.15148401 -0.20822531 -0.29677486
-0.13398746 0.20704418 0.6423389 0.16751666 0.12360911 -0.0027105242 -0.016318427 0.44424468
0.07637833 -0.25140297 -0.043218195 0.028092472 0.10442644 0.09514083 0.040254172 -0.2081098
-0.11113477 0.22860816 0.38853705 0.22616342 0.053172655 0.16808136 -0.20178275 0.5313436
0.2749704 0.62119406 0.18223535 0.05665085 0.25318635 0.27709156 0.36989173 -0.2905761
0.27966833 0.16126326 0.7248017 0.1595574 0.24028526 0.11536416 -0.083846584 0.6721384
0.25678897 0.6180212 -0.3238985 -0.11234961 0.39449227 -0.22101966 0.3903771 -0.057348613
0.11039668 0.14444397 0.65315443 0.31785694 0.3842647 -0.14008026 -0.14073645 0.69613206
0.2658093 0.5473165 0.24604626 -0.11841118 0.247723 1.0473822 0.24191096 -0.22192694
0.32409808 -0.108403035 0.65401655 -0.015150881 0.25660834 -0.052568134 -0.04864525 0.56269413
0.25511518 0.39724126 -0.24374354 -0.016532114 0.3392857 -0.20198007 0.55168146 -0.61745834
0.23533557 0.036470465 0.7827635 0.28776613 0.19566627 -0.15927291 0.05723122 0.7218231
0.1890298 -0.17956193 -0.26139414 -0.034508705 0.10457204 -0.1993868 -0.4429966 0.11642467
0.06856115 0.28302178 0.19191645 -0.0072844303 -0.065604724 -0.093264766 -0.039157093 0.028511103
0.10648603 -0.088035725 -0.5424033 0.06133743 0.15100081 -0.12786472 -0.1728263 -0.1632978
-0.11300272 0.10152396 0.16857694 0.02692168 -0.07017421 0.1783425 -0.12354686 0.0644295
-0.10842983 -0.084257424 0.045533057 0.041276094 0.010962079 -0.23741908 0.033854954 -0.029413015
-0.11772617 -0.13116182 0.003982785 0.036093973 -0.23191416 0.07111712 0.043155044 0.10554492
-0.18247256 -0.22094075 -0.27785918 0.058730662 0.060604658 0.13862398 0.023626588 -0.26097903
0.05405938 0.07397605 0.0032379145 0.15781628 0.033356093 -0.079569794 0.15857479 -0.25681555
00000000: 3462 65be cffe 6dbe d522 27be 4ee1 1f3d
00000010: 4a81 46bd 1e3a 8abe 0fef c7bd dfcd aabc
00000020: 68d7 29bd cadd 983c abdb 803d 7b47 26be
00000030: d2ec ee3c b124 9b3d 5f6d 253d ec1a d33d
00000040: e9eb 3fbd 45d9 d7bd c2ce 033e a445 76bd
00000050: 2a13 b4bc 0a79 c9be 1ed1 863d 8874 afbc
00000060: 9524 873d 1076 19bc 7d5d d3bd bc24 d33d
00000070: d4cc 843d a373 cc3d 93dd 43be 2513 253e
00000080: 4ce4 363d dd65 96be 2273 05bf ece4 22be
00000090: 7b5d 17be 64d5 a13d 2bc6 3c3c fb78 be3e
000000a0: 9ced 83be 176d f5bd 580f f9bd a87e e73d
000000b0: 8e2b 243d 33d2 503d c3f3 0dbd 4112 733d
000000c0: 7289 0fbd f297 adbd f7d1 bfbe 2b8d 223e
000000d0: 694a 80bd 3d46 85be 382f 6e3c 9c2a 823e
000000e0: 3681 c2bd bf6b 063e 404a 17be 63bc 1fbe
000000f0: bdc2 333d 3b99 b13d 06a2 293e ba15 a1bd
00000100: a5f1 a53d acf2 0bbe da58 90bd bfc6 cd3a
00000110: c15f bf3c eef9 b63c 6073 20be 473f 79be
00000120: 2e95 84bd 3f5e 26bc 177c ea3d 54af 7b3e
00000130: 0453 45be 98d2 163e c6fc ed3d 7c5f 8fbd
00000140: c253 73bb 1d64 9f3d 9f0b a4be 877d 363d
00000150: 0eca ef3d c96b 0e3d b9ca 46bd dbcb 3e3e
00000160: 9934 ed3d ff5a 75bb cf7d 02be ff4a 643e
00000170: 2202 1bbd 0ba7 0f3e c13f 8ebd 38b1 613d
00000180: b7fc 213d baff c4bd 6f90 91bd 813c 003e
00000190: 3ee9 963e a01e 1bbe 0439 55be e0f2 97be
000001a0: 0234 09be 6403 543e 5270 243f 7d89 2b3e
000001b0: c626 fd3d 0da3 31bb 39ae 85bc 0a74 e33e
000001c0: 3e6c 9c3d e4b7 80be 9005 31bd 2f22 e63c
000001d0: 88dd d53d 32d9 c23d 8fe1 243d bc1a 55be
000001e0: a09a e3bd 4218 6a3e 54ee c63e 6297 673e
000001f0: 92cb 593d 851d 2c3e 23a0 4ebe 2206 083f
00000200: ecc8 8c3e 9306 1f3f e79b 3a3e b90a 683d
00000210: a4a1 813e f2de 8d3e 7362 bd3e 64c6 94be
00000220: b030 8f3e 3222 253e 9b8c 393f 0463 233e
00000230: 570d 763e 0b44 ec3d c2b7 abbd 4311 2c3f
00000240: d879 833e a336 1e3f 06d6 a5be 8d17 e6bd
00000250: e4fa c93e fa52 62be 82df c73e 61e6 6abd
00000260: a817 e23d 1fe9 133e 2135 273f 25be a23e
00000270: 58be c43e 3371 0fbe 371d 10be b635 323f
00000280: 2818 883e ef1c 0c3f 8df3 7b3e 9081 f2bd
00000290: 19ab 7d3e 9f10 863f 82b7 773e d140 63be
000002a0: 2ff0 a53e 6902 debd a16d 273f 673b 78bc
000002b0: 2b62 833e af51 57bd 3e40 47bd b90c 103f
000002c0: 759e 823e 3563 cb3e e897 79be 5b6e 87bc
000002d0: dbb6 ad3e ddd3 4ebe ff3a 0d3f c011 1ebf
000002e0: cffb 703e 0e62 153d 3063 483f 1556 933e
000002f0: bd5c 483e 7018 23be 496b 6a3d 66c9 383f
00000300: 0791 413e 15df 37be 74d5 85be 0059 0dbd
00000310: de29 d63d 0e2c 4cbe 73d0 e2be 0f70 ee3d
00000320: ca69 8c3d 3be8 903e bf85 443e 3bb2 eebb
00000330: c55b 86bd 9901 bfbd 3063 20bd 1e90 e93c
00000340: 5915 da3d 134c b4bd f1da 0abf f53c 7b3d
00000350: f59f 1a3e f8ee 02be 61f9 30be 8a37 27be
00000360: f86d e7bd cbeb cf3d 6f9f 2c3e db8a dc3c
00000370: 7fb7 8fbd 6b9f 363e 2306 fdbd 9df3 833d
00000380: 7510 debd 288f acbd df80 3a3d 1f11 293d
00000390: 4b9a 333c fd1d 73be 7eab 0a3d 90f3 f0bc
000003a0: 6b1a f1bd 494f 06be 0682 823b 46d7 133d
000003b0: e87a 6dbe daa5 913d 58c3 303d ef27 d83d
000003c0: 16da 3abe 4b3e 62be 8f43 8ebe 908f 703d
000003d0: 973c 783d 72f3 0d3e 8c8c c13c 0b9f 85be
000003e0: 5e6d 5d3d c180 973d 3133 543b 979a 213e
000003f0: 66a0 083d 7df5 a2bd 6e61 223e 547d 83be

model.clf.0.bias f4 [64]
-0.32831836 -0.041354924 -0.2821189 0.30999172 0.3002314 0.22782645 -0.24881326 -0.3225655
-0.12037452 -0.28480908 -0.026120685 -0.05582144 -0.120724514 -0.008062009 -0.06043742 -0.12608014
-0.04953367 -0.021773325 -0.1195815 -0.019690452 -0.009543533 0.057828892 0.31971824 0.40388533
0.06642011 -0.3184467 0.36303657 0.19557986 0.26597115 0.088273905 0.29620925 -0.011830869
-0.25673008 -0.14109585 -0.26840913 -0.1062382 0.76204336 0.5996358 -0.07408465 -0.31601536
-0.19827774 -0.17319456 -0.19186412 -0.14369416 -0.21689475 -0.16206656 0.29615298 -0.06976647
-0.061328106 -0.16601515 -0.0963725 0.6513104 -0.09390625 -0.29535115 0.3524966 0.2163219
-0.11689496 -0.025321672 -0.06548263 0.0856019 0.12916687 0.0972792 -0.09598173 -0.1188574
00000000: 5819 a8be c863 29bd e371 90be 3cb7 9e3e
00000010: eeb7 993e 564b 693e e7c8 7ebe 4e27 a5be
00000020: eb86 f6bd 7fd2 91be 0cfb d5bc 06a5 64bd
00000030: 6a3e f7bd 8416 04bc 3a8d 77bd 271b 01be
00000040: d1e3 4abd f95d b2bc 25e7 f4bd df4d a1bc
00000050: 7b5c 1cbc fddd 6c3d 1cb2 a33e 0fca ce3e
00000060: 4407 883d 720b a3be eedf b93e 1646 483e
00000070: 5f2d 883e f3c8 b43d bda8 973e 43d6 41bc
00000080: 2072 83be 6e7b 10be ec6c 89be 6a93 d9bd
00000090: 4615 433f bb81 193f b1b9 97bd c4cc a1be
000000a0: 5209 4bbe ea59 31be 0778 44be 9024 13be
000000b0: a819 5ebe c7f4 25be 5da1 973e b9e1 8ebd
000000c0: 2e33 7bbd e0ff 29be f25e c5bd 47bc 263f
000000d0: ec51 c0bd 4438 97be 6f7a b43e 7d83 5d3e
000000e0: a066 efbd 656f cfbc c21b 86bd 0d50 af3d
000000f0: 5244 043e 513a c73d 1292 c4bd 826b f3bd

model.clf.3.weight f4 [5, 32]
0.34849098 0.9993481 1.3032361 0.71416897 1.06995 0.9261957 0.82239074 0.98801285
0.5417415 0.8359188 1.3038436 1.19318 0.6372589 1.2834682 1.2894014 1.2035569
0.95688766 1.2579893 1.2929031 0.88287336 0.29958272 0.48706004 0.042710923 1.4541186
1.2981147 1.2688429 1.366381 1.3990223 1.4149145 1.2264248 1.6367944 1.0674523
0.22870465 1.3688004 1.2844979 0.018372893 0.9046235 1.0316577 0.38661948 0.7320886
0.5686087 0.27248874 1.4025999 1.6454816 0.6492826 1.562187 1.1867461 1.3783911
0.5976637 1.1879158 1.9341038 0.01713855 0.3726796 0.15079796 0.062011696 1.881483
0.29042745 1.4003615 1.2504393 1.40024 1.1543849 1.3612193 1.7219313 0.66138464
0.28477266 1.0838815 1.1721082 0.5449192 1.1401424 0.80666596 0.71127844 0.8315642
0.6955179 0.54493165 1.6183479 1.1977916 -0.16730836 1.2435895 1.2241204 1.4615219
0.62768143 1.5004822 1.7691118 0.64469934 0.12314945 0.4863732 0.09335938 1.4005299
1.3493545 0.7213345 1.1910121 0.70459646 1.3620621 0.4798388 1.1752543 1.0035971
0.41813427 0.28777605 0.8841221 0.5445931 0.4856852 0.7753673 0.8120527 0.7622007
0.7047277 0.7360836 0.9832009 0.60408854 -0.066236846 0.8247518 0.7758947 0.91475105
0.8889307 0.5171568 1.4066565 0.7620699 0.4591067 0.31230015 0.101216175 0.8499778
1.1991426 1.1187775 1.1685015 0.24538255 1.2949085 -0.005169643 1.6958911 1.1572924
0.52145475 1.4813946 1.4423145 0.47952315 1.0462643 0.40189624 0.90697217 0.89013547
0.40599492 0.9919231 1.5925574 1.643468 0.8540845 1.8519645 1.5796378 0.97027266
0.31771076 1.2553765 1.4307019 0.7453396 0.4246042 0.47273788 0.098230265 2.1684506
0.55671936 1.0192478 1.1950732 1.8121985 1.383851 2.0633218 1.4398642 0.8641282
00000000: 696d b23e 47d5 7f3f 71d0 a63f c7d3 363f
00000010: 1ff4 883f 291b 6d3f 3388 523f 69ee 7c3f
00000020: 92af 0a3f c6fe 553f 59e4 a63f 1fba 983f
00000030: 6623 233f b048 a43f 1b0b a53f 270e 9a3f
00000040: 97f6 743f cb05 a13f d97d a53f fd03 623f
00000050: e862 993e ef5f f93e a6f1 2e3d 8f20 ba3f
00000060: 9f28 a63f 7269 a23f 93e5 ae3f 2a13 b33f
00000070: eb1b b53f 7dfb 9c3f 7b82 d13f 47a2 883f
00000080: 8d31 6a3e da34 af3f 6d6a a43f c082 963c
00000090: 6895 673f 5c0d 843f fdf2 c53e 296a 3b3f
000000a0: 5790 113f a583 8b3e 6588 b33f 249f d23f
000000b0: 6237 263f bef5 c73f 4ce7 973f 1f6f b03f
000000c0: 7d00 193f a00d 983f b790 f73f 2566 8c3c
000000d0: dccf be3e c86a 1a3e faff 7d3d 6fd4 f03f
000000e0: e8b2 943e 0c3f b33f 650e a03f 103b b33f
000000f0: e2c2 933f 6f3c ae3f 3f68 dc3f 8150 293f
00000100: b9cd 913e a1bc 8a3f a407 963f d37f 0b3f
00000110: 30f0 913f a981 4e3f 5816 363f 64e1 543f
00000120: 760d 323f a480 0b3f 0626 cf3f 3c51 993f
00000130: e252 2bbe f12d 9f3f faaf 9c3f 2613 bb3f
00000140: bbaf 203f cd0f c03f 4172 e23f 040b 253f
00000150: c735 fc3d e805 f93e 3433 bf3d 9044 b33f
00000160: a6b7 ac3f 61a9 383f 1673 983f 6f60 343f
00000170: 0d58 ae3f 6ead f53e bc6e 963f df75 803f
00000180: b215 d63e 6257 933e d355 623f 746a 0b3f
00000190: bbab f83e 797e 463f b0e2 4f3f 961f 433f
000001a0: 0969 343f fa6f 3c3f 0eb3 7b3f 8ca5 1a3f
000001b0: 2fa7 87bd ef22 533f 09a1 463f 202d 6a3f
000001c0: f690 633f 6364 043f 520d b43f 0317 433f
000001d0: 0910 eb3e cee5 9f3e 6d4a cf3d 2598 593f
000001e0: 817d 993f 1a34 8f3f 7591 953f 9045 7b3e
000001f0: 90bf a53f 1c66 a9bb f612 d93f 2822 943f
00000200: 0f7e 053f 579e bd3f c39d b83f 0f84 f53e
00000210: fdeb 853f 58c5 cd3e 542f 683f ebdf 633f
00000220: 91de cf3e acee 7d3f ecd8 cb3f 295d d23f
00000230: 48a5 5a3f 2c0d ed3f 9231 ca3f ca63 783f
00000240: fcaa a23e 2db0 a03f 3d21 b73f 93ce 3e3f
00000250: b965 d93e b30a f23e f32c c93d e5c7 0a40
00000260: 2985 0e3f b676 823f 29f8 983f 1ff6 e73f
00000270: 0822 b13f 770d 0440 784d b83f 8137 5d3f

model.clf.3.bias f4 [5]
1.2928082 1.5442663 1.5804725 1.5285782 1.5349178
00000000: bd7a a53f 85aa c53f ec4c ca3f 73a8 c33f
00000010: 3078 c43f
