notebooks/assets/policy/SimpleConv_scenario_1.pth (torch, 26322 bytes, 12 tensors)

model.embeder.0.weight f4 [64, 2, 1, 1]
0	0x3f13bcf0	0.5771017
1	0x3ed77a23	0.4208537
2	0xbeae6a34	-0.34065402
3	0xbd678950	-0.056527436
4	0x3e0bf158	0.13666284
5	0xbf3a45bd	-0.7276266
6	0x3ee871c5	0.453993
7	0x3da4e8e2	0.08052231
8	0x3e0f09d5	0.13968594
9	0x3ee28b95	0.44247118
10	0xbe3e8d0b	-0.18608491
11	0xbe8ad7fb	-0.27117905
12	0x3ea1ab89	0.31576183
13	0xbe85b2cf	-0.26112983
14	0xbf2d65f8	-0.67733717
15	0xbe4420de	-0.19153163
16	0xbf329df0	-0.69772243
17	0x3dd2bd41	0.102900036
18	0x3ec7a80b	0.38995394
19	0xbec2f363	-0.38076314
20	0x3f1bfa5e	0.60928905
21	0xbe0b16c7	-0.13582908
22	0x3ed3142d	0.4122633
23	0x3ea2b2cd	0.3177704
24	0x3f48f54f	0.7849931
25	0xbe00cf02	-0.12578967
26	0x3f033ca0	0.5126438
27	0x3e9f700e	0.31140178
28	0x3eef102c	0.46692026
29	0xbf0fc987	-0.5616688
30	0xbde4a63f	-0.111645214
31	0xbf00fee6	-0.50388944
32	0x3f02ed7a	0.5114361
33	0xbdb4d5bd	-0.0882983
34	0x3e853c20	0.26022434
35	0x3e15b2e9	0.1461903
36	0xbecc1f36	-0.39867562
37	0xbd1f7a0c	-0.038934752
38	0xbf19adbe	-0.60030735
39	0xbee50e4a	-0.44737464
40	0x3e0b50e6	0.13605079
41	0xbe695afd	-0.22788616
42	0xbdada6b3	-0.08479061
43	0xbf0c84f7	-0.5489039
44	0x3e23596f	0.15952085
45	0x3e6dde27	0.23229276
46	0x3f385199	0.7199951
47	0xbf2462a3	-0.6421301
48	0x3ee8bc6b	0.45456252
49	0xbe708d08	-0.23491299
50	0x3f055b70	0.5209265
51	0xbc7759d1	-0.0150970975
52	0xbdc3ae7d	-0.095547654
53	0x3d59252d	0.05301397
54	0x3f319cdf	0.6937999
55	0x3d334aae	0.043772392
56	0x3ee96003	0.45581064
57	0x3f455c70	0.77094173
58	0x3ef9e204	0.4880525
59	0x3f41cc8e	0.7570275
60	0x3e00bbc1	0.12571622
61	0xbce3c459	-0.027803587
62	0xbf317754	-0.69322705
63	0xbe228aa0	-0.15873194
64	0x3e589414	0.21150237
65	0x3f1ad848	0.6048627
66	0x3d964709	0.07337768
67	0xbf021be8	-0.5082383
68	0xbdeaf811	-0.11473096
69	0x3f05aa1a	0.5221268
70	0x3ea43314	0.3207022
71	0xbf1ba572	-0.60799325
72	0x3e20df03	0.15710072
73	0xbf24de4b	-0.6440169
74	0x3ed5ff99	0.41796568
75	0x3dc66ab1	0.096883185
76	0xbecd4c6e	-0.40097374
77	0x3f1418b0	0.5785017
78	0x3f45f7da	0.77331316
79	0x3e058492	0.13038853
80	0x3f2130ef	0.6296529
81	0xbec50f5d	-0.38488284
82	0x3f43700b	0.7634284
83	0x3f317a1e	0.6932696
84	0xbe386c7b	-0.18010132
85	0xbe64e157	-0.22351585
86	0xbe4f6270	-0.20252395
87	0x3ebde0c3	0.37085542
88	0xbf08ecb9	-0.5348621
89	0xbf328166	-0.69728696
90	0xbf0a75a6	-0.5408577
91	0xbcbc1f4c	-0.022964142
92	0x3ec96d1d	0.3934106
93	0xbe093ac3	-0.13401322
94	0x3f30ea1f	0.6910724
95	0xbf02f7f3	-0.5115959
96	0x3cab5bcb	0.020917794
97	0x3f37f764	0.71861863
98	0x3e14f1df	0.14545391
99	0xbf078233	-0.52933043
100	0x3d1b367e	0.037893765
101	0x3f46f183	0.7771227
102	0xbf1b7420	-0.6072407
103	0x3f08b496	0.5340055
104	0x3f04de2a	0.51901495
105	0xbd84a4cf	-0.06476747
106	0x3c27022e	0.010193391
107	0x3d7ead3c	0.062176928
108	0x3f1d38a7	0.6141457
109	0x3f4b39d6	0.79385126
110	0xbdff17c3	-0.12455704
111	0x3e51817d	0.20459552
112	0xbf1f0be0	-0.62127495
113	0xbee9f690	-0.45695925
114	0xbdf99f46	-0.12188582
115	0x3e96f5dc	0.2948445
116	0x3ea007ec	0.31256044
117	0xbf288805	-0.6583255
118	0x3ee1ab94	0.44076216
119	0x3f3ec587	0.7452015
120	0x3ecc3a7d	0.39888373
121	0x3e71b596	0.23604426
122	0xbee0136e	-0.43764824
123	0x3eef6b74	0.46761668
124	0xbb6ebacb	-0.0036427255
125	0x3f1240ad	0.5712994
126	0xbf082044	-0.53174233
127	0xbe4fd0f9	-0.2029456

model.embeder.0.bias f4 [64]
0	0xbd3fd37d	-0.04683255
1	0xbe0a8513	-0.13527326
2	0x3ec14326	0.37746543
3	0x3eab94dc	0.33512008
4	0xbf1cbc1e	-0.61224544
5	0xbed50bb3	-0.41610488
6	0xbf19c6fd	-0.6006926
7	0xbe1fed8c	-0.1561796
8	0x3ee65917	0.44989845
9	0xbe386055	-0.18005498
10	0x3e210989	0.15726294
11	0xbd1f8329	-0.038943443
12	0x3f3075c4	0.68929696
13	0xbe991b35	-0.2990357
14	0xbb86b7aa	-0.00411125
15	0x3e1e057c	0.1543178
16	0xbea73f9a	-0.32665712
17	0xbef3fb97	-0.47652885
18	0xbf0adec5	-0.5424617
19	0xbe6c6fd5	-0.23089536
20	0xbf143a47	-0.57901424
21	0xbf24a56e	-0.64314926
22	0x3e7231c0	0.2365179
23	0xbec7fc6e	-0.39059776
24	0xbed8e41d	-0.42361537
25	0xbf060400	-0.52349854
26	0x3f299018	0.66235495
27	0x3f1c21c9	0.6098905
28	0xbeaaea84	-0.33382046
29	0x3e044d82	0.12920192
30	0x3eeda0a6	0.46411628
31	0xbe842b1d	-0.25814143
32	0x3d462800	0.04837799
33	0x3e5a6b3e	0.21329972
34	0x3e747e4d	0.23876305
35	0x3e950f50	0.29113245
36	0x3d890cb3	0.06691875
37	0x3e62d13f	0.22150134
38	0xbec0109f	-0.3751268
39	0x3f49d705	0.7884372
40	0xbedce782	-0.43145376
41	0xbf03beaf	-0.51462835
42	0xbedc7baf	-0.43063113
43	0xbf11512d	-0.5676449
44	0xbf14ba9b	-0.5809724
45	0x3e03dcda	0.12877217
46	0x3f0ea64e	0.5572251
47	0x3e9d696e	0.307445
48	0xbed0d1f1	-0.40785173
49	0xbe7c60db	-0.24646322
50	0xbe2ab861	-0.16671897
51	0xbe1d3ed9	-0.15356006
52	0x3ea0902a	0.31359988
53	0x3e96bb56	0.294398
54	0x3f2358e1	0.63807493
55	0x3e856425	0.26052967
56	0xbe754d5b	-0.2395529
57	0xbec593d5	-0.3858935
58	0xbeffec9a	-0.499852
59	0x3f1a695b	0.6031701
60	0x3edefbce	0.43551487
61	0xbeccf903	-0.4003373
62	0x3ebb408f	0.36572692
63	0x3ef56d2f	0.47934863

model.embeder.2.weight f4 [32, 64, 1, 1]
0	0x3e4febb3	0.20304756
1	0xbddc9b2e	-0.10771786
2	0xbe0fd786	-0.1404706
3	0x3cf64650	0.030062824
4	0xbd156724	-0.036475316
5	0xbd6de5f0	-0.058080614
6	0x3c46d6b0	0.012136146
7	0xbd452a30	-0.048135936
8	0x3cb0309c	0.021507554
9	0xbca21528	-0.019785479
10	0x3e5f2847	0.21792708
11	0x3d52f005	0.05149843
12	0x3d0c4363	0.034243952
13	0x3e1eacef	0.15495656
14	0xbd23f26e	-0.04002612
15	0xbe05deb5	-0.13073237
16	0x3d16af90	0.036788523
17	0x3d548dd4	0.05189307
18	0x3d44ff64	0.048095122
19	0x3dead668	0.11466676
20	0xbd541a04	-0.051782623
21	0x3dd68836	0.10475199
22	0x3e4ab645	0.19796093
23	0xbd586cb6	-0.05283805
24	0x3cc28e96	0.02374963
25	0xbd164682	-0.036688335
26	0x3e379fa0	0.17931986
27	0x3e5a6edf	0.21331356
28	0x3daa8c9a	0.08327599
29	0x3e6fba45	0.234109
30	0xbb4b7b99	-0.0031049012
31	0x3d251c14	0.04030998
32	0x3df4ce85	0.11953453
33	0xbdcc6a27	-0.099811845
34	0x3dc32ca6	0.095300004
35	0xbda67a58	-0.08128804
36	0xbdf334eb	-0.11875328
37	0x3d914838	0.07093853
38	0x3d75aa6c	0.05997698
39	0x3e7afb32	0.24509886
40	0xbe14662c	-0.144921
41	0x3e15dc62	0.1463485
42	0x3daa72ac	0.08322653
43	0xbdd07de6	-0.10180263
44	0xbdff5ba8	-0.12468654
45	0x3d723bda	0.05913911
46	0x3d3fc56b	0.04681913
47	0x3e35765a	0.17720929
48	0x3e1af476	0.15132317
49	0x3cd68d58	0.026190445
50	0x3e016777	0.12637125
51	0xbda48ce2	-0.08034684
52	0x3e3d1351	0.184644
53	0x3e1d66fd	0.15371318
54	0x3e4cb155	0.19989522
55	0x3d07aeb9	0.033125613
56	0x3c8b2ee0	0.016990125
57	0xbddf9f6a	-0.10919078
58	0x3d49e5c8	0.049291402
59	0x3e3d19dd	0.18466897
60	0x3de562cc	0.11200485
61	0xbb4fff76	-0.003173796
62	0x3d499001	0.0492096
63	0x3db3ee97	0.08785742
64	0x3d8e159c	0.069377154
65	0xbdb2e13c	-0.08734366
66	0xbd6f27ad	-0.058387447
67	0x3e0b9bc5	0.1363364
68	0xbb06fdc0	-0.0020598024
69	0xbdaf3700	-0.08555412
70	0x3cedcde8	0.029028848
71	0xbd2bb310	-0.041918814
72	0xbdb6252d	-0.088938095
73	0xbe39f585	-0.18160065
74	0x3ae69269	0.0017591241
75	0x3dcff0a7	0.10153323
76	0x3d1f29ac	0.0388581
77	0x3dddf603	0.10837939
78	0xbc8aae16	-0.016928714
79	0xbda6b683	-0.0814028
80	0x3deb8eda	0.11501856
81	0xbc416ea0	-0.01180616
82	0xbd98b5aa	-0.07456525
83	0x3df0b290	0.11752808
84	0xbd7a42fc	-0.061099038
85	0xbdd78698	-0.105237186
86	0x3e0f5809	0.13998426
87	0xbe491eb9	-0.19640626
88	0x3d39ffbe	0.04540991
89	0xbd979ab4	-0.07402554
90	0x3d5a460d	0.053289462
91	0xbcd3ae71	-0.025840016
92	0x3de4c9ca	0.11171301
93	0x3dbe805e	0.09301828
94	0x3df9ee8b	0.122037016
95	0xbdd84452	-0.10559906
96	0x3e224bfa	0.15849295
97	0xbd95cee5	-0.073148526
98	0x3d743b4d	0.059626866
99	0x3d617ffa	0.05505369
100	0xbe0edca6	-0.13951358
101	0xbda0ed2d	-0.07857738
102	0x3cddacdd	0.027059967
103	0x3e140847	0.14456283
104	0xbe296eb5	-0.16546138
105	0x3db10d39	0.086451
106	0x3dc00040	0.09375048
107	0x3b2ab2c0	0.0026046485
108	0x3dc463f4	0.09589377
109	0xbd802f92	-0.06259073
110	0x3e288d0d	0.16460057
111	0x3e1983e7	0.14991723
112	0x3a2c8400	0.0006580949
113	0xbdf8ac88	-0.12142283
114	0xbd48265f	-0.04886472
115	0xbbb7d5c9	-0.005610202
116	0xbd39ea13	-0.045389246
117	0x3e06908f	0.13141082
118	0x3e2042dd	0.15650506
119	0x3bd19f73	0.0063971817
120	0x3c5b4780	0.013383746
121	0xbdbbf648	-0.09177834
122	0xbc59b5d0	-0.013287976
123	0x3dec533d	0.11539314
124	0xbd78778f	-0.060660895
125	0x3cc3e1d3	0.023911392
126	0x3e0e9655	0.13924535
127	0x3df221aa	0.11822827
128	0x3dc6f1e1	0.097141035
129	0x3d4b1e70	0.049589574
130	0x3cd1d73f	0.025615333
131	0x3e418137	0.18896948
132	0xbcb95650	-0.022624165
133	0xbd93b2da	-0.072118476
134	0xba54e900	-0.0008121878
135	0xbdb39c5a	-0.08770056
136	0xbc66543b	-0.014058168
137	0xbab7f68a	-0.0014035266
138	0x3dbbee65	0.091763295
139	0x3d24e46f	0.040256914
140	0x3e25a499	0.1617607
141	0x3d488b00	0.048960686
142	0xbdbb7ecf	-0.09155046
143	0x3c02f050	0.007991865
144	0x3df9ba66	0.12193756
145	0xbd075158	-0.03303656
146	0x3dffd6c0	0.12492132
147	0xbc85de40	-0.016341329
148	0xbd436480	-0.047703266
149	0xbd4fdf34	-0.050749972
150	0x3d2a206f	0.041534837
151	0xbca34eef	-0.0199351
152	0xbd7083f1	-0.05871958
153	0x3d69a0d9	0.057038162
154	0x3e3741b6	0.1789616
155	0x3db33ba3	0.08751609
156	0x3e25ad0c	0.16179293
157	0x3e386425	0.18006952
158	0x3d241f9d	0.04006921
159	0xbdae0a14	-0.08498016
160	0x3dbaebf9	0.091270395
161	0x3cebbec2	0.028777484
162	0x3e1d300c	0.1535036
163	0xbe0bd4e0	-0.13655424
164	0xbe08eb70	-0.13371062
165	0x3e451e0a	0.1924974
166	0xbb45160c	-0.0030072955
167	0x3e836bef	0.25668284
168	0xbdb698b7	-0.08915847
169	0x3dec5e49	0.11541421
170	0xbd61ab00	-0.05509472
171	0xbcf193f0	-0.029489487
172	0xbd208700	-0.039191246
173	0x3b4b9765	0.003106558
174	0x3cb8ac29	0.02254303
175	0x3e0dc0bb	0.13843052
176	0x3e033df6	0.12816605
177	0x3cd303f0	0.025758713
178	0x3e49b62e	0.19698402
179	0x3d3af6d9	0.04564557
180	0x3dc05d27	0.093927674
181	0x3e32bfa9	0.17455925
182	0x3e8a3fd5	0.27001825
183	0x3e5cf92b	0.21579425
184	0xbccb5928	-0.024822786
185	0xbd98d99e	-0.07463382
186	0x3de6daaa	0.112721756
187	0x3e31150c	0.17293185
188	0x3e038e4b	0.12847249
189	0x3de880b2	0.11352672
190	0x3e3e1d36	0.1856583
191	0xbdb52f41	-0.088469036
192	0x3cd2b7a8	0.02572234
193	0xbdbb7e1c	-0.09154913
194	0x3b4af940	0.0030971318
195	0x3de646c6	0.11243968
196	0x3d40ce80	0.047071934
197	0xbc509610	-0.01273109
198	0x3deb601c	0.11492941
199	0x3d8d768a	0.06907375
200	0xbd986f92	-0.07443155
201	0x3d949f2c	0.07256922
202	0x3c89ebe0	0.016836107
203	0x3dd3dadc	0.103444785
204	0xbd6612f0	-0.056170404
205	0xbd64619c	-0.05575715
206	0x3d6c97e4	0.05776204
207	0x3c356980	0.011072516
208	0xbdd619fc	-0.10454175
209	0xbdd7f406	-0.10544591
210	0x3d121544	0.03566481
211	0xbb6266c0	-0.0034546107
212	0x3dbff534	0.09372941
213	0xbd71bd00	-0.059018135
214	0x3d436490	0.047703326
215	0xbc5a9500	-0.013341188
216	0xbd6c9860	-0.057762504
217	0x3d845974	0.06462374
218	0xbd953344	-0.07285169
219	0x3d509270	0.050920904
220	0xbc305b50	-0.010763958
221	0xbda40fe6	-0.08010845
222	0xbd8653c2	-0.06558944
223	0x3decdba0	0.11565328
224	0x3dfebeb2	0.12438716
225	0xbd6c6198	-0.05771026
226	0x3d9763c8	0.07392079
227	0x3dcea9f2	0.10091008
228	0xbd73221c	-0.0593587
229	0xbdea820c	-0.11450586
230	0xbd76ea8c	-0.060282275
231	0xbdb447dc	-0.088027686
232	0x3ca8c018	0.02059941
233	0x3dea0cd4	0.11428228
234	0x3d9f53be	0.077796444
235	0xbdb33702	-0.08750726
236	0xbde6829c	-0.112553805
237	0x3dae65fc	0.08515546
238	0xbd29a184	-0.0414138
239	0x3d6d263c	0.05789779
240	0xbd88b966	-0.06675987
241	0x3dac2d4c	0.08407077
242	0x3c96b1c0	0.018395305
243	0xbde50b4a	-0.11183794
244	0xbd6ab2c4	-0.05729939
245	0x3df764e2	0.12079789
246	0xbd7d4288	-0.061831027
247	0x3c84dcb8	0.016218528
248	0xbd482928	-0.048867375
249	0xbdb0d428	-0.086342156
250	0xbc02ce30	-0.007983729
251	0xbc872ac8	-0.016499892
252	0x3d71c5c4	0.059026495
253	0xbca51b78	-0.0201547
254	0xbc435000	-0.011920929
255	0xbd9d5ce6	-0.076837346

model.embeder.2.bias f4 [32]
0	0x3bf5c851	0.007500686
1	0xbd2073e2	-0.039173014
2	0x3dfe6b42	0.124228016
3	0xbd833e1a	-0.06408329
4	0x3d944bcf	0.07241022
5	0xba90ce10	-0.001104774
6	0xbc1bbdec	-0.00950573
7	0xbca4daa6	-0.020123791
8	0x3e44e762	0.1922889
9	0x3dd6b132	0.10483016
10	0x3e1b850e	0.15187475
11	0x3e084300	0.13306808
12	0x3b1f72eb	0.002432997
13	0xbcd4031a	-0.025880385
14	0x3e0745ab	0.1321017
15	0x3c0c55c3	0.008565369
16	0xbd1dd959	-0.038537357
17	0x3d95c8e2	0.07313706
18	0x3d87a80d	0.0662385
19	0xbd4a4a59	-0.04938731
20	0xbdab66cb	-0.083692156
21	0x3da26589	0.079295225
22	0x3de028b6	0.10945265
23	0x3d74d2c0	0.0597713
24	0xbd67c378	-0.056582898
25	0x3e7695cc	0.2408058
26	0x3cbdcb4a	0.023168225
27	0x3e6d53db	0.2317652
28	0xbd5c4038	-0.05377218
29	0xbd781104	-0.060563102
30	0x3e22208d	0.1583273
31	0xbe1c5244	-0.15265757

model.embeder.4.weight f4 [16, 32, 1, 1]
0	0x3e80aa84	0.25130093
1	0x3e2a47a2	0.16628888
2	0x3e24ea02	0.16104892
3	0xbdefc98d	-0.11708365
4	0x3e085d1f	0.13316773
5	0xbcb7f693	-0.022456443
6	0xbe1cde80	-0.15319252
7	0x3cedf6ad	0.029048288
8	0x3e47dd6c	0.1951806
9	0x3e859d20	0.2609644
10	0x3e150c63	0.14555506
11	0xbe3716f6	-0.17879853
12	0xbdf5943a	-0.119911626
13	0xbd58a55e	-0.05289208
14	0x3dbdd97d	0.09269998
15	0x3e6a5a5e	0.22886035
16	0x3e57e1cf	0.21082233
17	0x3dbcd9ba	0.092212155
18	0xbb5a73ea	-0.003333325
19	0xbdf4c3d1	-0.119514115
20	0x3df1aa69	0.11800081
21	0x3e9188fe	0.2842483
22	0xbe3f4542	-0.18678764
23	0x3d32619f	0.04355013
24	0x3ca43788	0.02004601
25	0x3deb0c17	0.11476915
26	0x3dd482c8	0.10376507
27	0x3e62da2a	0.22153535
28	0xbb810851	-0.003937759
29	0x3e1dfcc0	0.15428448
30	0x3e81eaf2	0.25374562
31	0xbc52d62d	-0.012868446
32	0x3d3f9ab6	0.046778403
33	0xbe2edc0f	-0.17076133
34	0xbd9c0c93	-0.07619586
35	0x3d6c998d	0.057763625
36	0xbe2499d1	-0.16074301
37	0xbc623d8f	-0.013808622
38	0x3e2955c2	0.1653662
39	0x3d901c78	0.0703668
40	0x3e19a759	0.15005244
41	0x3dbb3bea	0.09142287
42	0x3cc0752c	0.023493372
43	0x3e111282	0.14167216
44	0xbc8f9f4c	-0.017532013
45	0xbdd03f95	-0.10168377
46	0xbd487b25	-0.048945565
47	0x3e0f0d1e	0.13969848
48	0xbd59a2a0	-0.053133607
49	0x3d4f090d	0.05054574
50	0xbda3d8e7	-0.08000355
51	0xbe0c3adb	-0.13694327
52	0xbe21ff08	-0.15819943
53	0x3d13e6ab	0.036108654
54	0x3e1ebc4d	0.15501519
55	0x3e0faa83	0.14029889
56	0xbd77790e	-0.06041818
57	0x3df11c09	0.117729254
58	0xbd28d36d	-0.041217256
59	0xbda37de2	-0.079829946
60	0x3e13d2b0	0.1443584
61	0x3d9e2d3e	0.07723473
62	0xbe081e3f	-0.13292788
63	0xbe0843a3	-0.13307051
64	0xbcf5adba	-0.029990066
65	0xbe2e3c06	-0.17015085
66	0x3da03594	0.07822719
67	0xbe01bd86	-0.12669954
68	0xbe29bc4b	-0.16575734
69	0xbcebed0e	-0.02879956
70	0xbdf5bb42	-0.11998607
71	0x3cbe3d99	0.023222731
72	0xbe182907	-0.148594
73	0x3d98cd45	0.07461027
74	0xbe2388f1	-0.15970208
75	0xbe80a0d2	-0.25122696
76	0xbe1063f5	-0.1410063
77	0x3ddd8904	0.10817149
78	0x3e1273d2	0.14301994
79	0xbe1ef98b	-0.1552488
80	0x3e04c02f	0.12963937
81	0xbd1dfb79	-0.0385699
82	0x3e125a31	0.14292218
83	0x3d18c3a1	0.03729594
84	0xbe41278a	-0.18862739
85	0x3e12f7f5	0.143524
86	0xbe66caee	-0.22538349
87	0x3d8d62a2	0.06903578
88	0xbb0392ad	-0.002007644
89	0x3e0c20ea	0.1368443
90	0x3d701bba	0.058620192
91	0x3d51e931	0.05124778
92	0xbdc75de8	-0.09734708
93	0x3d901834	0.070358664
94	0xbdb3a992	-0.08772577
95	0xbe2b162a	-0.16707674
96	0x3d631df5	0.05544849
97	0x3e417aa4	0.1889444
98	0x3d8ef8ba	0.069810346
99	0xbdefbf90	-0.117064595
100	0xbe186f1e	-0.14886138
101	0xbd5e5973	-0.054284524
102	0x3d1be468	0.038059622
103	0x3e03a634	0.1285637
104	0x3e877505	0.26456466
105	0x3d4a2fec	0.049362108
106	0x3e530e4b	0.20610921
107	0xbe202a78	-0.156412
108	0x3b410abe	0.0029455866
109	0x3e16c645	0.14724071
110	0x3e43af1b	0.19109766
111	0x3de08c4e	0.10964261
112	0x3e88c4d1	0.2671266
113	0xbd6d345a	-0.057911254
114	0x3dc6fac1	0.09715796
115	0xbbcf940c	-0.0063347872
116	0x3dd5fa26	0.10448103
117	0x3e11ddcb	0.14244764
118	0x3c2fa77e	0.010721086
119	0xbc28cf38	-0.010303311
120	0x3dcd4ee2	0.10024811
121	0x3e83accc	0.2571777
122	0x3df4e07c	0.119568795
123	0x3c13c56c	0.009019237
124	0x3d919e75	0.071103014
125	0xbd3f73a0	-0.046741128
126	0x3e8d3309	0.27578
127	0x3d1fb65d	0.038992275
128	0x3e5dbe4c	0.21654624
129	0x3e2f254a	0.17104068
130	0x3d2ae792	0.04172475
131	0xbce4fc20	-0.027952254
132	0xbd821e5a	-0.06353445
133	0x3e0e53f3	0.13899212
134	0xbcece732	-0.028918836
135	0xbd776d98	-0.06040725
136	0x3e6af45f	0.22944783
137	0x3e4d066f	0.20021985
138	0x3b54d44a	0.0032475167
139	0x3e0ca96e	0.13736507
140	0x3e0e45f8	0.13893878
141	0xbe2e5a6d	-0.17026682
142	0x3e28b1f1	0.1647413
143	0xbc0cf903	-0.008604291
144	0x3d2906d5	0.04126628
145	0xbd709ffb	-0.05874632
146	0x3c8fe13b	0.017563453
147	0xbdd0353f	-0.10166406
148	0x3cb140ba	0.02163731
149	0x3def27bf	0.11677503
150	0x3e212bb3	0.15739326
151	0xbdc02be2	-0.0938337
152	0x3e34c532	0.17653349
153	0xbdc6887c	-0.09694001
154	0x3e0c3705	0.13692863
155	0x3da3b4b9	0.079934545
156	0xbdcbe987	-0.09956651
157	0xbd0663e7	-0.032810118
158	0xbd695a24	-0.05697073
159	0x3e5edb34	0.21763307
160	0xbd882419	-0.0664751
161	0xbdbb95a4	-0.09159401
162	0xb99705c5	-0.00028805263
163	0xbdb1d46e	-0.08683096
164	0xbdb6c56c	-0.08924374
165	0xbc9d6363	-0.01921243
166	0x3e2d3201	0.16913606
167	0xbda4a4a5	-0.08039216
168	0xbdcdf800	-0.10057068
169	0xbe3359e1	-0.17514755
170	0x3e13b943	0.1442614
171	0xbd78f7ff	-0.060783383
172	0xbdb15324	-0.08658436
173	0x3d9085d9	0.070567794
174	0x3d89f9f6	0.067371294
175	0x3e038cae	0.12846634
176	0x3e286439	0.16444482
177	0x3c949603	0.018137937
178	0x3dfba9de	0.12288259
179	0x3ab93656	0.0014130573
180	0x3ce2d3d4	0.027688898
181	0xbdde416f	-0.10852324
182	0xbde2b59c	-0.110697955
183	0x3b06af96	0.0020551435
184	0xbdb63c3e	-0.08898209
185	0xbce9e699	-0.02855234
186	0x3d80a56c	0.06281552
187	0xbe2fefc7	-0.17181312
188	0xbe13f9be	-0.14450738
189	0xbcf898ab	-0.030346235
190	0xbe0326d9	-0.12807788
191	0xbdaa3947	-0.08311706
192	0x3e666899	0.22500838
193	0x3e61c19e	0.22046515
194	0x3e3c819e	0.1840882
195	0xbdc3580d	-0.09538279
196	0xbdb9a05e	-0.09063791
197	0x3d290510	0.041264594
198	0xbd514432	-0.051090427
199	0xbdb8c623	-0.090221666
200	0x3e38760b	0.1801378
201	0x3d645967	0.055749323
202	0x3d5662c1	0.052340273
203	0xbd8378b3	-0.06419506
204	0x3d034426	0.032047413
205	0x3d869e46	0.06573157
206	0x3dc8d2db	0.098058425
207	0x3e53d7e6	0.20687827
208	0x3e0f7b81	0.14011957
209	0xbdfadc52	-0.12249054
210	0xbe0b3d35	-0.13597567
211	0xbdd9603f	-0.106140606
212	0x3d15efe5	0.036605734
213	0x3d4cdcfd	0.05001544
214	0x3cec89d3	0.028874313
215	0x3b97438a	0.0046162056
216	0x3e0fba1a	0.14035836
217	0x3d46fc26	0.04858031
218	0xbd683dee	-0.056699686
219	0x3daf2bf5	0.08553306
220	0xbe132fb3	-0.14373665
221	0x3d18115e	0.037125938
222	0x3e5f8740	0.21828938
223	0x3d5b7f61	0.053588275
224	0xbd5c2414	-0.053745344
225	0x3e0a9eec	0.13537186
226	0x3de3251a	0.11091061
227	0xbd16d9f9	-0.03682897
228	0xbe1e146f	-0.15437482
229	0xbdb4a0b5	-0.08819715
230	0xbe2e09df	-0.16995953
231	0xbdfdef85	-0.123992
232	0xbd244eb6	-0.040114127
233	0x3e1ba88d	0.15201016
234	0xbe19004f	-0.14941524
235	0xbe2c8ba7	-0.16850148
236	0x3d708917	0.05872449
237	0xbe259391	-0.16169573
238	0xbe275c17	-0.16343723
239	0xbe1afebc	-0.15136236
240	0xbde44f5b	-0.11147948
241	0xbe0a9f09	-0.1353723
242	0x3ddfb8f9	0.109239526
243	0x3d7ff297	0.06248721
244	0xbdec2bd7	-0.11531799
245	0xbb0aa6a3	-0.0021156452
246	0xbe3496dd	-0.17635675
247	0xbd0b47ed	-0.03400414
248	0xbc8c1c4d	-0.017103339
249	0x3e319494	0.17341834
250	0xbe238da0	-0.15971994
251	0xbde4e483	-0.11176398
252	0x3e2eacb5	0.1705807
253	0x3cb497bf	0.022045014
254	0xbccd8557	-0.025087995
255	0xbdee686b	-0.1164101

model.embeder.4.bias f4 [16]
0	0x3e5e8b53	0.21732835
1	0x3e1214d3	0.14265756
2	0x3c52ed7c	0.0128740035
3	0x3e39765a	0.18111554
4	0xbd8c0849	-0.06837518
5	0x3da98a56	0.082783386
6	0x3df440d5	0.11926428
7	0x3c2454c9	0.01002998
8	0x3e3ae583	0.18251614
9	0x3e0cc18d	0.13745709
10	0xbe24c7d4	-0.16091853
11	0x3e9e98aa	0.30975848
12	0xbd975d52	-0.07390846
13	0x3e0ff613	0.14058714
14	0x3e26eb08	0.16300595
15	0x3ea3b4d4	0.31973898

model.embeder.7.weight f4 [16, 16]
0	0xbe7075f7	-0.234825
1	0xbd828836	-0.063736364
2	0xbd4959a8	-0.04915777
3	0xbe86c6a6	-0.26323432
4	0x3cd21282	0.02564359
5	0x3d1a3928	0.037652165
6	0x3dfa18e9	0.122117825
7	0xbe477a08	-0.19480145
8	0xbd8f8227	-0.070072465
9	0xbc4ca185	-0.012489681
10	0x3d2dbe97	0.04241809
11	0x3e936778	0.28789878
12	0x3d147010	0.036239684
13	0xbe7100fe	-0.23535535
14	0xbe538c53	-0.20658998
15	0x3d340e7f	0.043959137
16	0x3deff6fe	0.11717032
17	0x3cfe53c6	0.031045806
18	0x3c7cdfc8	0.015434213
19	0x3eeaea8e	0.45882076
20	0x3cc31544	0.023813851
21	0xbd867094	-0.06564441
22	0x3ebcc08a	0.36865646
23	0x3dfc214c	0.123110384
24	0x3e344e80	0.1760807
25	0x3d92b6a6	0.07163744
26	0x3e129fbd	0.14318748
27	0x3eaf3fc0	0.34228325
28	0xbb29fa00	-0.0025936365
29	0x3d9d3a0c	0.07677087
30	0x3e3cc923	0.18436103
31	0x3f02ce55	0.5109609
32	0x3d60d5ff	0.054891583
33	0xbdfe8f08	-0.12429625
34	0x3e695b1e	0.22788665
35	0x3e305db4	0.17223245
36	0xbe350124	-0.17676216
37	0xbdb87078	-0.09005827
38	0xbe20e285	-0.1571141
39	0xbdbb7984	-0.09154037
40	0xbda59228	-0.08084518
41	0xbe212c2b	-0.15739505
42	0x3e376558	0.17909753
43	0x3df12a30	0.11775625
44	0xbcf6ba90	-0.030118257
45	0x3e1ea682	0.15493205
46	0xbe690afe	-0.227581
47	0x3e01018a	0.12598243
48	0x3e8ca641	0.27470592
49	0x3e0d3eb8	0.13793457
50	0xbde0a5ff	-0.10969161
51	0x3e330b5e	0.17484805
52	0x3e45c83f	0.19314669
53	0x3e5b4a24	0.21415001
54	0xbd983ed8	-0.074338615
55	0x3e0b0498	0.13575971
56	0xbcc11216	-0.023568194
57	0x3e018450	0.1264813
58	0x3e28ceeb	0.16485183
59	0x3e93df5d	0.2888135
60	0x3d689db0	0.056791008
61	0x3e0f441a	0.13990822
62	0x3df8fa56	0.12157123
63	0x3e67702a	0.22601381
64	0x3eb96253	0.36207828
65	0x3e1fd010	0.15606713
66	0x3e26366d	0.162317
67	0x3ea24e20	0.3170023
68	0xbda4e029	-0.08050568
69	0x3cd79160	0.026314437
70	0x3e636aef	0.2220876
71	0xbe6321aa	-0.2218081
72	0x3e874f4d	0.2642769
73	0xbcb80d07	-0.02246715
74	0xbc2e8da0	-0.010653883
75	0x3e694f92	0.2278426
76	0xbd3ff158	-0.046861023
77	0x3e4138f2	0.18869379
78	0x3e631988	0.22177708
79	0x3e8aef04	0.2713548
80	0xbdea1b11	-0.11430944
81	0x3e799c79	0.24376096
82	0x3e9e0f81	0.30871204
83	0x3e87fc82	0.26559836
84	0x3e3b3d08	0.18285
85	0x3e1aeffa	0.15130606
86	0x3ce9f008	0.028556839
87	0xbdbd0678	-0.092297494
88	0x3e9e1f3c	0.30883205
89	0xbdcaa20c	-0.09894189
90	0xbe54f54b	-0.20796697
91	0xbe2a51c7	-0.16632758
92	0xbdab4be8	-0.08364087
93	0xbe392219	-0.18079413
94	0x3bde9062	0.006792114
95	0x3eae808e	0.34082454
96	0xbddb78d2	-0.10716404
97	0x3d000f8b	0.031264823
98	0xbcf39090	-0.029732019
99	0xbdeaed74	-0.11471072
100	0xbe78150a	-0.24226776
101	0x3e2be758	0.1678747
102	0xbe6b61d7	-0.22986542
103	0x3e42bdc2	0.190177
104	0x3e06bf86	0.13158998
105	0xbdec04fc	-0.11524388
106	0xbde17d30	-0.11010206
107	0x3e1e020c	0.15430468
108	0x3dc3cfa0	0.09561086
109	0xbd772049	-0.060333524
110	0xbe0be922	-0.13663152
111	0x3da2dbd0	0.07952082
112	0xbe135aaa	-0.14390054
113	0xbe355117	-0.17706715
114	0xbe164eed	-0.14678545
115	0x3e473284	0.19452864
116	0xbea401e0	-0.3203268
117	0x3e0fda58	0.14048135
118	0x3e6bc12c	0.23022908
119	0x3c4afac0	0.012388885
120	0xbe822ffe	-0.2542724
121	0x3e515b96	0.20445094
122	0xbd0432f0	-0.03227514
123	0x3e181d61	0.14854957
124	0xbd889c50	-0.06670439
125	0x3df46440	0.11933184
126	0xbd4c387f	-0.049858566
127	0x3d98b62b	0.07456621
128	0xbc7b74e3	-0.015347692
129	0x3dd22bca	0.10262258
130	0x3e8a0260	0.26954937
131	0x3e7da808	0.2477113
132	0x3e72cbaf	0.23710512
133	0x3cbe5990	0.023236066
134	0x3e0e9230	0.13922954
135	0xbca57f50	-0.020202309
136	0x3eb50e63	0.3536254
137	0x3e91354a	0.2836097
138	0xbca2151b	-0.019785454
139	0x3e3d75a0	0.18501902
140	0x3db024a0	0.08600736
141	0x3e16757b	0.14693253
142	0x3e48518e	0.1956236
143	0x3e60c36f	0.21949552
144	0x3e5c2da7	0.2150179
145	0xbd3aa968	-0.045571715
146	0xbe0dc129	-0.13843216
147	0x3d87252f	0.06598889
148	0x3dfdbedb	0.123899184
149	0xbe306888	-0.17227376
150	0x3db796b1	0.08964289
151	0xbe6ed1de	-0.23322245
152	0x3ec197ec	0.3781122
153	0x3db5dfc2	0.08880569
154	0x3e3a2254	0.18177158
155	0x3efd4dad	0.49473324
156	0xbe21a0f2	-0.15784052
157	0x3e5e2c58	0.21696603
158	0x3ee4557e	0.44596475
159	0x3e28e781	0.16494562
160	0x3e31cf58	0.17364252
161	0x3e3391ad	0.1753604
162	0xbb7428bc	-0.0037255725
163	0x3e2847bf	0.16433619
164	0xbc816689	-0.015795963
165	0xbe13676e	-0.14394924
166	0x3da94269	0.0826462
167	0x3d828830	0.06373632
168	0x3ed4e0d7	0.4157779
169	0x3eaff54c	0.34366834
170	0xbe0028cf	-0.12515567
171	0x3e2a805d	0.16650529
172	0xbe009676	-0.12557396
173	0x3e052d33	0.13005523
174	0x3da81561	0.08207203
175	0x3ed50c88	0.41611123
176	0x3df6ac60	0.12044597
177	0xbd85e360	-0.06537509
178	0xbe09bd9c	-0.13451236
179	0xbdbafbc4	-0.09130052
180	0xbdfefa30	-0.12450063
181	0xbe16339a	-0.14668122
182	0xbe7fa79e	-0.24966285
183	0x3c4e6ce0	0.0125992
184	0xbe1656e4	-0.14681584
185	0xbe1d2d52	-0.1534932
186	0x3d8c9788	0.0686484
187	0x3d4f03b0	0.050540626
188	0xbcdf2190	-0.027237684
189	0x3b334980	0.0027357042
190	0xbdc5e100	-0.09662056
191	0xbc2a83c0	-0.010407388
192	0xbddecd90	-0.10879052
193	0x3dc0a6a0	0.09406781
194	0xbdf4f13c	-0.11960074
195	0xbe179614	-0.14803344
196	0x3e882d98	0.26597285
197	0x3e6e6434	0.23280412
198	0xbde6c19e	-0.11267398
199	0xbdf64c30	-0.1202625
200	0x3e8efc97	0.27927086
201	0x3e71695a	0.23575345
202	0x3e545982	0.2073727
203	0x3e7a9565	0.24471052
204	0xbe58bfe4	-0.2116695
205	0x3e8212b8	0.25404906
206	0xbdd0e182	-0.10199262
207	0xbe0c150d	-0.13679905
208	0x3ebb9e41	0.36644176
209	0x3d910b84	0.070822746
210	0xbe0a648e	-0.13514921
211	0x3e8dc4cb	0.27689204
212	0x3e93327a	0.28749448
213	0x3db4dcb8	0.08831161
214	0x3e2e0033	0.16992263
215	0x3e609bbc	0.21934408
216	0x3ee94afc	0.4556502
217	0xbbac1747	-0.0052517983
218	0xbdbcce5a	-0.09219046
219	0x3e607c5b	0.21922438
220	0x3e142c9a	0.14470139
221	0x3e815802	0.25262457
222	0x3eec2b7f	0.46126935
223	0x3eb8945e	0.36050695
224	0x3e911d90	0.28342867
225	0x3d12a219	0.03579912
226	0x3e21b496	0.15791544
227	0x3e8c6d31	0.27427056
228	0xbce60a4d	-0.028081084
229	0xbcf1ce10	-0.029517204
230	0x3dc886af	0.09791314
231	0xbe445298	-0.19172132
232	0xbddc907f	-0.10769748
233	0xbdade8fa	-0.084917024
234	0x3e8b9904	0.2726518
235	0x3ef4576d	0.4772295
236	0xbd8d33f8	-0.06894678
237	0xbe20dcf1	-0.15709282
238	0xbdf3b384	-0.11899474
239	0x3e889e2a	0.2668317
240	0xbc6a7af9	-0.0143115455
241	0x3d453834	0.048149303
242	0xbe254d6c	-0.16142815
243	0xbe325a9d	-0.17417379
244	0x3e1b6744	0.15176111
245	0x3d28a490	0.041172564
246	0xbe1ae301	-0.15125658
247	0xbe05d3ba	-0.13069049
248	0x3de341af	0.110965125
249	0x3e341cb0	0.17589068
250	0xbe018882	-0.1264973
251	0x3e916793	0.28399333
252	0xbd8571a4	-0.06515816
253	0x3dcc2eba	0.0996985
254	0x3ea05191	0.3131223
255	0x3e545d01	0.20738603

model.embeder.7.bias f4 [16]
0	0xbe114f07	-0.14190303
1	0x3eb4fcfc	0.35349262
2	0xbe31805a	-0.17334118
3	0x3e867626	0.26262015
4	0x3e57bf2c	0.2106902
5	0xbc317e4f	-0.010833337
6	0x3e03f9db	0.12888281
7	0x3cfbffa3	0.030761546
8	0x3ea3044b	0.31839213
9	0x3df4e1b2	0.119571105
10	0x3e83fa71	0.2577701
11	0xbd8728a8	-0.065995514
12	0x3e477476	0.1947802
13	0x3ecb1048	0.3966086
14	0x3e734b63	0.23759227
15	0xbd33e37b	-0.043918114

model.clf.0.weight f4 [64, 32]
0	0x3e044375	0.12916358
1	0xbdec49be	-0.11537503
2	0x3e2c817e	0.16846272
3	0xbd907982	-0.07054426
4	0x3dbfb23e	0.09360169
5	0xbdfd17bf	-0.12358045
6	0xbdd8345a	-0.1055686
7	0x3da42c0d	0.080162145
8	0xbd3af4d8	-0.045643657
9	0xbd7486ad	-0.05969875
10	0x3ccd4a93	0.025059974
11	0x3e0da338	0.13831794
12	0xbc5e0e48	-0.01355321
13	0xbdf86559	-0.121287055
14	0xbdfa65ff	-0.122264855
15	0x3d6b1133	0.05738945
16	0xbce28332	-0.02765045
17	0x3e016cb7	0.12639128
18	0xbe113132	-0.14178923
19	0xbd6bfe22	-0.057615407
20	0xbe14e919	-0.14542045
21	0x3e0ab436	0.13545308
22	0xbdb881d4	-0.09009138
23	0x3df16191	0.117861874
24	0x3e20611e	0.15662047
25	0x3d975e1a	0.07390995
26	0xbd38c290	-0.045107424
27	0x3e1ca973	0.15299015
28	0x3dc92945	0.09822325
29	0x3e12ce7c	0.1433658
30	0x3b884e51	0.0041597267
31	0x3e27fbfb	0.16404717
32	0xbd27b6bc	-0.040945753
33	0x3d73abed	0.059490133
34	0xbc3d82f3	-0.011566865
35	0x3dbcf857	0.092270546
36	0xbdf93015	-0.12167374
37	0xbb7a4bc7	-0.003819214
38	0x3b317bda	0.0027081878
39	0xbbdf61ab	-0.006817063
40	0x3e4acac5	0.19803913
41	0xbcf4a0c7	-0.02986182
42	0xbd835974	-0.06413546
43	0x3d199a2a	0.037500538
44	0x3e236cf8	0.15959537
45	0xbe0af947	-0.13571654
46	0x3ddf3d88	0.10900408
47	0x3df1d3cc	0.11807975
48	0xbd9b2f57	-0.07577389
49	0x3e15e11f	0.14636658
50	0x3d472340	0.0486176
51	0xbdcd0ab6	-0.100118086
52	0x3d794a13	0.06086166
53	0x3e104de8	0.14092219
54	0x3d557eb1	0.052122775
55	0xbd5c1a93	-0.05373628
56	0xbde4afa9	-0.11166317
57	0x3e1a57b4	0.15072519
58	0x3e3410d4	0.17584544
59	0xbd187259	-0.037218425
60	0x3de43667	0.11143189
61	0x3bc41dc0	0.005984992
62	0xbdb8ecb2	-0.09029521
63	0xbd6cc425	-0.057804246
64	0x3e00a7f9	0.12564076
65	0x3e1b97a5	0.15194567
66	0xbccee4a9	-0.025255518
67	0x3d53d918	0.05172071
68	0xbde3b61a	-0.111187175
69	0x3e1faf42	0.155942
70	0xbd247cd4	-0.040158108
71	0x3cfff353	0.031243956
72	0xbc9fa5da	-0.019488264
73	0xbdf3cbdb	-0.11904117
74	0x3e406396	0.18787989
75	0xbe00b46b	-0.12568824
76	0xbb2469a3	-0.0025087378
77	0xbdb09b94	-0.08623424
78	0xbde3b959	-0.11119337
79	0x3d644c39	0.055736754
80	0xbdd230da	-0.10263224
81	0xbd77b6c8	-0.06047705
82	0x3cba240c	0.022722267
83	0x3e47daa4	0.19516999
84	0x3e39489c	0.18094105
85	0x3e711a7a	0.23545256
86	0xbdb36071	-0.08758629
87	0x3d913b8b	0.07091435
88	0x3b45f4d7	0.003020575
89	0x3e2d95dd	0.169517
90	0x3dd171d1	0.10226787
91	0x3c16e75d	0.009210435
92	0x3db052a3	0.08609512
93	0x3e1caece	0.15301058
94	0x3df278c4	0.118394405
95	0x3d72039e	0.05908548
96	0x3b24a0c2	0.0025120233
97	0xba94f0bd	-0.001136325
98	0xbd5aaac0	-0.053385496
99	0x3ce39866	0.02778263
100	0xbdbd2c3e	-0.09236954
101	0x3e120583	0.14259915
102	0xbb6dedc6	-0.0036305054
103	0x3d90717c	0.070528954
104	0xbd76752d	-0.06017034
105	0x3d58278e	0.052772097
106	0xbdf0b763	-0.11753728
107	0x3db94d4f	0.090479486
108	0x3e3b66e8	0.18300974
109	0xbe5205fa	-0.20510092
110	0x3cf7cedc	0.030250005
111	0xbcafa58b	-0.021441242
112	0xbbc8d60a	-0.006129031
113	0x3e0b7fde	0.13622996
114	0xbe091375	-0.13386329
115	0x3e030a39	0.12796868
116	0x3b1186d7	0.0022205615
117	0x3df3477e	0.118788704
118	0xbe1bd218	-0.15216863
119	0x3de3c08c	0.1112071
120	0xbe32516e	-0.17413875
121	0xbd9d45d2	-0.07679333
122	0x3d4e39e1	0.050348166
123	0x3e2a73f2	0.16645792
124	0x3e2da9a4	0.16959244
125	0x3e2bd1d3	0.1677926
126	0xbde29d36	-0.11065142
127	0xbd8f85f9	-0.07007975
128	0x3dde1d83	0.10845473
129	0x3e835ddf	0.25657555
130	0x3e17a9dc	0.1481089
131	0x3e6b4419	0.22975196
132	0x3d3995b5	0.045308787
133	0xbd182275	-0.037142236
134	0x3d98f0d5	0.0746781
135	0xbd5dafd1	-0.05412275
136	0x3e1dc052	0.15405396
137	0x3e9e809b	0.30957493
138	0x3ea76e0f	0.32701156
139	0xbcc2c5e6	-0.023776006
140	0xbdc226b9	-0.09480042
141	0x3ea3c6df	0.31987664
142	0xbabc3ddd	-0.0014361698
143	0xbd25a1a0	-0.04043734
144	0xbd29d9ba	-0.041467406
145	0x3e4edcb9	0.20201387
146	0x3e83bef6	0.2573163
147	0x3de7568a	0.11295803
148	0x3e4719c8	0.19443429
149	0xbe4e4753	-0.20144396
150	0xbc9c5a5b	-0.019086054
151	0x3d402e2e	0.04691904
152	0x3dfe33d2	0.12412228
153	0x3ea930ef	0.33045146
154	0x3d734a61	0.059397105
155	0xbcd44b9c	-0.02591496
156	0xbcff5aa0	-0.031171143
157	0xba6fafbe	-0.0009143314
158	0x3e421497	0.18953167
159	0xbd51b9fd	-0.051202763
160	0x3dd73324	0.10507801
161	0x3df5c760	0.120009184
162	0xbd26ab49	-0.040690694
163	0xbe206093	-0.1566184
164	0x3dc78c09	0.097435065
165	0x3d3fdaf9	0.046839688
166	0x3de88b54	0.113547
167	0x3d23bb58	0.039973587
168	0xbddee3e2	-0.10883309
169	0x3c4ba87c	0.0124303065
170	0xbe201cc5	-0.15635975
171	0x3e132ed7	0.14373337
172	0x3da6b8db	0.08140727
173	0x3d167771	0.036735002
174	0x3dd01389	0.10159976
175	0xbd85936b	-0.06522258
176	0xbdfe8e4f	-0.12429487
177	0xbe117ea2	-0.14208463
178	0x3d7c4aa5	0.061594624
179	0xbdf81685	-0.1211367
180	0xbdf34e19	-0.1188013
181	0x3c8b8703	0.017032152
182	0x3d0da026	0.034576558
183	0x3e0f380b	0.13986222
184	0xbe01dbd9	-0.12681521
185	0x3c86646a	0.016405303
186	0x3e3060a9	0.17224373
187	0x3e03661d	0.12831922
188	0x3c423d84	0.011855487
189	0xbb1e69fd	-0.002417206
190	0xbd09a58a	-0.033605136
191	0x3d52850c	0.051396415
192	0xbe22d4df	-0.15901516
193	0x3b415090	0.0029497482
194	0x3e6b194c	0.22958869
195	0x3ca231be	0.01979911
196	0x3e41a54f	0.18910716
197	0x3d3d6d41	0.04624677
198	0xbcbfe718	-0.023425624
199	0x3e202c77	0.15641962
200	0x3e0ac88a	0.13553062
201	0x3e281a58	0.164163
202	0x3e1297d7	0.14315735
203	0x3d54431f	0.051821824
204	0xbd98bc98	-0.074578464
205	0x3dd6ea82	0.104939476
206	0x3e15e947	0.1463977
207	0x3d09a585	0.033605117
208	0xbda8b765	-0.08238105
209	0xbd6d4036	-0.057922564
210	0x3e65db91	0.22447039
211	0x3e861652	0.26188904
212	0x3ccca6d6	0.024981897
213	0xbe83d250	-0.25746393
214	0xbdcd771c	-0.10032484
215	0x3ca225ed	0.019793475
216	0x3e5d89ce	0.216346
217	0x3e378882	0.17923167
218	0x3e7d1c38	0.24717796
219	0xbe16d4c5	-0.14729603
220	0xbdaa3efe	-0.08312796
221	0x3e37497a	0.17899123
222	0x3e67e621	0.22646381
223	0x3cb54224	0.022126265
224	0x3e0b83b5	0.13624461
225	0xbe2a7e22	-0.16649678
226	0xbd2a5d5a	-0.041592933
227	0xbe1c6429	-0.15272583
228	0x3e24556b	0.1604821
229	0x3ddf34db	0.10898753
230	0x3d72a261	0.059236888
231	0x3e24da45	0.16098888
232	0x3c1460e4	0.009056304
233	0xbe13f81e	-0.14450118
234	0xbe0da048	-0.13830674
235	0x3d9963bd	0.07489727
236	0x3d7decfd	0.061993588
237	0x3d409a45	0.047022123
238	0xbd289720	-0.04115975
239	0xbdd97991	-0.1061889
240	0xbd818a0c	-0.063251585
241	0x3d3e4841	0.046455625
242	0x3e076246	0.13221082
243	0xbe2c26b6	-0.16811642
244	0x3dd1f278	0.10251325
245	0x3d85fa15	0.0654184
246	0xbdecca95	-0.11562077
247	0xbdec170c	-0.11527833
248	0xbdab6276	-0.08368389
249	0x3e01f73b	0.12691967
250	0xbd21a635	-0.039465148
251	0x3dab092e	0.0835136
252	0xbdd42129	-0.10357887
253	0x3c85dcc8	0.016340628
254	0x3da1cc10	0.0790025
255	0xbd45d72f	-0.04830092

model.clf.0.bias f4 [64]
0	0x3cbc0f32	0.022956464
1	0x3e066881	0.13125803
2	0xbddf506e	-0.109040126
3	0x3d7ad336	0.061236583
4	0x3e911ac5	0.28340736
5	0x3c6a778e	0.014310731
6	0xbd51e027	-0.05123916
7	0xbd08ea2d	-0.033426452
8	0xbdf06093	-0.1173717
9	0x3d749632	0.05971355
10	0x3d693102	0.056931503
11	0x3d811216	0.06302278
12	0x3e0c5333	0.13703613
13	0xbe03b06b	-0.12860267
14	0x3cf16735	0.029468158
15	0xbe1a0a19	-0.15042914
16	0x3c10d131	0.008838938
17	0xbcda555a	-0.026652027
18	0x3e75e880	0.24014473
19	0x3e7e0a70	0.24808669
20	0xbe39a391	-0.18128802
21	0x3d8f5893	0.06999316
22	0xbc5c5796	-0.0134486165
23	0x3e8075ad	0.2508978
24	0xbe25ad91	-0.16179492
25	0x3c31a6fc	0.010843035
26	0x3df2b8f0	0.1185168
27	0xbde6dae4	-0.11272219
28	0xbdb9865b	-0.090588294
29	0x3e800d2c	0.2501005
30	0x3e6c555b	0.23079436
31	0x3e156ec5	0.14593036
32	0x3e934083	0.28760156
33	0x3d84c26f	0.06482398
34	0xbc18a0af	-0.009315654
35	0xbdec3afa	-0.115346864
36	0x3deb7f95	0.11498944
37	0x3d939cdb	0.07207652
38	0xbd9a2ba4	-0.07527855
39	0xbdd67b99	-0.10472793
40	0xbc1037aa	-0.008802334
41	0x3d95b3d7	0.07309692
42	0x3e3061a8	0.17224753
43	0xbde2380e	-0.11045848
44	0xbd8fd2ec	-0.07022652
45	0x3ccf18dd	0.02528041
46	0xbcc85c1c	-0.024457984
47	0x3c6f302a	0.014598886
48	0x3c1f88c2	0.009737195
49	0x3df4d349	0.11954362
50	0xbb32b5cf	-0.002726901
51	0xbdfcb399	-0.12338943
52	0x3e0a8092	0.13525608
53	0xbe03f763	-0.1288734
54	0x3d7b0a48	0.0612891
55	0xbd818178	-0.06323522
56	0x3d575649	0.052572522
57	0x3c9a95e0	0.018870294
58	0x3e9c48b1	0.3052421
59	0x3e70f0ca	0.23529354
60	0x3ddbbcb4	0.10729352
61	0xbd4d1a31	-0.050073806
62	0xbd4ade1f	-0.049528237
63	0x3c80f375	0.01574109

model.clf.3.weight f4 [5, 32]
0	0x3ccb636d	0.024827683
1	0x3e0e1291	0.1387427
2	0xbd746435	-0.059665877
3	0xbe05fbd4	-0.13084346
4	0x3a8cad14	0.0010732734
5	0x3d4551f4	0.04817386
6	0x3e14cdfb	0.145317
7	0xbe415dba	-0.1888341
8	0x3b166ed6	0.0022954247
9	0xbe5191f4	-0.20465833
10	0xbe4aadc2	-0.19792846
11	0xbe543595	-0.20723565
12	0x3e1f5ea1	0.15563442
13	0xbe38e438	-0.18055809
14	0xbe05abba	-0.1305379
15	0xbe675cbb	-0.22593968
16	0xbe1b0715	-0.1513942
17	0xbe1ee24d	-0.15516014
18	0x3d1e6586	0.03867104
19	0xbe6caf09	-0.23113646
20	0x3d86e12c	0.06585917
21	0xbdb6d97d	-0.08928201
22	0xbbac9b44	-0.0052675325
23	0xbc993f22	-0.018706862
24	0x3d9ae2ba	0.07562776
25	0xbde4aeac	-0.111661285
26	0xbdc561f0	-0.09637821
27	0xbdd73c8c	-0.10509595
28	0x3d6991a6	0.057023667
29	0xbe50a22b	-0.20374362
30	0xbe09e474	-0.13466054
31	0x3db7ba77	0.08971112
32	0xbbc7c08a	-0.0060959505
33	0xbe4af455	-0.19819768
34	0x3cdcabaf	0.026937334
35	0xbcb8eed1	-0.022574814
36	0xbdea660f	-0.114452474
37	0x3c7432a6	0.014904654
38	0xbdc1f9e6	-0.094714925
39	0x3d411567	0.04713955
40	0x3e1e58c2	0.15463546
41	0xbd4da899	-0.050209615
42	0x3e31b5aa	0.17354456
43	0xba0f66ae	-0.00054703176
44	0x3e070812	0.13186672
45	0xbd29382a	-0.041313328
46	0xbe4682c5	-0.19385822
47	0x3e13c516	0.14430651
48	0xbcde439f	-0.027131854
49	0x3d5c2b1c	0.05375205
50	0x3e27f04b	0.16400258
51	0x3e31c9f1	0.17362191
52	0x3ce61f68	0.028091148
53	0xbd2f4541	-0.042790655
54	0x3d89fe15	0.067379154
55	0xbe7435f5	-0.23848708
56	0x3e14d091	0.14532687
57	0xbbd79719	-0.0065792915
58	0x3d80469c	0.06263468
59	0x3e13b7a1	0.14425518
60	0x3c61788b	0.01376165
61	0xbd94b0b5	-0.07260267
62	0x3cee76e5	0.029109428
63	0xbe00366a	-0.12520757
64	0x3d4422c0	0.047884703
65	0x3e73a20d	0.23792286
66	0x3ebfe19a	0.37476808
67	0x3e8b1cfc	0.2717055
68	0x3e416a29	0.18888153
69	0x3edb19a8	0.42793012
70	0x3beba8ed	0.0071917684
71	0x3ea3e1ef	0.3200831
72	0x3e9bea1b	0.30452046
73	0x3ea9e11c	0.33179557
74	0x3ea7f8b9	0.32806948
75	0x3ef37669	0.47551277
76	0x3ddc7100	0.107637405
77	0x3e47fb80	0.19529533
78	0x3e77c3bc	0.2419576
79	0x3f14f387	0.58184093
80	0x3ebc7dd8	0.3681476
81	0x3e02b62f	0.1276481
82	0x3eb39dd1	0.35081342
83	0x3dca7f88	0.09887606
84	0x3dce4deb	0.100734554
85	0x3ef172ba	0.47157842
86	0x3e33d8e2	0.17563203
87	0x3e80a0cc	0.25122678
88	0xbd94115f	-0.07229876
89	0xbddd45dc	-0.1080434
90	0x3e77c0d3	0.2419465
91	0x3e9fd929	0.31220368
92	0x3ddacbb8	0.106833875
93	0x3ea10812	0.3145147
94	0x3dba8467	0.09107285
95	0x3ecf2dff	0.4046478
96	0x3d58f7b7	0.052970614
97	0x3dd12fbf	0.10214185
98	0xbcc50664	-0.024050899
99	0x3e1a747e	0.150835
100	0xbd3dbce7	-0.04632273
101	0x3e7b8b10	0.24564767
102	0x3e22f7e7	0.1591488
103	0xbd3f9630	-0.04677409
104	0x3dbdcf92	0.092681065
105	0x3e2a8fe6	0.16656455
106	0x3df1bd81	0.11803723
107	0x3ca7ee62	0.020499412
108	0x3d012001	0.031524662
109	0x3e1c4305	0.15259941
110	0xbdb15667	-0.08659058
111	0x3e78690f	0.24258827
112	0xbda8eb2f	-0.08247983
113	0x3e6dcd7a	0.23222914
114	0x3e37e3ff	0.17958067
115	0x3e2ad50a	0.1668283
116	0x3e1bc2bf	0.15211008
117	0x3e3b77e2	0.1830745
118	0x3dd3fd82	0.10351087
119	0x3d64e314	0.05588062
120	0x3daac655	0.0833861
121	0x3db7f062	0.08981396
122	0x3e4baa08	0.1988908
123	0x3e59a022	0.21252492
124	0xbe11fbf3	-0.14256267
125	0xbd80e570	-0.06293762
126	0x3dfce4cd	0.12348328
127	0x3e22b398	0.15888822
128	0xbb86b2c1	-0.0041106646
129	0x3e992484	0.29910672
130	0x3e8ec0d1	0.27881482
131	0x3e1c66a6	0.15273532
132	0xbd8f97cf	-0.07011377
133	0x3eb3a18d	0.3508419
134	0xbe03061b	-0.12795298
135	0x3e8fbd16	0.2807395
136	0x3e7f6236	0.24939808
137	0x3e4e1a44	0.20127207
138	0x3e9ac785	0.30230346
139	0x3eafc38b	0.34328875
140	0xbe0b5a1f	-0.13608597
141	0x3dccc0ea	0.09997733
142	0x3dcd532b	0.10025629
143	0x3ed66355	0.4187266
144	0x3ed37036	0.41296548
145	0x3d0a2842	0.0337298
146	0x3e81962d	0.25309888
147	0x3d84b447	0.06479698
148	0xbe074e79	-0.13213529
149	0x3ea48bf0	0.32138014
150	0x3e08c9d9	0.13358249
151	0x3da7b8f6	0.081895754
152	0x3b7e53ea	0.003880734
153	0x3e318926	0.17337474
154	0x3e4953c6	0.19660863
155	0xbd12d812	-0.035850592
156	0x3e2757a0	0.1634202
157	0x3e245594	0.1604827
158	0xbd29b76b	-0.041434687
159	0x3ea86b58	0.32894397

model.clf.3.bias f4 [5]
0	0x3dfced1d	0.12349913
1	0x3d934956	0.07191722
2	0x3d6aaf49	0.05729607
3	0xbbdfb682	-0.0068271765
4	0x3dd7b93b	0.10533377
